5-deployment/artefacts/model.pth (torch, 110604 bytes, 15 tensors)

embedding.weight f4 [100, 32]
0	0xbe557ed5	-0.20849164
1	0xbd9979c6	-0.074939296
2	0x3bc9acdd	0.00615464
3	0x3f226df1	0.6344901
4	0xbf64bb28	-0.8934808
5	0xbf068994	-0.5255368
6	0xbfff5db2	-1.9950469
7	0xbf2239cc	-0.6336944
8	0xbde2289c	-0.11042902
9	0xbe1046a7	-0.14089452
10	0xbeab23f0	-0.33425856
11	0x4005ed25	2.0925992
12	0xbf8cabb8	-1.0989904
13	0x3f96eea3	1.1791576
14	0xbf4c3b0c	-0.797776
15	0x3e0f0983	0.13968472
16	0x3ec3883d	0.3818988
17	0x3fad1fee	1.3525369
18	0x3f2e6d4e	0.68135536
19	0x400c1bb7	2.1891916
20	0xbfd6f4cd	-1.6793457
21	0xbfa455d7	-1.2838696
22	0x401fa8dc	2.4946814
23	0xbf41548a	-0.7551962
24	0xbf236c3d	-0.63837034
25	0xbf94179c	-1.1569705
26	0x3f7e26d8	0.9927802
27	0x3ec423ff	0.38308713
28	0x3e9dc6bf	0.30815694
29	0xbec17654	-0.3778559
30	0x3fb1aef6	1.3881519
31	0x3f801783	1.0007175
32	0x3fb95def	1.4481791
33	0x3e0ac972	0.13553408
34	0xbf68ce01	-0.90939337
35	0xbfc6001a	-1.5468781
36	0xc021eb9c	-2.5300055
37	0xbf27ec87	-0.6559529
38	0x3fb4bd85	1.4120337
39	0x3fbcc8b6	1.4748752
40	0xbe61987a	-0.22030821
41	0xc027add5	-2.6199849
42	0xbfc920d6	-1.5713146
43	0x400fb58e	2.2454562
44	0x3f00fd97	0.5038695
45	0xc009f546	-2.1555953
46	0x3f3920a8	0.72315454
47	0x3e04e14d	0.1297657
48	0x401c632b	2.4435527
49	0xbf850fbd	-1.0395428
50	0xbf8ba6b1	-1.0910245
51	0xbf68132c	-0.90654254
52	0x3fa03595	1.2516352
53	0x3f9ac13a	1.2090218
54	0xbe957877	-0.2919347
55	0xbfc0e95f	-1.5071219
56	0xbfc929d8	-1.5715895
57	0x4018bb36	2.3864264
58	0x3e76aae2	0.24088624
59	0xbfe794a8	-1.8092241
60	0xc03b65e4	-2.928094
61	0xbf1a8305	-0.6035617
62	0xbe44ecfb	-0.19231026
63	0x3fafb7ec	1.3728004
64	0xbfba6a76	-1.4563739
65	0xbedb3a07	-0.4281771
66	0xbf1b9d78	-0.60787153
67	0xbf6ecb67	-0.9327912
68	0xbf094e0c	-0.53634715
69	0xbfb33ffe	-1.4003904
70	0xbfd736b7	-1.6813573
71	0xbf3cf37f	-0.73809046
72	0x3f5db4c7	0.8660397
73	0x3fd346c8	1.6505976
74	0xbfd02725	-1.6261946
75	0xbfa91237	-1.3208684
76	0xbfe0eee9	-1.757291
77	0x3eb5cfdb	0.35510144
78	0x3e955a04	0.2917024
79	0x400c2e11	2.1903117
80	0xbfabf1ab	-1.3433126
81	0x3fddc1ef	1.7324809
82	0x3eafc2ce	0.34328312
83	0xbea9d7f2	-0.33172566
84	0xbf6dbb71	-0.9286414
85	0xc04b2299	-3.1739867
86	0x3fc608e0	1.5471458
87	0x3f916cce	1.136133
88	0x3f44f43c	0.7693517
89	0xbe53b9ea	-0.2067639
90	0x400a815c	2.1641455
91	0xc01e132f	-2.4699209
92	0x3ef59025	0.47961536
93	0x3fc022ab	1.501058
94	0x401e6eed	2.4755204
95	0x3f803c05	1.0018317
96	0x3f719ae4	0.9437697
97	0x3f8406ae	1.0314538
98	0xbf1924ab	-0.59821576
99	0xbdc1b071	-0.09457482
100	0x3f683d07	0.9071812
101	0x3fe448e9	1.783475
102	0x3da944c4	0.08265069
103	0xbf96ba97	-1.1775693
104	0xbf5ca2c4	-0.8618586
105	0xbf3a5dfd	-0.72799665
106	0x3edfadea	0.43687373
107	0x401824a6	2.3772368
108	0x3d51ea1e	0.051248662
109	0xbf6d4da5	-0.926966
110	0xbfc61d7a	-1.5477746
111	0xbe9658fe	-0.2936477
112	0x3f0735ee	0.52816665
113	0x3f41b97d	0.7567366
114	0xbfabfee6	-1.3437164
115	0x3ecc7225	0.39930835
116	0xbe837e14	-0.25682127
117	0x3f0fc054	0.56152844
118	0xc021b92d	-2.5269272
119	0xbf89b96e	-1.0759714
120	0x3f664d1f	0.8996143
121	0x3f1bace9	0.60810715
122	0xbef55568	-0.47916722
123	0xbe50d408	-0.20393384
124	0x3f0b1095	0.5432218
125	0xbf971a90	-1.1804981
126	0x3f4b3b62	0.79387486
127	0xbe80ebeb	-0.2517999
128	0x3da2d354	0.07950464
129	0xbf644632	-0.8916961
130	0x3f8d060a	1.1017468
131	0x3f909334	1.1294923
132	0xbf43e33c	-0.7651861
133	0x404d11d9	3.2042143
134	0x3f149bcd	0.58050233
135	0x3f53303e	0.82495487
136	0x3e8b41da	0.27198678
137	0xbf91def4	-1.1396165
138	0x3f208a6d	0.6271122
139	0xbf7b85f9	-0.982513
140	0x3e2dea4e	0.16983911
141	0x3fb26aeb	1.3938879
142	0x3f6657fd	0.8997801
143	0x3e21b99a	0.15793458
144	0xbf903e6d	-1.1269051
145	0x3f444581	0.76668555
146	0x3ebe9779	0.3722494
147	0x3ef96a8f	0.4871411
148	0xbfa6056e	-1.2970407
149	0xbe7fc4d4	-0.24977428
150	0xbfc0a852	-1.5051367
151	0x3ef9cc37	0.48788616
152	0x3fdad8df	1.7097434
153	0xbfea6728	-1.8312731
154	0x3e0b5dc4	0.13609987
155	0xbf50b880	-0.81531525
156	0xbe315a05	-0.17319496
157	0x3f0d8ee8	0.5529618
158	0xbf5b9974	-0.85781026
159	0xbea78773	-0.32720527
160	0x3f82a0ce	1.0205324
161	0x3f06b82d	0.5262478
162	0xbff4ebef	-1.9134501
163	0x3eaa628c	0.3327831
164	0xc00bb265	-2.1827633
165	0x3fc80459	1.5626327
166	0x3d014477	0.031559434
167	0x40192c37	2.3933237
168	0xbef4f0a4	-0.47839844
169	0x3f3f3fde	0.7470683
170	0x3f1ee731	0.6207152
171	0xbf009746	-0.50230825
172	0xbf8a4bb0	-1.0804348
173	0xbfc9130e	-1.570894
174	0xbf95376a	-1.1657536
175	0x3f647a06	0.89248693
176	0x3f73d6a1	0.9524937
177	0x3f1b2122	0.6059743
178	0x3f955ee5	1.1669585
179	0xbfda1f58	-1.7040815
180	0x3f5f60c3	0.8725702
181	0x3f0ae289	0.54251915
182	0x3f1dcf30	0.6164427
183	0xbe4d92a7	-0.20075475
184	0xc0116441	-2.271744
185	0x4037646d	2.8655045
186	0xbf13a58a	-0.5767447
187	0x3e1d11ad	0.15338774
188	0xbf700b00	-0.93766785
189	0x3fe8a4e4	1.8175321
190	0xbf009852	-0.5023242
191	0xbf46ff57	-0.7773337
192	0x3fd82328	1.6885729
193	0x3ef34f3e	0.47521394
194	0x3ff0ea79	1.8821555
195	0xbf8ae51a	-1.0851166
196	0x3e905592	0.28190285
197	0x3fb3b546	1.4039695
198	0x3f31980b	0.69372624
199	0xbf733cd0	-0.9501467
200	0xbd2f7339	-0.042834494
201	0xbfb5fb5a	-1.4217331
202	0x3f9959f7	1.198058
203	0xbdd4d03d	-0.10391281
204	0x3ef7fafb	0.4843367
205	0xbf6e42ff	-0.9307098
206	0xbfd9976c	-1.6999335
207	0x3efc0a5f	0.49226663
208	0xbe8b6df3	-0.27232322
209	0xbfbaabb1	-1.4583646
210	0xbef3d596	-0.4762389
211	0x3f068e8a	0.5256125
212	0x3f4bd3bd	0.7961996
213	0x3f424110	0.7588053
214	0x3f183565	0.59456474
215	0xbf051e38	-0.51999235
216	0xbf1727d6	-0.5904516
217	0xbfa2daaa	-1.2722981
218	0xbf55b788	-0.8348317
219	0x3fa7f749	1.312234
220	0x3e5a2a0a	0.21305099
221	0xbeae3c5c	-0.34030426
222	0x3e8520da	0.26001626
223	0xbfe4a551	-1.786295
224	0x3f8ef913	1.1169761
225	0xbfacb74a	-1.3493435
226	0x3d1ca388	0.038241893
227	0xc00de95c	-2.2173681
228	0xbf8fd7fd	-1.1237789
229	0xbf4be630	-0.79648113
230	0x3f9baa20	1.2161293
231	0xbf27e273	-0.6557991
232	0xbfcc1349	-1.5943385
233	0xbe177f41	-0.14794637
234	0xbfd11195	-1.6333491
235	0xbfabdc92	-1.3426688
236	0x3ef1c294	0.47218764
237	0xbf6ef8b6	-0.9334825
238	0xbf0b0c2c	-0.5431545
239	0x3f09e5cb	0.5386626
240	0xc0034098	-2.0508175
241	0xbd2a9e43	-0.041654836
242	0x3f133f37	0.57518333
243	0x3f07e8a0	0.5308933
244	0xbf8dcb51	-1.1077672
245	0xc01e0339	-2.4689467
246	0x3eb24c70	0.34823942
247	0xbf58cfbc	-0.8469198
248	0x3f6e32d3	0.930463
249	0xbfb47d1d	-1.4100682
250	0xbde49d57	-0.11162823
251	0xbfee9715	-1.8639857
252	0xbfab8dc8	-1.3402643
253	0x3f96ef31	1.1791745
254	0xbf047c8d	-0.5175255
255	0x3f7420fe	0.9536284

project.weight f4 [64, 32]
0	0x3f03aea8	0.5143838
1	0x3e8c5b4b	0.274134
2	0x3d7dba9e	0.06194555
3	0xbf6fd223	-0.9368002
4	0xbeb8b808	-0.36077905
5	0xbf4f503c	-0.809818
6	0xbf6d4d41	-0.92696005
7	0xbf375004	-0.7160647
8	0x3ea666f3	0.3250042
9	0x3f2f0216	0.6836256
10	0xbf034b04	-0.5128634
11	0x3f4d0dc9	0.8009916
12	0xbf1baf20	-0.60814095
13	0x3ef32273	0.4748722
14	0xbf4e2323	-0.80522364
15	0x3f48e021	0.78466994
16	0xbe9ad8a5	-0.30243412
17	0x3f68ea94	0.9098294
18	0x3f0894b9	0.5335193
19	0x3f256734	0.646106
20	0xbf6e6182	-0.93117535
21	0xbf1b7cb3	-0.6073715
22	0x3f5929ce	0.84829414
23	0xbec46e5d	-0.3836545
24	0x3e193585	0.14961822
25	0xbf493311	-0.78593546
26	0x3f53e219	0.8276687
27	0xbe9a46fb	-0.3013228
28	0xbe41ac08	-0.18913281
29	0x3f251bde	0.64495647
30	0x3f387a08	0.72061205
31	0x3e327293	0.17426519
32	0x3d8a5ebe	0.06756352
33	0x3f3ad2aa	0.729777
34	0xbec00499	-0.37503508
35	0x3fb22843	1.3918537
36	0x3ee85430	0.4537673
37	0x3f99b868	1.2009401
38	0x3ed05959	0.40693167
39	0x3f8109a8	1.0081072
40	0x3f56079d	0.83605367
41	0xbf21af3e	-0.63158023
42	0x3e9b83f9	0.30374125
43	0xbf093b28	-0.5360589
44	0x3f58ae59	0.84641033
45	0x3e85bc12	0.2612005
46	0x3f662b4d	0.8990982
47	0x3ccbc6ba	0.024875034
48	0xbf745225	-0.9543784
49	0xbf4be2de	-0.79643047
50	0xbe07b9d7	-0.13254486
51	0xbed6f9f1	-0.41987565
52	0xbcbc45f6	-0.022982579
53	0x3c6286c4	0.013826076
54	0x3e31cea0	0.17363977
55	0x3e196f7d	0.14983936
56	0xbf33ce5e	-0.70236766
57	0x3f3ec58a	0.7452017
58	0x3ee5d899	0.44891813
59	0x3e72c316	0.23707232
60	0x3e5862f8	0.21131504
61	0xbf343cce	-0.7040528
62	0xbe7a73bd	-0.24458213
63	0xbeac56cb	-0.33659968
64	0x3f3f6942	0.74769986
65	0x3f87ba4e	1.0603731
66	0xbf370d4f	-0.7150468
67	0xbf522a9a	-0.82096255
68	0xbec1470e	-0.37749523
69	0xbf2a0b0c	-0.66423106
70	0xbe1bd917	-0.15219532
71	0xbf6881e5	-0.90823203
72	0xbef18cf7	-0.4717786
73	0x3e4e009f	0.20117424
74	0xbf9363b5	-1.1514803
75	0x3f4b96ef	0.7952718
76	0xbf2bb87a	-0.67078364
77	0xbe7bff03	-0.24608998
78	0xbf59c69d	-0.85068685
79	0x3f7a5f60	0.9780178
80	0x3f9f09d7	1.2424878
81	0x3f0ad275	0.5422738
82	0x3e70e28a	0.23523918
83	0x3f0f5122	0.55983174
84	0xbebcfec0	-0.3691311
85	0xbc707c2c	-0.014678042
86	0x3f0b3015	0.5437024
87	0xbf2470b2	-0.6423446
88	0xbf942807	-1.1574715
89	0x3f52b510	0.8230753
90	0x3f137e0f	0.57614225
91	0xbddf073e	-0.10890053
92	0xbf7cd072	-0.9875556
93	0x3f5dafb0	0.865962
94	0x3f2a0215	0.66409427
95	0x3ecfeda8	0.40611005
96	0xbdc74180	-0.0972929
97	0xbf03b2ad	-0.5144451
98	0x3f4f683b	0.8101842
99	0x3f5baf3c	0.8581426
100	0x3e995c15	0.29953066
101	0x3e050bc9	0.12992777
102	0x3f638e13	0.88888663
103	0x3e75cbb2	0.24003485
104	0xbe4efbcf	-0.20213245
105	0xbc6d089a	-0.014467383
106	0x3e71dc51	0.236192
107	0xbf307aed	-0.6893757
108	0x3edd1179	0.43177393
109	0xbf27eaf3	-0.6559288
110	0x3f5ea726	0.869738
111	0x3e83539d	0.2564973
112	0xbe14361a	-0.14473763
113	0xbe2b4bb5	-0.16728099
114	0xbf10bb9b	-0.56536263
115	0xbd970a0f	-0.073749654
116	0x3f82f929	1.0232288
117	0xbdf6115b	-0.12015029
118	0xbf9b0cdb	-1.2113298
119	0x3eab34b0	0.33438635
120	0x3eb53a6e	0.3539614
121	0x3eb19ddd	0.34690753
122	0xbe5b3bab	-0.2140948
123	0xbe0c2e98	-0.13689649
124	0x3f2dfb14	0.6796124
125	0xbf886039	-1.0654365
126	0xbe5970c8	-0.21234429
127	0xbf39e49e	-0.7261447
128	0x3d2d65e2	0.04233349
129	0x3f66062d	0.89853173
130	0xbf5b5ac8	-0.85685396
131	0xbf887ee6	-1.0663726
132	0xbdb5ef21	-0.08883501
133	0x3f02b357	0.510549
134	0xbf6fdd8b	-0.9369742
135	0xbe830e99	-0.25597075
136	0x3f36f6f4	0.7147057
137	0x3f7565f8	0.95858717
138	0xbf7635e4	-0.9617598
139	0x3f2e48b0	0.6807966
140	0xbf296ed1	-0.6618472
141	0x3efed74c	0.49773633
142	0xbf25bd60	-0.6474209
143	0x3ee91c71	0.45529512
144	0x3e431f37	0.19054876
145	0x3f046f23	0.5173208
146	0x3f4b5165	0.79421073
147	0x3f3e6b3d	0.7438238
148	0xbf2ec402	-0.68267834
149	0xbf7b4a4b	-0.9816024
150	0x3f2762cc	0.6538513
151	0xbe96b482	-0.29434592
152	0x3ed8d144	0.42347157
153	0xbf080711	-0.5313578
154	0x3f2a21ed	0.66458017
155	0xbdb99c51	-0.09063018
156	0xbe063763	-0.13107066
157	0x3f27c1d4	0.65530133
158	0x3f35e3f2	0.7105094
159	0x3ef374e4	0.47550118
160	0x3d1b4c97	0.03791484
161	0xbf32ce43	-0.6984598
162	0x3fdbe9c6	1.7180717
163	0x3f061ae8	0.52384806
164	0x3f6f758b	0.9353873
165	0xbede0158	-0.433604
166	0x3da529e6	0.08064632
167	0x3f37ac65	0.7174743
168	0xbf117fba	-0.5683552
169	0xbe250de6	-0.16118583
170	0x3e7c7612	0.24654415
171	0xbebeb8ee	-0.37250465
172	0x3eba6471	0.36404756
173	0xbe8117c6	-0.2521345
174	0x3f2d176e	0.67613876
175	0xbefa82ad	-0.48927823
176	0x3e9063e4	0.2820121
177	0xbf1cd6d9	-0.6126533
178	0xbe332498	-0.17494428
179	0xbf45e800	-0.7730713
180	0x3f661c8d	0.89887315
181	0x3f0e6cc0	0.5563469
182	0xbe5c5416	-0.21516451
183	0x3f0e3cf4	0.5556176
184	0xbf79ba0b	-0.97549504
185	0x3f29b494	0.66291165
186	0xbf23a18a	-0.63918364
187	0x3f1c2800	0.60998535
188	0xbf8004e9	-1.0001498
189	0xbf34c4d8	-0.7061286
190	0xbece62b2	-0.40309674
191	0xbedf9783	-0.43670282
192	0x3df03f6a	0.11730845
193	0x3e555937	0.20834814
194	0xbf88ccb5	-1.0687472
195	0xbe83a980	-0.25715256
196	0xbed2ce3d	-0.41172972
197	0xbf13ab7f	-0.5768356
198	0xbeb0481c	-0.34430015
199	0xbed1cc8a	-0.40976363
200	0x3e6bdd74	0.23033696
201	0x3f14ea98	0.5817046
202	0xbeb32b1f	-0.34993836
203	0x3f3648be	0.71204746
204	0xbf2ba260	-0.6704464
205	0x3edd1adb	0.43184552
206	0xbf0f36e1	-0.55943114
207	0x3ee7e2fa	0.45290357
208	0x3b95b152	0.0045682574
209	0x3f237db6	0.63863695
210	0x3f0ab0cb	0.54176015
211	0x3f0274e6	0.5095962
212	0xbf20ada4	-0.62764955
213	0xbef1e737	-0.47246715
214	0x3f413f2d	0.75487024
215	0xbe50dc12	-0.2039645
216	0xbc91f1ce	-0.017815497
217	0xbe9bbb82	-0.30416495
218	0x3f1caaf3	0.6119835
219	0xbe29479e	-0.16531226
220	0xbcb0287f	-0.021503685
221	0x3ed5beee	0.4174723
222	0x3f20658a	0.62654936
223	0xbd97e77e	-0.074172005
224	0x3fb939f5	1.4470812
225	0x3f646f26	0.892321
226	0xbe27adf8	-0.16374958
227	0xbf3864b5	-0.72028667
228	0xbf05584c	-0.52087855
229	0xbf86d4e2	-1.0533717
230	0xbf473a73	-0.7782356
231	0xbf307ebe	-0.68943393
232	0x3f454084	0.7705157
233	0x3f31e590	0.6949091
234	0xbf2347f2	-0.63781655
235	0x3f12900d	0.57251054
236	0xbf31b57c	-0.6941755
237	0x3e91b24d	0.28456345
238	0xbf3695c6	-0.71322286
239	0x3f356541	0.70857626
240	0xbf174c66	-0.5910095
241	0x3f51fb52	0.8202411
242	0x3f47bbff	0.78021234
243	0x3f21227f	0.6294326
244	0xbf3b3ffa	-0.73144495
245	0xbf371024	-0.71509004
246	0x3f5a33f1	0.85235506
247	0xbea32e4a	-0.31871253
248	0x3ec074b4	0.37589037
249	0xbf585b06	-0.8451389
250	0x3f074cfb	0.5285184
251	0xbf1d9246	-0.6155132
252	0x3f8108e1	1.0080835
253	0x3f7cae5e	0.98703563
254	0x3f1d20b3	0.6137802
255	0x3f0b4e6e	0.5441655

project.bias f4 [64]
0	0x3ed03107	0.40662405
1	0x3e82723c	0.2547778
2	0x3f080b94	0.53142667
3	0xbed59241	-0.41713145
4	0x3f23acf4	0.6393578
5	0xbe39d148	-0.1814624
6	0x3bdd49d4	0.0067531858
7	0x3f38c511	0.721757
8	0xbed8e560	-0.423625
9	0x3f2abf8a	0.66698515
10	0x3ef371bb	0.47547707
11	0xbbd8bbc8	-0.006614182
12	0x3e13b86e	0.14425823
13	0x3f31f88f	0.69519895
14	0xbe3ae48a	-0.18251243
15	0x3f11ccec	0.5695331
16	0x3f639975	0.8890603
17	0x3dd54429	0.10413391
18	0x3f1edb16	0.6205305
19	0x3db2e4f4	0.087350756
20	0x3eeaca50	0.45857477
21	0x3ce40ea5	0.027839014
22	0xbf49b00c	-0.7878425
23	0x3ec72d22	0.3890162
24	0xbecaafdd	-0.39587298
25	0xbf44b5b7	-0.76839775
26	0x3e707b2e	0.2348449
27	0xbe95fef6	-0.29296082
28	0xbf2dc58b	-0.6787955
29	0xbe8ac59d	-0.27103892
30	0x3eadf494	0.3397566
31	0xbf13357e	-0.575035
32	0x3e520dde	0.20513102
33	0x3ebf13ca	0.37319785
34	0xbf3c9bbb	-0.73675126
35	0x3ed96e6f	0.42467067
36	0x3e8ee921	0.27912238
37	0xbee37cd7	-0.44431183
38	0xbe15f44d	-0.14643975
39	0xbf1feae1	-0.6246777
40	0xbe82dbcd	-0.2555832
41	0xbf06fc74	-0.5272896
42	0x3f877ed9	1.0585586
43	0x3e04e233	0.12976913
44	0xbf6cda2c	-0.92520404
45	0xbf3b9944	-0.7328074
46	0x3e7290e9	0.23688091
47	0xbf1e46ab	-0.6182658
48	0x3f00e25f	0.50345415
49	0x3f143647	0.5789532
50	0x3f2341c3	0.6377222
51	0x3db578aa	0.088609055
52	0xbd479028	-0.048721462
53	0xbf13f8fd	-0.578018
54	0x3d95036e	0.07276045
55	0x3f10103a	0.5627476
56	0x3d70d95a	0.058801033
57	0xbeddacbc	-0.43295848
58	0xbf46b05f	-0.7761287
59	0x3f2e32eb	0.68046445
60	0x3ebc5ee0	0.36791134
61	0x3e8ac2be	0.27101701
62	0x3f87520b	1.0571913
63	0xbc8726d2	-0.016498003

rnn.weight_ih_l0 f4 [64, 32]
0	0x3f3b03e7	0.7305283
1	0xbf9ef6ba	-1.2419045
2	0xbfa0027b	-1.2500757
3	0xbe9eeacb	-0.31038508
4	0xbff7bced	-1.935453
5	0xbfb83b3c	-1.4393077
6	0xbe6352e6	-0.22199592
7	0x3d0560c1	0.032562975
8	0xbeaf057e	-0.34183878
9	0xbe885889	-0.26630047
10	0x3f4e7d0d	0.8065956
11	0x3f453bf1	0.7704459
12	0x3f3cf1bb	0.7380635
13	0xc00a431a	-2.1603456
14	0x3e99ba3a	0.30024892
15	0xbf343d1d	-0.7040575
16	0x3f6e59a7	0.9310555
17	0x3e4f3040	0.2023325
18	0xbf0aadb7	-0.5417132
19	0x3f2a7fb3	0.66601104
20	0x3f63ec56	0.89032495
21	0x3f7cc0c7	0.98731655
22	0xbf57c35a	-0.8428246
23	0xbf806947	-1.0032128
24	0x3dcf4413	0.10120406
25	0x3f53615b	0.8257043
26	0xbfa361cc	-1.276422
27	0x3eebc112	0.46045738
28	0xbf8d1328	-1.1021471
29	0xbd274140	-0.04083371
30	0xbf18a564	-0.59627366
31	0xc027078e	-2.609836
32	0x3dec06f2	0.11524762
33	0xbf79f91b	-0.9764573
34	0x3f492a30	0.7858
35	0x3d192253	0.03738625
36	0xbdaa33a2	-0.083106294
37	0x3e9f6764	0.31133568
38	0x3f3651d6	0.7121862
39	0x3f329fd4	0.6977513
40	0xbe9e458a	-0.3091243
41	0xbf78bb56	-0.9716085
42	0xbe77a772	-0.24184969
43	0xbe5ee51d	-0.21767087
44	0x3ed44d15	0.4146506
45	0xbf1505e0	-0.5821209
46	0x3f5abbd8	0.85442877
47	0xbf40e43a	-0.75348246
48	0x3ee26039	0.44214037
49	0xbf6acadc	-0.9171579
50	0xbf55e3cd	-0.8355072
51	0xbedefdb6	-0.4355294
52	0x3f4e4b2a	0.8058344
53	0x3f14578c	0.57946086
54	0xbf230e50	-0.63693714
55	0x3e16ca09	0.14725508
56	0xbf391520	-0.7229786
57	0x3f1d7e85	0.6152118
58	0xbf374f6a	-0.7160555
59	0x3e09c6f3	0.134548
60	0xbe623802	-0.22091678
61	0xbf39c34c	-0.72563624
62	0xbf550dc0	-0.83224106
63	0x3f35e420	0.71051216
64	0xbef6d3d2	-0.4820848
65	0xbec2fccd	-0.38083497
66	0x3f65fa62	0.8983518
67	0x3dc58a4f	0.09645521
68	0x3f08aa05	0.5338443
69	0xbea2c3c1	-0.31789973
70	0x3f36dfbe	0.71435153
71	0x3f4ff529	0.8123346
72	0xbeea7ac1	-0.4579678
73	0x3e2ba010	0.16760278
74	0xbe814228	-0.25245786
75	0xbf11955a	-0.5686852
76	0x3f340636	0.7032198
77	0xbfa3fe49	-1.2811977
78	0x3f3a6eb1	0.7282515
79	0xbf299bf8	-0.66253614
80	0xbe26cf2e	-0.1628997
81	0xbf81f6a4	-1.0153394
82	0xbf107373	-0.5642616
83	0xbf12d86a	-0.5736147
84	0x3f511a3a	0.81680644
85	0x3f09ba2e	0.5379971
86	0xbf1a15d4	-0.6018956
87	0x3eba99a3	0.3644534
88	0x3ecad919	0.39618757
89	0x3f6ee22e	0.9331387
90	0xbf0c6311	-0.54838663
91	0xbecd90eb	-0.40149626
92	0x3e93a0ec	0.2883371
93	0xbef86565	-0.48514858
94	0xbf1a0c2c	-0.6017482
95	0xbe401ffc	-0.18762201
96	0x3e952c70	0.29135466
97	0xbf2697e6	-0.6507553
98	0x3ea536d0	0.3226838
99	0x3d893f6d	0.06701551
100	0x3db02351	0.08600486
101	0x3ea44bb9	0.32089022
102	0x3f23454b	0.6377761
103	0x3f5366d9	0.8257881
104	0xbf3e0a04	-0.7423403
105	0xbf856da1	-1.0424081
106	0x3ea344d2	0.31888443
107	0xbe46bc9d	-0.19407888
108	0x3ec1a922	0.3782435
109	0xbe013a47	-0.12619887
110	0x3f6b8375	0.9199746
111	0xbf462741	-0.77403647
112	0x3ed7dcaf	0.42160556
113	0xbf65266b	-0.89511746
114	0xbf7c4fa9	-0.9855905
115	0xbf38ad16	-0.7213911
116	0x3f467800	0.77526855
117	0x3e75356f	0.23946165
118	0xbf51985f	-0.81873125
119	0xbe66921f	-0.22516678
120	0xbf1b5114	-0.6067059
121	0x3ef0b7d8	0.47015262
122	0xbf474aea	-0.77848685
123	0x3f043cf5	0.51655513
124	0xba4cc120	-0.000781076
125	0xbf383574	-0.71956563
126	0xbf1def7b	-0.61693543
127	0x3e83feef	0.25780436
128	0x3f39686a	0.7242495
129	0x3fb809a4	1.4377942
130	0x3faa5631	1.3307554
131	0xbd1123bb	-0.035434466
132	0xbf06678f	-0.5250177
133	0x3fc962d5	1.5733286
134	0xbf132592	-0.574792
135	0x3ed285e9	0.4111779
136	0x3f7810bc	0.96900535
137	0xbc002518	-0.007821344
138	0xbf3dbf0c	-0.7411964
139	0x3ebe8f30	0.37218618
140	0xbf3305f8	-0.6993098
141	0xbcc542a2	-0.024079625
142	0xbe62022e	-0.22071144
143	0x3ee71f25	0.4514095
144	0xbf24ad2c	-0.6432674
145	0x3eb69f07	0.35668203
146	0xbdbe4c4c	-0.09291896
147	0xbf1e9e54	-0.6196034
148	0xbf54fa43	-0.8319437
149	0xbf28ca4d	-0.65933686
150	0x3ec5bcb7	0.3862054
151	0xbf046bd0	-0.5172701
152	0xbe9431a0	-0.2894411
153	0x3e8c8cc6	0.27451152
154	0x3efe8d9c	0.49717414
155	0xbf9fcfac	-1.2485251
156	0xbfc4ec9a	-1.5384705
157	0x3f8b5f56	1.0888469
158	0x3f4a7844	0.7908976
159	0x3e565bc3	0.20933442
160	0x3db95f2f	0.09051358
161	0xbed968ce	-0.42462772
162	0x3e719017	0.23590122
163	0xbeffe340	-0.49978065
164	0xbee63666	-0.44963378
165	0xbed6223d	-0.41822997
166	0x3f57f89c	0.8436372
167	0x3f43cf6c	0.76488376
168	0xbf31772a	-0.69322455
169	0xbf6a806a	-0.91602194
170	0xbe75dde4	-0.24010426
171	0xbc4d6aeb	-0.012537698
172	0x3f261ef2	0.6489097
173	0xbf5d9dd9	-0.8656898
174	0x3f5148cb	0.817517
175	0xbee69f68	-0.45043492
176	0x3f56b80f	0.838746
177	0xbf4510d6	-0.76978815
178	0xbf71ba77	-0.9442515
179	0xbf078e70	-0.5295172
180	0x3f5aa416	0.85406625
181	0x3f6d71b3	0.92751616
182	0xbf186461	-0.59528166
183	0xbe4bff39	-0.19921578
184	0xbf20ae00	-0.627655
185	0x3f26eba6	0.6520332
186	0xbefe57eb	-0.4967645
187	0xbe7afdfb	-0.24510948
188	0xbf33bf65	-0.7021392
189	0xbf562ea9	-0.8366495
190	0xbf1f0d85	-0.62130004
191	0x3eb8a435	0.3606278
192	0xbec0b2f5	-0.37636533
193	0xbf4550d0	-0.77076435
194	0x3d6738c1	0.05645061
195	0xbf820629	-1.015813
196	0xbf436339	-0.76323277
197	0xbf2bce46	-0.67111623
198	0x3f2b36fc	0.66880774
199	0x3f0bb53a	0.54573405
200	0xbf013e93	-0.50486106
201	0xbf6abfb1	-0.9169875
202	0x3f148c8d	0.58026963
203	0xbf11131d	-0.5666979
204	0x3f052e14	0.52023435
205	0xbf0cb492	-0.5496303
206	0x3f212ead	0.62961847
207	0xbf0e549d	-0.5559786
208	0x3f22e891	0.6363612
209	0xbf44d483	-0.7688677
210	0xbf3e97e6	-0.7445053
211	0xbf1bf6fd	-0.6092375
212	0x3f63ef94	0.8903744
213	0x3f29edfd	0.66378766
214	0xbf157db9	-0.5839496
215	0x3f204b7f	0.626152
216	0x3b75971a	0.0037474097
217	0x3f6101d0	0.8789339
218	0xbf320ff0	-0.6955557
219	0x3f27b3d0	0.6550875
220	0xbdd4ca67	-0.10390168
221	0xbf2228ed	-0.633437
222	0xbf182078	-0.59424543
223	0xbf198dfe	-0.5998229
224	0x3ebae5d8	0.36503482
225	0x3f0f7660	0.5604
226	0x3f26a845	0.6510051
227	0xbe891c09	-0.26779202
228	0xbec19ce2	-0.37815005
229	0xbe47280e	-0.19448873
230	0x3f5fc03a	0.8740269
231	0x3f2c126f	0.6721563
232	0xbee5beb3	-0.44872054
233	0xbf0423ae	-0.5161694
234	0xbe4c091d	-0.19925351
235	0x3e634fd3	0.2219842
236	0x3f131b8b	0.574639
237	0xbf032d1d	-0.5124071
238	0x3f6bfaef	0.9217977
239	0xbe5f060e	-0.21779653
240	0x3eb8c0b3	0.36084518
241	0xbf8173b1	-1.0113431
242	0xbf6e474f	-0.9307756
243	0xbf7b058f	-0.98055357
244	0x3f6d4f5e	0.9269923
245	0x3f85f780	1.0466156
246	0xbf0bbd81	-0.54586035
247	0xbe991d21	-0.29905036
248	0xbf48fcc6	-0.785107
249	0x3f5fec6b	0.8747012
250	0xbf6e090a	-0.9298254
251	0xbe81cf7b	-0.25353608
252	0xbf1ae023	-0.60498255
253	0xbf52f2de	-0.82401836
254	0xbf3ac9b7	-0.7296404
255	0x3e50ed19	0.20402946

rnn.weight_hh_l0 f4 [64, 64]
0	0xbeedb5d8	-0.46427798
1	0xbeebf99d	-0.46088877
2	0xbf2400d4	-0.64063764
3	0x3f1e0ba1	0.61736494
4	0xbf2d29a8	-0.6764169
5	0x3e7a44f3	0.24440365
6	0xbf1f126a	-0.6213747
7	0x3e9e20ea	0.30884486
8	0xbf92246e	-1.1417367
9	0xbdb93ebb	-0.09045168
10	0xbe0c8eac	-0.137263
11	0x3eeacc6f	0.45859095
12	0x3ecd8fe2	0.40148836
13	0x3fc4eec5	1.5385367
14	0x3e8ee06d	0.27905598
15	0x3f0a5bb0	0.54046154
16	0xbee7f87a	-0.4530676
17	0xbe68db99	-0.2274002
18	0xbf17b0c8	-0.5925412
19	0xbea6ad17	-0.32553932
20	0x3ee117e5	0.43963543
21	0x3edd5e14	0.43235838
22	0xbf22fbc5	-0.6366542
23	0x3f2c0f9e	0.6721133
24	0x3cd31fec	0.025772057
25	0x3f021369	0.5081087
26	0xbd362dd9	-0.044477317
27	0xbf5f9c11	-0.87347513
28	0x3f074f1d	0.5285509
29	0x3d43cbae	0.047801666
30	0x3f28ff82	0.66014874
31	0xbf2c93cd	-0.67413026
32	0xbf91cad2	-1.1390021
33	0x3e9dd6ac	0.30827844
34	0x3e74870e	0.23879644
35	0xbf7609a4	-0.9610846
36	0xbdeaf2e4	-0.11472109
37	0x3e781a2b	0.24228732
38	0xbeff168e	-0.49821895
39	0xbf598ca3	-0.8498022
40	0xc02d4532	-2.7073483
41	0x3f671945	0.90272933
42	0xc01f4fc1	-2.4892428
43	0xbec77666	-0.38957518
44	0xbf52e889	-0.8238607
45	0x3e8f9378	0.28042197
46	0xc0067024	-2.1005945
47	0x3f23cb63	0.6398222
48	0xbf0a0bf5	-0.53924495
49	0x3f15ee07	0.58566326
50	0x40563995	3.3472645
51	0xbe979a6a	-0.29609996
52	0x3e9bfe2e	0.3046736
53	0xbf6a2bef	-0.9147329
54	0x3f3089e3	0.689604
55	0xc03b6203	-2.9278572
56	0x3f154b72	0.58318245
57	0x3f47eacb	0.7809264
58	0xbedd8ed3	-0.4327303
59	0xbea44ab0	-0.32088232
60	0xbf286243	-0.65774935
61	0x3fa55f42	1.2919695
62	0x3e499040	0.19683933
63	0xbe2d44cd	-0.16920777
64	0xbe6de5fe	-0.23232266
65	0x3f4e7954	0.8065388
66	0x3f071369	0.5276399
67	0xbed56b0a	-0.41683227
68	0x3e9c3673	0.3051029
69	0x3f4ba134	0.7954285
70	0x3f58933e	0.84599674
71	0x3e6ef1b3	0.23334388
72	0xbf6d1079	-0.9260326
73	0xbf44bfed	-0.76855356
74	0x3f47405b	0.77832574
75	0xbeb6228f	-0.3557324
76	0x3f5255c6	0.8216213
77	0x3f17348b	0.5906455
78	0x3f3a4dde	0.72775066
79	0x3dae1302	0.08499719
80	0xbf00c319	-0.50297695
81	0x3f0524f6	0.5200952
82	0x3d1dac99	0.03849468
83	0xbf856d51	-1.0423986
84	0x3f6b3567	0.9187836
85	0xbe93446a	-0.28763133
86	0xbee89f0d	-0.45433846
87	0xbf45515c	-0.7707727
88	0x3f88b9c7	1.0681695
89	0xbf328520	-0.6973438
90	0xbe7594ed	-0.23982592
91	0x3f60e334	0.87846684
92	0xbe259a6d	-0.1617219
93	0x3da8d29a	0.08243294
94	0xbef22ed1	-0.47301343
95	0x3f52f7de	0.82409465
96	0xbe665867	-0.2249466
97	0x3f24014c	0.6406448
98	0x3eca0e8a	0.39464217
99	0x3f580f11	0.8439799
100	0xbf8122c2	-1.0088732
101	0x3f8009df	1.0003012
102	0x3f682a50	0.90689564
103	0x3f7a01ea	0.9765917
104	0xbea0d565	-0.31412807
105	0xbf3216b1	-0.69565874
106	0x3f5acf60	0.8547268
107	0xbf2d2a3f	-0.6764259
108	0xbe7c0f40	-0.24615192
109	0x3e24b5c5	0.16084965
110	0xbe9c6ea0	-0.3055315
111	0xbf826bf5	-1.0189196
112	0x3f2e20b2	0.6801864
113	0xbf85742e	-1.042608
114	0xbe99e369	-0.30056313
115	0xbee62943	-0.44953355
116	0xbea3a1a7	-0.31959268
117	0xbf150dc7	-0.5822415
118	0x3eac5adc	0.3366307
119	0xbef3d34d	-0.47622147
120	0xbf3a578a	-0.72789824
121	0x3eb6f071	0.35730317
122	0x3f1aa56e	0.60408676
123	0x3f6ad0af	0.91724676
124	0x3e0b7345	0.1361819
125	0xbf5273c8	-0.8220792
126	0x3f33be15	0.7021192
127	0xbe5fb9e7	-0.2184826
128	0xbe8b3938	-0.27192092
129	0x3f47df28	0.78074884
130	0x3ec5eb14	0.38655913
131	0x3c346966	0.011011457
132	0x3eb9ddcd	0.36302033
133	0x3f3e41db	0.7431924
134	0x3f712988	0.94203997
135	0x3f0ff6f0	0.5623617
136	0xbf69e4eb	-0.91364926
137	0x3e338156	0.17529806
138	0xbefb8f78	-0.49132895
139	0x3f266f88	0.65013933
140	0x3f628fda	0.8850075
141	0x3f130e37	0.57443565
142	0x3f70b68b	0.9402854
143	0x3ec38b4a	0.38192207
144	0xbc3fbaa7	-0.011702216
145	0x3eb99585	0.36246887
146	0xbebc9c4c	-0.36837995
147	0xbf5b9f31	-0.8578978
148	0x3f2b0573	0.6680519
149	0x3f308e52	0.68967164
150	0xbf13b4f9	-0.5769802
151	0xbf630d31	-0.88692003
152	0x3f2919c1	0.6605492
153	0xbf722b79	-0.94597584
154	0x3c76e9dc	0.015070405
155	0x3f7692df	0.9631786
156	0xbe9c6d18	-0.30551982
157	0xbe90cf9c	-0.28283393
158	0xbebca552	-0.3684488
159	0x3f45c63e	0.7725562
160	0xbec91248	-0.3927176
161	0x3f226ae3	0.63444346
162	0x3f8921e0	1.0713463
163	0x3f547e14	0.8300488
164	0xbf6f8a97	-0.93570846
165	0x3f60c313	0.8779766
166	0xbec9c062	-0.3940459
167	0x3f870383	1.0547947
168	0xbee4f80a	-0.4472049
169	0xbf5e6abf	-0.8688163
170	0x3f769003	0.96313494
171	0xbf222873	-0.6334297
172	0xbf3407e9	-0.7032457
173	0x3eb22086	0.34790438
174	0xbe740290	-0.23829103
175	0xbf052df6	-0.52023256
176	0x3d28e17a	0.041230656
177	0xbf36bd25	-0.7138236
178	0xbe085152	-0.13312271
179	0xbf454b8b	-0.77068394
180	0xbd91c0e9	-0.07116873
181	0xbf6f9d6f	-0.935996
182	0x3f45e0a0	0.77295876
183	0xbf47d4e8	-0.78059244
184	0xbf423d74	-0.7587502
185	0x3ed9d2c9	0.4254363
186	0xbedc2315	-0.42995515
187	0x3f6fea26	0.9371666
188	0x3df3b105	0.11898998
189	0xbe81b9c9	-0.25337055
190	0x3f1630e0	0.5866833
191	0x3e8458f6	0.25849122
192	0x3edeb185	0.43494812
193	0x3f1204dd	0.5703867
194	0x3ef4ae19	0.47789076
195	0xbeecd8a3	-0.4625903
196	0xbee7fe64	-0.45311272
197	0x3f5c456f	0.8604345
198	0x3f36a546	0.7134594
199	0x3f244783	0.6417162
200	0xbf5a04e4	-0.8516371
201	0x3f1e4115	0.6181806
202	0xbf3cfc1f	-0.73822206
203	0x3f63507d	0.8879469
204	0x3f2e9e80	0.682106
205	0x3e79c9d3	0.24393396
206	0x3f50afe0	0.81518364
207	0xbebb3bb7	-0.36568996
208	0x3e62b900	0.22140884
209	0xbf605fe8	-0.8764634
210	0xbe98ffd1	-0.29882672
211	0xbec3bc1e	-0.3822946
212	0x3ec2470d	0.37944832
213	0x3f330d3d	0.69942075
214	0x3df8d85c	0.12150642
215	0xbeea812a	-0.4580167
216	0x3f30836a	0.6895052
217	0x3e383c94	0.17991859
218	0xbddb4323	-0.10706165
219	0x3eb6e1d6	0.35719174
220	0x3ebf740d	0.37393227
221	0xbf099b94	-0.5375302
222	0xbe8e49c4	-0.27790654
223	0x3f3594f3	0.70930403
224	0xbe9c1616	-0.304856
225	0x3f44f696	0.7693876
226	0x3f651ef0	0.8950033
227	0x3f37f69b	0.71860665
228	0xbf3377fd	-0.7010496
229	0x3f300397	0.6875548
230	0xbf398a19	-0.72476345
231	0x3f56e5b9	0.8394428
232	0x3ec571be	0.3856334
233	0xbf253313	-0.6453106
234	0x3e4f8503	0.20265584
235	0x3e010d1c	0.12602657
236	0xbf3920ee	-0.7231587
237	0xbf38dbec	-0.72210574
238	0xbf11e97b	-0.5699689
239	0xbf2af77a	-0.6678387
240	0xbf01f250	-0.50760365
241	0xbf4599d2	-0.77187836
242	0x3f072fa5	0.52807075
243	0xbee4baa4	-0.44673645
244	0x3edd8988	0.4326899
245	0xbf541f2e	-0.82860076
246	0xbe764e0f	-0.24053214
247	0x3ebee0a8	0.37280774
248	0x3f6847e6	0.9073471
249	0xbef8ca73	-0.48591956
250	0xbf121e6e	-0.5707768
251	0x3f668e20	0.90060616
252	0x3e9cd340	0.3062992
253	0xbe86f694	-0.2636
254	0x3e9ab4b3	0.30215988
255	0x3eea7c15	0.45797792

rnn.bias_ih_l0 f4 [64]
0	0xbf185be3	-0.5951521
1	0x3f497daf	0.787074
2	0xbcb74d96	-0.022375863
3	0x3e6ad34c	0.22932166
4	0x3f3ad4f9	0.7298122
5	0x3e35171b	0.17684595
6	0xbeaee66e	-0.3416018
7	0x3f3abfda	0.7294899
8	0xbea849cd	-0.32868806
9	0x3de788e1	0.113054045
10	0x3f001482	0.5003129
11	0x3a1ac8da	0.0005904563
12	0xbe9c6bc5	-0.30550972
13	0x3f5c2da6	0.86007154
14	0x3f497e73	0.7870857
15	0x3f24a37d	0.64311963
16	0xbe504aac	-0.20340985
17	0x3f29a631	0.6626921
18	0x3f2e317c	0.6804426
19	0x3ea7b507	0.327553
20	0xbe346ae0	-0.17618895
21	0xbed9915d	-0.42493716
22	0xbf42824c	-0.7598007
23	0x3ef06adf	0.46956536
24	0x3e3f5326	0.18684062
25	0xbf370605	-0.7149356
26	0x3f0cbe3f	0.5497779
27	0x3f48679d	0.782831
28	0xbdbaa0df	-0.09112715
29	0xbc09cdd0	-0.008410886
30	0x3eef8c40	0.4678669
31	0xbede4c50	-0.43417597
32	0xbf76e99c	-0.9645021
33	0x3e6ea906	0.23306665
34	0x3f425ea0	0.75925636
35	0xbeaacd46	-0.33359736
36	0x3e8f07b9	0.2793558
37	0xbe8e87a1	-0.27837852
38	0xbe177078	-0.14788997
39	0x3d4941c5	0.04913499
40	0xbf2a37eb	-0.66491574
41	0x3e1287d2	0.14309624
42	0xbf7d5a2d	-0.9896572
43	0xbf73dfb0	-0.95263195
44	0xbf122f40	-0.5710335
45	0x3f611d9b	0.879358
46	0xbf51528c	-0.8176658
47	0x3f06a762	0.52599156
48	0x3efe57a8	0.4967625
49	0x3ed1bcf1	0.40964463
50	0xbf384787	-0.7198414
51	0x3e96b894	0.29437697
52	0xbf602f1e	-0.87571895
53	0xbe6c0b3e	-0.23051164
54	0x3f55036c	0.83208346
55	0xbf6414c7	-0.89094204
56	0xbf4d5085	-0.8020099
57	0x3f2963aa	0.661677
58	0x3f00fa7e	0.5038222
59	0xbd47fd74	-0.048825696
60	0x3d44a76c	0.04801123
61	0xbeaa36f2	-0.33245045
62	0xbea23c9d	-0.3168687
63	0xbf7d33ba	-0.98907053

rnn.bias_hh_l0 f4 [64]
0	0xbf25881a	-0.646608
1	0x3f6a85e9	0.9161058
2	0x3d99e577	0.0751447
3	0x3e61c894	0.2204917
4	0x3f49766c	0.7869632
5	0x3dbc9932	0.09208907
6	0xbeab6912	-0.334786
7	0x3f3261f9	0.69680744
8	0xbeeb52fe	-0.45961756
9	0x3e9dbca4	0.30807984
10	0x3f02c5a8	0.5108285
11	0x3d9900fb	0.0747089
12	0xbe2ec781	-0.17068292
13	0x3f63d710	0.89000034
14	0x3f5f7ed4	0.873029
15	0x3f486a4c	0.78287196
16	0xbd6f8321	-0.058474664
17	0x3f14a0c1	0.5805779
18	0x3f2e489d	0.6807955
19	0x3eb0f2e8	0.34560323
20	0xbe5e84d1	-0.21730353
21	0xbed84eed	-0.42247716
22	0xbf559abb	-0.83439225
23	0x3f1915a1	0.5979863
24	0x3dfcc240	0.12341738
25	0xbf25a89d	-0.6471041
26	0x3ec0fb6d	0.37691823
27	0x3f13baf6	0.57707155
28	0xbdaf8126	-0.08569555
29	0x3e46299b	0.19351809
30	0x3ec7ee1f	0.3904886
31	0xbeb80318	-0.3593986
32	0xbf928077	-1.1445454
33	0x3e58c6af	0.21169542
34	0x3f2abf03	0.6669771
35	0xbef1d423	-0.4723216
36	0x3ee809cd	0.45319977
37	0xbe12c85e	-0.14334247
38	0xbdb86078	-0.09002775
39	0x3c6f00d1	0.014587597
40	0xbf3a51f6	-0.7278131
41	0x3e49811f	0.19678162
42	0xbf89a3cf	-1.0753115
43	0xbf5bbfa1	-0.8583928
44	0xbf1dd630	-0.6165495
45	0x3f5b9724	0.857775
46	0xbf4112af	-0.75419134
47	0x3edf4920	0.43610477
48	0x3edc1077	0.42981312
49	0x3eff9b77	0.49923298
50	0xbf64b331	-0.89335924
51	0x3e5cc827	0.21560727
52	0xbf35c447	-0.7100262
53	0xbe55854f	-0.20851634
54	0x3f3b0cf6	0.7306665
55	0xbf468c6c	-0.77558017
56	0xbf505338	-0.8137698
57	0x3f50bcbc	0.81537986
58	0x3ef2ebcd	0.47445527
59	0xbd13c326	-0.03607478
60	0xbdd05b1c	-0.10173628
61	0xbea62ad5	-0.32454553
62	0xbecf4ea6	-0.40489691
63	0xbf734268	-0.950232

rnn.weight_ih_l1 f4 [64, 64]
0	0x3f34277f	0.70372766
1	0xbf3bfd0e	-0.73433006
2	0xbf28896c	-0.6583469
3	0xbeaa0932	-0.3321014
4	0xbf0091ef	-0.50222677
5	0xbf252e8a	-0.6452414
6	0xbf2b7bd9	-0.6698585
7	0xbf27a005	-0.65478545
8	0x3f297bc4	0.66204476
9	0xbef60a33	-0.48054656
10	0x3f1be325	0.6089347
11	0xbf13726f	-0.57596487
12	0xbf1f73a0	-0.62285805
13	0xbf3f727e	-0.74784076
14	0xbf2cc251	-0.67484003
15	0xbf0d96ee	-0.55308425
16	0xbf10047d	-0.5625685
17	0x3f0ef7fb	0.5584714
18	0xbf1c4116	-0.61036813
19	0x3f17ebb8	0.59344053
20	0xbf1b40b4	-0.60645604
21	0xbf366e9b	-0.7126252
22	0x3f3d1d57	0.73872894
23	0xbf7b73a0	-0.98223305
24	0xbf142ecf	-0.57883924
25	0xbd58e02e	-0.05294817
26	0x3f00f9b3	0.5038101
27	0xbe3285a0	-0.17433786
28	0x3f1a787f	0.6034011
29	0x3f19946e	0.5999211
30	0x3f10fee8	0.56638956
31	0xbf1609c3	-0.58608645
32	0x3f66c743	0.901478
33	0xbf0d06af	-0.55088323
34	0xbf4fbde2	-0.81149113
35	0xbf1e5f04	-0.6186373
36	0x3f156633	0.5835907
37	0xbf2fc191	-0.68654734
38	0x3f2201b1	0.6328383
39	0xbe55e679	-0.208887
40	0x3f070b9f	0.5275211
41	0x3f2c2225	0.672396
42	0x3f5a2576	0.8521341
43	0x3f0cd461	0.55011564
44	0x3f1df00e	0.6169442
45	0xbf266337	-0.6499514
46	0x3f17d3a4	0.5930731
47	0x3f53d6fc	0.82749915
48	0xbdbaae24	-0.09115246
49	0x3f3848b4	0.71985936
50	0x3f0ea89c	0.5572603
51	0x3f176441	0.5913735
52	0x3f3bb458	0.7332206
53	0x3f00185c	0.5003717
54	0xbeff4511	-0.4985738
55	0x3f22498d	0.6339348
56	0x3f442726	0.76622236
57	0xbf143bdc	-0.5790384
58	0x3f0ff44c	0.5623214
59	0xbf2cd6ea	-0.6751543
60	0xbf049fb6	-0.518062
61	0xbc251e6e	-0.010078056
62	0xbf0322d8	-0.5122504
63	0x3f1f7c8a	0.62299407
64	0xbed63ba6	-0.41842383
65	0x3f59bfec	0.85058475
66	0x3f15bafd	0.58488446
67	0x3f4d0e92	0.8010036
68	0x3e7e54dc	0.24837059
69	0x3f2ba608	0.6705022
70	0x3f4fceb1	0.8117476
71	0x3f26a3e2	0.65093815
72	0xbf4f5e88	-0.8100362
73	0x3f1af1a7	0.6052498
74	0xbf61eb5c	-0.88249755
75	0x3f77bcaf	0.96772283
76	0x3f681b76	0.906669
77	0xbf0d9de4	-0.55319047
78	0x3f063ff7	0.5244135
79	0x3ef76d90	0.48325777
80	0xbc525034	-0.012836505
81	0xbefa6a39	-0.48909166
82	0xbf7155be	-0.9427146
83	0xbf3cc410	-0.7373667
84	0x3f5b6e45	0.8571513
85	0x3f5b2ec6	0.85618246
86	0xbe9c4bae	-0.3052649
87	0xbf02364b	-0.50864094
88	0x3f3b9884	0.73279595
89	0x3e8bc159	0.2729595
90	0xbf6ea353	-0.93217963
91	0x3f812341	1.0088884
92	0xbf069610	-0.5257273
93	0xbf3a0d02	-0.726761
94	0xbf35ffd7	-0.71093506
95	0x3f45c495	0.77253085
96	0xbe779106	-0.24176416
97	0x3ef0974d	0.46990433
98	0xbc605de4	-0.01369426
99	0x3e6eeae3	0.2333179
100	0xbf49d10b	-0.788346
101	0x3f5b6d72	0.85713875
102	0xbf41faff	-0.75773615
103	0x3f42b771	0.7606116
104	0xbe8069d8	-0.25080752
105	0xbf851464	-1.0396848
106	0x3f7f374f	0.9969377
107	0xbed4eaa8	-0.4158528
108	0xbe746643	-0.23867135
109	0xbd66d17d	-0.056352127
110	0xbf20fc75	-0.6288522
111	0xbe8da341	-0.27663615
112	0xbf5cb16c	-0.86208224
113	0xbf85a08b	-1.0439619
114	0x3da4fb94	0.08055797
115	0xbf704963	-0.9386198
116	0xbe61294d	-0.21988411
117	0xbf47757e	-0.77913654
118	0x3e662fdf	0.22479199
119	0xbe9b619d	-0.3034791
120	0x3e494394	0.19654685
121	0x3ec1702b	0.3778089
122	0xbf34b5f3	-0.7059013
123	0x3f5fe112	0.87452805
124	0x3f2f00ea	0.6836077
125	0x3e0eb030	0.13934398
126	0x3f298b9d	0.6622866
127	0x3e6f15a7	0.23348103
128	0x3f26e0c7	0.65186733
129	0xbf264875	-0.6495431
130	0xbf821205	-1.0161749
131	0xbf7009f9	-0.9376522
132	0xbed92bfe	-0.42416376
133	0xbf06c761	-0.5264798
134	0xbe92f478	-0.2870214
135	0xbf5ba132	-0.8579284
136	0x3eee1934	0.46503603
137	0xbf762770	-0.96153927
138	0x3f61e0dc	0.88233733
139	0xbf3c8128	-0.73634577
140	0xbeaf2223	-0.34205732
141	0x3f1d7f91	0.61522776
142	0xbe84637d	-0.25857154
143	0xbf034a37	-0.5128512
144	0xbf842050	-1.0322361
145	0x3e7ac43f	0.24488924
146	0xbd93cb60	-0.07216525
147	0x3ed8ad5f	0.42319772
148	0xbef38adb	-0.47566876
149	0xbf510a47	-0.81656307
150	0x3f0fe212	0.5620433
151	0xbcd88db1	-0.026434751
152	0xbf441bc9	-0.76604897
153	0xbf07ca7a	-0.5304333
154	0x3f7b8154	0.98244214
155	0xbed90e4c	-0.4239372
156	0x3f4f2187	0.80910534
157	0xbf074771	-0.52843386
158	0x3f67089a	0.902475
159	0xbeb5e9be	-0.35529894
160	0xbe84777a	-0.25872403
161	0xbf1cdd93	-0.61275595
162	0x3e689cc5	0.22716053
163	0xbf89f847	-1.0778893
164	0x3f1defc9	0.6169401
165	0xbf184a0f	-0.59488004
166	0x3f2a41c9	0.6650663
167	0xbe68283b	-0.22671597
168	0x3f09e2ec	0.5386188
169	0x3ee34099	0.44385222
170	0x3e8d7d4a	0.2763465
171	0x3ebeedac	0.37290704
172	0x3f132e91	0.5749293
173	0xbe46b481	-0.19404794
174	0x3f73750f	0.9510049
175	0xbd7f9b77	-0.062404122
176	0x3f459dc6	0.7719387
177	0x3ed5b0bf	0.4173641
178	0x3f4be73c	0.7964971
179	0x3eea7145	0.45789543
180	0x3f34d80f	0.7064218
181	0x3f20dbbf	0.62835306
182	0xbe14de2b	-0.14537875
183	0x3e93c2f1	0.28859666
184	0x3e743467	0.23848115
185	0xbef9cb76	-0.4878804
186	0x3f518928	0.8184991
187	0xbf174276	-0.59085786
188	0xbf858442	-1.0430987
189	0xbf68f27e	-0.90995014
190	0xbf47fc73	-0.7811958
191	0x3e95814a	0.29200202
192	0xc0990558	-4.7819023
193	0xbd83ef01	-0.06442071
194	0x3ea2cdc0	0.317976
195	0x3e158d86	0.14604768
196	0x3fca1a55	1.5789286
197	0xbe30f062	-0.17279199
198	0xbe241d9b	-0.16026919
199	0x3d917b45	0.0710359
200	0x400e8249	2.226702
201	0x3da37559	0.07981367
202	0x3e6d72e9	0.23188366
203	0xbe5e6aa8	-0.21720374
204	0xbe7f1ff4	-0.24914533
205	0x3ea287b3	0.31744155
206	0x3e86fad8	0.26363254
207	0x3f6f6a97	0.9352202
208	0x3eab5d68	0.334697
209	0x3e30716d	0.17230769
210	0x3faee898	1.3664732
211	0xbde9d778	-0.114180505
212	0xbd821191	-0.06351007
213	0xbe817f92	-0.2529264
214	0xbd93fcda	-0.07225962
215	0x3d1c89f1	0.03821749
216	0xbe81ccbb	-0.2535151
217	0xbf087f7c	-0.53319526
218	0xbe385c54	-0.1800397
219	0x3e7200a7	0.23633061
220	0xbe066a11	-0.13126399
221	0x3e91a772	0.28448063
222	0xbe2f1669	-0.17098393
223	0xbd1fe27c	-0.03903435
224	0x3f3f64bf	0.747631
225	0x3d68cb01	0.056834225
226	0x3f81d84f	1.0144137
227	0xbdf0aede	-0.11752103
228	0xbde38020	-0.11108422
229	0xbe5f0d4d	-0.21782418
230	0xbdccdc80	-0.100029945
231	0xbe3fe0f1	-0.18738152
232	0xbde5c322	-0.11218859
233	0xbe8a95c7	-0.27067396
234	0x3ef6edd8	0.48228335
235	0x3dea4f61	0.114409216
236	0xbe5045a4	-0.20339066
237	0x3eba6e1b	0.3641213
238	0x3f72fc5b	0.94916314
239	0x3e5e6fd0	0.2172234
240	0xbe5be534	-0.21474153
241	0x3e614b8e	0.22001478
242	0xbea8150d	-0.3282856
243	0x3e69a1d3	0.22815637
244	0xbfa2f8cc	-1.2732177
245	0x40617050	3.52248
246	0xbea27ed0	-0.31737375
247	0x3f27e5eb	0.655852
248	0xbeb9e540	-0.36307716
249	0x3eb605f6	0.35551423
250	0x3d17eb9c	0.03708993
251	0xbe83148e	-0.2560162
252	0x3ed3f675	0.4139897
253	0xbf4d4255	-0.8017934
254	0x3da3c520	0.07996583
255	0x3dc81fd3	0.09771695

rnn.weight_hh_l1 f4 [64, 64]
0	0x3f288e6d	0.65842324
1	0xbf3fe8fa	-0.7496487
2	0xbefc19ec	-0.49238527
3	0xbf2a7c1f	-0.66595644
4	0x3f5c1830	0.8597441
5	0x3f10831f	0.56450075
6	0x3f0bd759	0.5462547
7	0xbefc7f94	-0.49316084
8	0x3f78408e	0.969735
9	0xbf16d1ba	-0.5891377
10	0xbeefe734	-0.4685608
11	0x3f628a70	0.8849249
12	0xbf56a431	-0.83844286
13	0x3f397fe5	0.72460777
14	0x3f4f8dfc	0.81076026
15	0x3f2df552	0.67952454
16	0x3f5e46e4	0.8682692
17	0xbf068ee8	-0.5256181
18	0x3f2a022e	0.66409576
19	0xbf432e8c	-0.762429
20	0xbe3227e5	-0.17398031
21	0x3f32e8a7	0.6988625
22	0xbf342585	-0.7036975
23	0x3f6ada3a	0.9173924
24	0xbf251dec	-0.6449878
25	0x3ed6cc2d	0.4195265
26	0x3e3f1809	0.18661512
27	0x3f11a117	0.5688643
28	0x3f127efc	0.5722501
29	0xbf21720c	-0.63064647
30	0xbf1fa286	-0.62357366
31	0x3f45047b	0.7695996
32	0x3ee3c49d	0.44485942
33	0x3f3097d8	0.68981695
34	0x3d331725	0.043723244
35	0xbe806322	-0.25075632
36	0xbf2220fc	-0.6333158
37	0xbf22e8aa	-0.6363627
38	0x3f31ca39	0.6944919
39	0x3e929141	0.28626445
40	0x3f4a54fc	0.79035926
41	0xbe91ebba	-0.28500158
42	0xbf18a3d9	-0.5962501
43	0xbe558441	-0.20851232
44	0x3f275c0e	0.6537484
45	0xbeb49a5b	-0.35274014
46	0xbe992060	-0.29907513
47	0xbd77cbda	-0.060497142
48	0x3f545c0a	0.8295294
49	0xbf16b1f8	-0.5886531
50	0x3f3d10d0	0.7385378
51	0xbf31147e	-0.69171894
52	0xbf04340d	-0.51641923
53	0x3e67ada9	0.2262484
54	0xbee763ea	-0.45193416
55	0xbf097dc4	-0.5370753
56	0xbf289430	-0.65851116
57	0xbf2de880	-0.6793289
58	0xbf5976a6	-0.8494667
59	0x3f387d75	0.7206643
60	0x3f1beeeb	0.60911435
61	0x3f0a6368	0.5405793
62	0x3d75676b	0.05991308
63	0x3f3db9ac	0.7411144
64	0xbf6ad1d7	-0.9172644
65	0x3f691118	0.9104171
66	0x3f3e352f	0.742999
67	0x3d2a160b	0.041524928
68	0xbf79372b	-0.97349805
69	0x3e899647	0.26872465
70	0xbf56f6a5	-0.839701
71	0xbe8ce9eb	-0.27522215
72	0xbf34e3de	-0.706602
73	0x3f711e3a	0.9418675
74	0xbdb54d5d	-0.088526465
75	0xbec5f117	-0.386605
76	0xbf3e3140	-0.742939
77	0xbf43e6e9	-0.76524216
78	0xbf90b31d	-1.1304661
79	0xbf152659	-0.5826164
80	0xbd817b2a	-0.0632232
81	0x3dc42c35	0.09578744
82	0xbf53b39c	-0.8269594
83	0x3eadbae8	0.3393166
84	0x3f3cc491	0.73737437
85	0xbf60cd9e	-0.87813747
86	0x3f755a27	0.95840687
87	0xbf56b0a0	-0.8386326
88	0x3f654154	0.8955281
89	0xbe8b8266	-0.27247924
90	0xbd63897d	-0.05555104
91	0xbe929b57	-0.2863414
92	0xbe51ef02	-0.2050133
93	0x3d24fa71	0.040277902
94	0x3e549ed2	0.2076371
95	0x3f4dc9b9	0.8038593
96	0x3e414904	0.1887551
97	0xbf1a447e	-0.6026076
98	0x3d8f95d7	0.070110016
99	0xbd862ecd	-0.06551895
100	0x3f808dd6	1.0043285
101	0x3f5b09fc	0.8556211
102	0xbf02a659	-0.51035076
103	0x3e82970e	0.2550587
104	0xbb9f0d0b	-0.0048538498
105	0x3f3a4e0e	0.7277535
106	0x3f4bd630	0.796237
107	0xbf3439f1	-0.7040091
108	0xbf471ef0	-0.7778158
109	0xbeb38883	-0.35065088
110	0x3d6e6017	0.058197107
111	0x3f8c792d	1.097448
112	0x3e147001	0.14495851
113	0x3ee5d300	0.44887543
114	0xbf57ec8e	-0.8434533
115	0x3e3f6532	0.18690947
116	0xbf194786	-0.5987476
117	0x3eeaec04	0.4588319
118	0x3ed856f8	0.42253852
119	0x3f37320b	0.71560735
120	0x3f539ed7	0.82664245
121	0xbee06ad3	-0.438315
122	0x3f691fc0	0.9106407
123	0xbf51f082	-0.8200761
124	0x3e85ae90	0.26109743
125	0xbebe5605	-0.37175003
126	0x3dddbfab	0.108275734
127	0xbf4a8484	-0.7910845
128	0x3f5d2433	0.8638336
129	0xbf6ace1d	-0.91720754
130	0xbefb5b6c	-0.49093187
131	0xbe2c4643	-0.16823678
132	0x3f698df1	0.9123221
133	0xbe4d6f4f	-0.20061992
134	0x3f31c504	0.69441247
135	0x3e18c697	0.14919506
136	0x3f46e970	0.7769995
137	0xbf6f3359	-0.93437725
138	0x3dd598f8	0.10429567
139	0x3f77e84b	0.96838826
140	0x3e7fab77	0.24967752
141	0x3f893eb8	1.0722265
142	0x3f5e9b03	0.8695528
143	0x3f2de56b	0.6792819
144	0x3f737868	0.951056
145	0xbdbda8ca	-0.092607096
146	0x3f4d40d6	0.80177057
147	0xbefbd350	-0.49184656
148	0xbefc0da0	-0.49229145
149	0x3f588a2b	0.8458583
150	0xbf8c0ec6	-1.0942008
151	0x3f6aa130	0.916522
152	0xbf5d1465	-0.86359245
153	0x3f17feb6	0.59373033
154	0xbe161080	-0.14654732
155	0x3e926e7c	0.28599918
156	0x3e7cc26e	0.24683544
157	0xbe54efd5	-0.20794614
158	0xbee5d52c	-0.448892
159	0xbed57780	-0.41692734
160	0x3f50c8ea	0.8155657
161	0x3f71e6ac	0.944926
162	0xbf2a13f1	-0.6643668
163	0x3da9a9ab	0.08284315
164	0xbf75240c	-0.9575813
165	0xbf5b1571	-0.8557959
166	0x3f1a06f1	0.6016684
167	0xbca8f371	-0.020623894
168	0x3e860fcf	0.26183936
169	0xbf38ae77	-0.7214121
170	0xbf536a0f	-0.8258371
171	0xbd90f96a	-0.07078822
172	0x3f53dded	0.82760507
173	0xbed84103	-0.422371
174	0x3e3a9a62	0.18222955
175	0xbf1d2ad2	-0.61393464
176	0xbb9113fb	-0.0044274307
177	0xbe0855b2	-0.1331394
178	0x3f7df7a1	0.99205977
179	0xbf0e0858	-0.5548148
180	0xbebf775a	-0.37395746
181	0xbecd40d7	-0.4008853
182	0xbe9d9f98	-0.30785823
183	0xbe979dc2	-0.29612547
184	0xbf4c8ab2	-0.7989913
185	0x3ece0fa3	0.40246305
186	0xbf89f65b	-1.0778307
187	0x3f73fdb1	0.9530898
188	0xbd04fe84	-0.032469288
189	0x3ed82abd	0.42220107
190	0x3e4818f5	0.1954077
191	0x3f70f2ab	0.9412028
192	0x3ed46fc8	0.41491532
193	0x3e35b51f	0.17744873
194	0xbe68b20e	-0.22724172
195	0x3f92c81a	1.1467316
196	0xbe01a386	-0.12660035
197	0xbf00b66a	-0.5027834
198	0xbf80e4c4	-1.0069814
199	0x3f0ba231	0.5454436
200	0x3f949e5c	1.1610827
201	0x3ec2f679	0.3807867
202	0x3e8116e3	0.25212774
203	0x3f8e4f53	1.1117958
204	0x3ef7a2ae	0.48366302
205	0xbe3420eb	-0.17590682
206	0xbf8554c1	-1.041649
207	0xbedffb0b	-0.43746218
208	0xbe661501	-0.2246895
209	0x3ef3d3c2	0.47622496
210	0x3ce1ad1b	0.027548363
211	0x3f73da3e	0.95254886
212	0xbede3b1a	-0.43404466
213	0xbf6df2f2	-0.9294883
214	0xbe159224	-0.1460653
215	0x3e39e2d8	0.1815294
216	0xbda217af	-0.079146735
217	0x3faa4eb8	1.3305273
218	0xbe937412	-0.28799492
219	0x3e623d20	0.2209363
220	0x3e79a0e2	0.24377778
221	0x3fa5a36d	1.2940499
222	0x3fb2d801	1.3972169
223	0xbe41c549	-0.18922915
224	0x3f6387d1	0.88879114
225	0xbec015fa	-0.37516767
226	0xbef527cd	-0.47881928
227	0x3ed4fa94	0.41597426
228	0x3e136b38	0.1439637
229	0xbf4bb964	-0.7957976
230	0xbf9f8c18	-1.2464628
231	0xbca90359	-0.02063148
232	0xbe23534f	-0.15949748
233	0x3e2ae6fc	0.16689676
234	0x3ca96c2e	0.020681467
235	0x3d862a77	0.06551068
236	0x3f034189	0.51271874
237	0x3e96eb92	0.294766
238	0x3ea7ef6a	0.32799846
239	0xbe54b645	-0.20772655
240	0xbf96d13a	-1.1782601
241	0xbe123692	-0.1427863
242	0x3efa37dc	0.48870742
243	0xbdd99aa2	-0.10625197
244	0x3debabe2	0.115073934
245	0xbebd3502	-0.36954504
246	0x3ee58e6c	0.44835222
247	0x3ec0013f	0.3750095
248	0xbc83b07c	-0.016075365
249	0xbebaf432	-0.3651443
250	0x3e9a36d9	0.3011997
251	0xbe96a4cd	-0.29422608
252	0xbe4c8418	-0.19972265
253	0x3f4f392f	0.8094663
254	0xbe6e6455	-0.23280461
255	0x3fbf360e	1.4938371

rnn.bias_ih_l1 f4 [64]
0	0x3eea2d51	0.457377
1	0xbf1bd01a	-0.6086441
2	0x3f237644	0.63852334
3	0x3eb91fc9	0.36157063
4	0x3f154cea	0.58320487
5	0xbf1ffaf1	-0.6249228
6	0xbea91111	-0.33020833
7	0x3f07cc2b	0.5304591
8	0x3ebcb0b8	0.36853576
9	0xbf2c164c	-0.6722152
10	0x3ef01019	0.46887282
11	0x3ec6a3b3	0.38796768
12	0x3ef58e84	0.47960293
13	0x3f2cd561	0.6751309
14	0x3e517ffc	0.20458978
15	0x3f476db3	0.7790176
16	0x3f18ad25	0.596392
17	0x3f29d755	0.66344196
18	0x3f34bf1e	0.7060412
19	0x3f25630a	0.64604247
20	0x3ddc59ae	0.107592925
21	0x3f039de6	0.5141281
22	0xbf17d8b1	-0.5931502
23	0x3f17ae5d	0.5925043
24	0xbf2871ba	-0.6579853
25	0x3ec4a127	0.384042
26	0x3e3c9d93	0.18419485
27	0xbe967a71	-0.2939029
28	0xbeea38a0	-0.45746326
29	0x3ed42acb	0.41438898
30	0x3f4d6a67	0.8024048
31	0xbf3597a4	-0.7093451
32	0x3f1a92c4	0.60380197
33	0x3e51366c	0.20430917
34	0xbf328ab0	-0.6974287
35	0x3f1c3079	0.61011463
36	0xbf298dd3	-0.6623203
37	0xbf0be0c9	-0.5463987
38	0xbee1a08b	-0.44067797
39	0xbf197982	-0.5995103
40	0xbebb9ae1	-0.366416
41	0xbf1b2dbe	-0.6061667
42	0xbf060b88	-0.52361345
43	0xbf0997a5	-0.53747016
44	0xbf1ba1dd	-0.6079386
45	0xbf4bebfb	-0.7965695
46	0x3ebfc4fb	0.37454972
47	0xbf2f0f22	-0.68382466
48	0xbed5a77f	-0.41729352
49	0x3ef9ba1f	0.48774812
50	0x3f2c12ac	0.6721599
51	0xbf4c41d7	-0.79787964
52	0x3edb1569	0.42789772
53	0xbefd8d08	-0.4952166
54	0x3f05bf1a	0.5224472
55	0x3f2db470	0.6785345
56	0xbf0b7cf7	-0.54487556
57	0x3ecb3065	0.3968536
58	0xbf0b2eff	-0.54368585
59	0x3f18bf94	0.59667325
60	0x3f780912	0.9688884
61	0x3f1a5d35	0.6029847
62	0x3ec44ad8	0.3833835
63	0x3f0dc816	0.5538343

rnn.bias_hh_l1 f4 [64]
0	0x3f15d364	0.5852568
1	0xbf2b9c0f	-0.67035
2	0x3f2161ec	0.6304004
3	0x3e9bfdae	0.3046698
4	0x3f23272e	0.6373166
5	0xbec3841f	-0.38186738
6	0xbe502944	-0.20328242
7	0x3f210bcf	0.62908643
8	0x3f060d58	0.5236411
9	0xbf0c0869	-0.5470033
10	0x3f0ca1f8	0.54934645
11	0x3f137c79	0.57611805
12	0x3f16eda2	0.5895635
13	0x3f1d2a97	0.6139311
14	0x3de3259f	0.1109116
15	0x3f3cf847	0.7381634
16	0x3f42f647	0.7615704
17	0x3f0c1984	0.54726434
18	0x3f29b8d4	0.6629765
19	0x3f249879	0.64295155
20	0x3e691f60	0.22765875
21	0x3efe3bd0	0.49655008
22	0xbf1f3490	-0.6218958
23	0x3f1832d1	0.5945254
24	0xbf2cb1be	-0.67458713
25	0x3ef0c658	0.47026324
26	0x3eaafc60	0.33395672
27	0xbea6ddf4	-0.32591212
28	0xbefcfc18	-0.49411082
29	0x3eacc9d6	0.3374774
30	0x3f26d3d4	0.65166974
31	0xbf41f7a1	-0.75768477
32	0x3ec2c173	0.38038215
33	0x3e32e34e	0.17469522
34	0xbf02696e	-0.5094212
35	0x3f47ad60	0.77998924
36	0xbf12ec96	-0.5739225
37	0xbf34a40b	-0.7056281
38	0xbedd09f5	-0.4317166
39	0xbef9cf5e	-0.4879102
40	0xbe7fc029	-0.24975647
41	0xbee9baaa	-0.45650226
42	0xbecea307	-0.40358755
43	0xbebf64d8	-0.37381625
44	0xbf15b30a	-0.58476317
45	0xbf4c56b4	-0.798198
46	0x3e95e092	0.29272896
47	0xbf48e3ca	-0.7847258
48	0xbf18e2e9	-0.5972124
49	0x3ef25b3f	0.4733524
50	0x3f07a091	0.5297938
51	0xbf73cedb	-0.9523751
52	0x3ef11bf5	0.47091642
53	0xbf1a43fc	-0.60259986
54	0x3eff43ae	0.49856323
55	0x3f2b5422	0.6692525
56	0xbf0197ce	-0.5062226
57	0x3ed30b29	0.41219452
58	0xbf133131	-0.57496935
59	0x3f0d28d2	0.5514041
60	0x3f63e7d5	0.8902562
61	0x3f1b1a02	0.6058656
62	0x3ec41bbe	0.38302416
63	0x3f3920a8	0.72315454

norm.weight f4 [64]
0	0x3fbe9de5	1.4891936
1	0x3fc375c1	1.5270311
2	0x3faafb52	1.3357947
3	0x401ac371	2.4181788
4	0x3fa73938	1.3064337
5	0x3f9f1ecb	1.2431272
6	0x3f3ba64a	0.7330061
7	0x3fc2425b	1.51765
8	0x3fad75a5	1.3551527
9	0x3fa5a4b8	1.2940893
10	0x3f64c358	0.8936057
11	0x3f8d9418	1.106082
12	0x3fe47653	1.784861
13	0x3fc51329	1.5396472
14	0x3ea6324c	0.32460248
15	0x3fb78126	1.4336288
16	0x3fad3f13	1.3534874
17	0x3f39acdc	0.7252939
18	0x3fb93ac4	1.4471059
19	0x3fb17869	1.3864871
20	0x3f7ebd47	0.99507564
21	0x3fd3f3e4	1.6558805
22	0x3f7e9f2e	0.9946164
23	0x3fb56178	1.417037
24	0x3fe7ed75	1.8119341
25	0x3fa16956	1.2610271
26	0x3f962635	1.173041
27	0x4014cf38	2.3251476
28	0x3ebfaa43	0.37434587
29	0x401f2a7d	2.4869683
30	0x400540f7	2.0820901
31	0x3fb55065	1.416516
32	0x3f9e7148	1.2378321
33	0x3fb79559	1.4342452
34	0x3faab150	1.3335361
35	0x3f941fe9	1.1572238
36	0x3fb5d22c	1.4204764
37	0x3fd482c9	1.6602412
38	0x3fbee24e	1.4912813
39	0x3f8764d7	1.0577649
40	0x3faf054c	1.3673491
41	0xbdb6abb6	-0.0891947
42	0x3f9c5c8c	1.2215743
43	0x3fb3d552	1.4049475
44	0x3f764479	0.9619823
45	0x3f111bc6	0.56683004
46	0x3fb2a18a	1.3955548
47	0x3fab8c7b	1.3402246
48	0x3fa43a2d	1.2830254
49	0x3fc87ca2	1.5663035
50	0x3f96fabb	1.1795267
51	0x3fd53630	1.6657162
52	0x3fabce78	1.3422384
53	0x3ee2d806	0.44305438
54	0x3f962e26	1.1732833
55	0x3fdbff49	1.7187282
56	0x3f9f000c	1.2421889
57	0x4003b484	2.0578928
58	0x3f53e0b8	0.8276477
59	0x3fbccaf7	1.474944
60	0x3ffb14b0	1.9615688
61	0x401bec48	2.4362965
62	0x3f26a5b9	0.6509662
63	0x4019e862	2.4048085
