2-hypertuning-mlflow/models/20250927-1358model.pt (torch, 877465 bytes, 6 tensors)

weight f4 [256, 784]
000000 41 f0 a5 3b 64 1c bf 38 16 82 96 3c 0d 9f 62 3c
       0.005064041 9.112878e-05 0.018372577 0.013831866
000010 9c dd b8 bc 00 fa 08 bd 0c 52 bc bc bd b1 8f 3c
       -0.02256661 -0.033441544 -0.022988342 0.017540807
000020 96 4d 9e bb 64 9a 69 bd 98 f0 bb bd 16 57 c3 bd
       -0.0048310263 -0.057032004 -0.09176749 -0.09538095
000030 88 a8 a3 3c 97 6c 94 3d 59 d0 a5 3d 6d a7 f4 3d
       0.019977823 0.07247274 0.0809638 0.119459964
000040 15 41 27 bd b5 fc ef bd c2 97 8b bd 2e cb f4 bc
       -0.04083355 -0.11718122 -0.06816055 -0.02988204
000050 29 b5 87 bd f5 b4 98 bc 5c b8 2a bd bc 9a 42 3c
       -0.066263504 -0.018640975 -0.041679725 0.011877712
000060 09 ac f0 bb 7c 0a 33 3d 09 ab a6 3c 59 93 51 39
       -0.007344727 0.04371117 0.020345228 0.00019986684
000070 ca 5d 13 bc 02 db 70 bc d6 ad 1b 3d 80 ed 45 3b
       -0.008994529 -0.014700653 0.03800758 0.0030201375
000080 80 84 fb 3c 33 81 31 3d 90 0f 28 3d 71 cc 0b bc
       0.03070283 0.043336105 0.041030467 -0.008532629
000090 df 9d af bd 51 9a c6 bd 47 98 fd bd 6a aa 88 bd
       -0.085750334 -0.09697402 -0.1238256 -0.06673129
0000a0 04 10 70 bc 61 a4 d2 bb a5 41 2b bd 55 9a 02 bc
       -0.014652256 -0.006428287 -0.04181065 -0.007971366
0000b0 04 5f b8 bd 31 c5 fd bd 66 17 3c be cb c4 b0 bd
       -0.09002498 -0.12391127 -0.18368301 -0.08631285
0000c0 16 72 0b 3b ed a6 af 3c 16 64 70 3c ea fc 7c 3b
       0.0021277717 0.021441901 0.0146723 0.0038602897
0000d0 58 5a 80 3d e4 94 46 3d 9d f5 96 3c 9f a7 21 bd
       0.06267232 0.048481837 0.018427664 -0.039466497
0000e0 32 db bf bb 80 30 76 39 de 24 8e 3b 12 6d 34 3c
       -0.0058549875 0.00023478456 0.004337891 0.0110123325
0000f0 78 76 5b 3c 38 4a 45 3d c8 55 50 bc ae 31 5d bd
       0.013394944 0.048166484 -0.012715764 -0.054002456
000100 71 61 84 bd a9 82 77 bd cf 8c f2 bc 6f dc 2b 3c
       -0.06463898 -0.06042734 -0.029608158 0.010489567
000110 41 1b 16 3c c8 75 07 bc d3 64 75 3c f8 c8 8a bb
       0.009161771 -0.008267827 0.014977652 -0.004235383
000120 65 ba 4e bc eb 2f 27 3b 39 04 a4 bd 1b 08 9a bd
       -0.012617682 0.002551074 -0.08008618 -0.07521077
000130 d7 ae 23 bd b7 b1 70 bd 5c af 2d 3d 8a 95 8f 3d
       -0.039961662 -0.058763232 0.042403564 0.07010944
000140 03 82 fa 3c 4f d8 88 3d 35 52 01 3d 72 94 32 3c
       0.030579573 0.066818826 0.03157254 0.01089965
000150 d6 39 ae bb 17 5d ae bc 59 3b 49 3d 5f ac 4c 3d
       -0.005316953 -0.021284623 0.049128864 0.049969073
000160 c2 e4 c0 bc 28 38 e3 3c cb 87 a1 bc c6 4a 1d bb
       -0.02354658 0.027736738 -0.019718071 -0.0024000867
000170 e8 d4 45 bc db 73 9b bc d1 29 41 bd 1d ec d9 3a
       -0.012074687 -0.018976143 -0.04715902 0.0016626153
000180 9e 2d 24 bb 78 e1 fe bb 2b 90 6c bd a3 eb d2 bb
       -0.0025051604 -0.007778343 -0.057754677 -0.0064367815
000190 e9 1b b0 3c ee d7 8a bd 5c 52 0e bd 69 90 2a bc
       0.021497684 -0.067794666 -0.034746513 -0.010410407
0001a0 34 f2 26 3d ce 06 94 3c 91 be 50 3c b7 5c 77 bc
       0.040758327 0.018069651 0.012740747 -0.015097789
0001b0 fc 05 88 3c fe d5 17 3d 51 ec 32 bc ea 10 83 3c
       0.016604416 0.037069313 -0.0109206 0.015999276
0001c0 ed 27 76 3c dc 97 51 3d 3f 3b 10 3d 1d 91 e5 3b
       0.0150241675 0.051170215 0.03521275 0.0070058242
0001d0 ec 82 dd bc 3f 14 98 3c d6 f4 a9 3c 33 1d 21 bd
       -0.027039967 0.018564342 0.02074663 -0.039334487
0001e0 4f 56 d9 bc 2d bb 9c bd a3 49 ed bc 9b e7 3d bd
       -0.026530413 -0.076528884 -0.028965777 -0.046363454
0001f0 9c d6 f0 3a 12 50 21 bd c8 29 90 bd fe 73 61 bd
       0.0018374505 -0.039383 -0.07039219 -0.05504226
000200 8b 02 dc bc 73 9c 1e bd 47 2d 48 bd 59 2b 80 bd
       -0.026856681 -0.03872342 -0.048871305 -0.06258268
000210 4f c0 84 bc 64 8f 83 bc fd e0 73 3c 26 61 bd bc
       -0.016204981 -0.016059585 0.014885184 -0.023117613
000220 c0 29 3d bb ea a4 0d 3d 04 da b7 bb 54 14 04 bd
       -0.0028863996 0.034581102 -0.0056107063 -0.03224595
000230 40 53 d2 3c 0a 48 8f 3d 4e 91 42 3d 8f b4 52 3d
       0.025674462 0.06996162 0.047501855 0.051441725
000240 14 c5 20 bd b1 58 11 3d c4 90 25 bb 4d 81 32 bc
       -0.03925045 0.035484973 -0.002526329 -0.0108950855
000250 9a c2 10 bd 8f 19 56 bd 43 e2 76 bc 53 44 04 bc
       -0.035341837 -0.05227047 -0.015068593 -0.00807293
000260 1f 3e 09 3c fa 22 68 bd 92 fc 0b bd 5e 10 0e bd
       0.008376627 -0.05667398 -0.034176417 -0.034683578
000270 1c 8b e6 bb a3 2f 6e bd b2 86 9a bd d4 a6 eb bc
       -0.007035626 -0.0581509 -0.07545222 -0.028766073
000280 65 55 8b bc 21 ad cd 3c 3b b3 3a 3d e0 7d fe 3c
       -0.017008493 0.025106968 0.045581084 0.031065881
000290 2b 29 93 3c c8 5b 84 3c 4e c4 18 3c 44 62 a7 3c
       0.017963966 0.016157046 0.009324146 0.020432599
0002a0 35 95 a8 3d e5 39 91 3d e9 2a 6a 3d b9 71 4d 3d
       0.08231584 0.07091121 0.05716983 0.050157283
0002b0 20 ad e7 3b 82 e6 29 bc 4a 69 a1 bb 3d 8b c6 3b
       0.0070701987 -0.010369899 -0.0049258815 0.006059079
0002c0 7f d3 2c bd 9d d0 34 bd e5 7f cc 3a ca 9a 94 3c
       -0.042193886 -0.04414426 0.001560208 0.018140215
0002d0 91 ad 0b bd a7 1f 6f bd fa b4 e3 3a 50 5a 1f bc
       -0.034101073 -0.058379795 0.0017372661 -0.009726122
0002e0 c7 73 7f bd 03 ee 9e bd df 30 03 bd 8c 48 24 bd
       -0.062366273 -0.07760241 -0.03202903 -0.04010825
0002f0 f7 dc dd bc a3 5d 9f bc 21 0d 34 3d a0 ed 7f 37
       -0.027082903 -0.01945383 0.043957833 1.5254511e-05
000300 c2 40 3e 3b d4 78 35 bc 18 10 2f 3a 79 b1 6e 3b
       0.0029030298 -0.011076171 0.00066781184 0.00364217
000310 16 80 93 3d c0 34 f7 b6 db 46 99 3b 3c 6e 07 3d
       0.07202165 -7.3673145e-06 0.004677636 0.033064112
000320 7e 92 da bb f5 54 0c bd f1 e0 d3 3b 9c 7f a6 bc
       -0.0066702953 -0.03426071 0.006466024 -0.02032452
000330 7f 6b ac bc 5e 6f 61 3b 0d a7 b5 bb b3 a0 01 bc
       -0.021047352 0.0034398655 -0.0055435956 -0.007911849
000340 48 6e ab 3c 6a b3 0e bd 82 09 82 bc d4 20 20 bc
       0.02092661 -0.03483907 -0.015873674 -0.009773452
000350 87 76 6f bd ce 6f 30 bd ca 0b 91 bd 0f 3d 87 bd
       -0.058462646 -0.043075375 -0.07082327 -0.06603443
000360 0b 37 68 bd a4 68 92 bb b0 15 d8 3b 59 79 ea 3c
       -0.056693118 -0.0044680405 0.006594382 0.028622316
000370 f7 74 69 3c 61 2f c8 3b 3c da 16 3d ad 0e aa 3d
       0.014249078 0.0061091636 0.03682922 0.083035804
000380 90 8e b9 3d 50 4b 59 3d 7f 2b 3f 3d 7f 4e 4f 3d
       0.09060395 0.05305034 0.04667234 0.05061197
000390 cc 99 a9 bb c2 62 b3 bc 6c 05 72 bc 6a 5e e7 3c
       -0.0051758047 -0.021897677 -0.0147718005 0.028243262
0003a0 90 e8 b6 3c 52 69 15 bd af a6 d8 3c 57 38 14 3d
       0.022327691 -0.036477394 0.026446668 0.036186542
0003b0 4a 12 85 3c 1e bb fe bc ec ca 56 bd ff d2 7d bc
       0.016244072 -0.031095084 -0.052439615 -0.0154922
0003c0 28 dd 01 bd 57 53 cd bd fe 2c ae bd 4c ce 59 bb
       -0.03170505 -0.100256614 -0.08504675 -0.0033234535
0003d0 17 6e d5 3c 5c 36 1e bd 66 36 ce 3c 8a 36 a2 3c
       0.026053471 -0.03862606 0.025172424 0.019801397
0003e0 ca 24 99 bc 4a aa 60 3c 67 f3 1a 3d cc 09 ce 3d
       -0.0186943 0.013712475 0.037829783 0.10060462
0003f0 fd 7a f4 3d 07 ad 4e 3d e6 2f b4 3d 3e fb 08 3d
       0.11937521 0.05045798 0.087981984 0.03344273

bias f4 [256]
000000 0f 84 1e 3e b1 3c 2e 3c 72 65 95 ba 82 0d 0c 3d
       0.15480064 0.010634587 -0.0011398031 0.03419257
000010 5f da 85 bb 02 89 82 3c 7e 9b 88 bd a7 13 cf 3d
       -0.0040848698 0.015934471 -0.06670283 0.1011117
000020 4c 09 31 bd c8 34 bc 3d bf e5 39 3b c1 fb d3 3d
       -0.043221757 0.09189755 0.00283657 0.103507526
000030 6e 6e d4 3c e3 02 95 bd f0 5b 0d bd 6f 15 15 be
       0.025931563 -0.07275941 -0.034511507 -0.14558958
000040 57 df fc 3c b3 56 06 3c 53 6c ea 3d 16 19 1b 3e
       0.030868215 0.008199382 0.114464425 0.15146288
000050 b8 7e 67 bc 2f ed 08 3c a9 df 1b 3e 01 cc b4 3d
       -0.014129333 0.00835733 0.15222038 0.08827973
000060 37 53 d1 bc 55 00 2a 3c 26 96 86 bd bb b3 e7 bb
       -0.025552375 0.010376056 -0.06571607 -0.007070986
000070 2e cb 6b bd e3 cf 29 bc 4e 40 77 bd 75 7b 1e 3e
       -0.057566814 -0.010364505 -0.06036406 0.15476783
000080 ba 72 36 bd 93 12 83 3b 4f c1 41 3e cc d2 37 bd
       -0.044543006 0.004000017 0.18921398 -0.044878766
000090 41 05 45 3e 0c a9 c5 bd c1 b3 23 bd a3 d6 3c 3e
       0.19240285 -0.09651384 -0.03996635 0.18441252
0000a0 f6 bf 0c bd 96 fa c0 3d 9c 5d 39 bd 89 4b 85 3b
       -0.034362756 0.094227955 -0.04525529 0.0040678424
0000b0 57 de fd 3d 59 ab c7 bd a2 75 2c 3e 75 d6 40 3b
       0.123959236 -0.09749479 0.16841748 0.0029424701
0000c0 06 7c 44 bc d1 c8 a4 3c d9 81 1e 3e 57 a6 20 bd
       -0.01199246 0.020115288 0.1547922 -0.039221134
0000d0 97 88 46 3e 0a fa fb 3b 01 40 c5 3d 1e b7 38 3e
       0.19388042 0.007689719 0.096313484 0.18038604
0000e0 f2 ff 1f bc ca 85 dd bc 99 72 14 3d f3 85 c0 3b
       -0.009765612 -0.027041335 0.0362421 0.005875343
0000f0 66 ab 90 3d 2a d4 a7 bc 7e 28 a7 3d 36 31 27 3d
       0.07063942 -0.02048691 0.0816202 0.040818416
000100 14 c1 94 bc 52 ca 03 3e 01 19 db 3d 57 65 9d 3d
       -0.018158473 0.12870148 0.106981285 0.07685345
000110 a2 d9 2e 3c 80 f9 e2 bc 51 78 82 bd 36 50 17 3e
       0.010672005 -0.027706861 -0.06370605 0.14776692
000120 b6 bd 3d 3e ff 6d 08 bc 4a ce 8d bd 3f 9d f1 3d
       0.185294 -0.008327006 -0.06924112 0.117975704
000130 dc 81 7d 3d 16 7e fa ba 0a f1 4e 3e f3 fb 1a bd
       0.06189142 -0.0019111063 0.20209137 -0.037837934
000140 c3 43 ea 3a 58 1c a7 3b fc 15 02 3e 38 15 68 3d
       0.0017872978 0.0050998144 0.12703699 0.05666086
000150 86 78 1d 3d ee 04 ad bc 20 78 4a 3e e0 66 dc 3d
       0.03844502 -0.021120515 0.19772387 0.10761809
000160 ac 26 9b bd 94 41 6c 3d 19 5b 3f 3e 6b bc 2a bd
       -0.075757354 0.057679728 0.18687095 -0.041683596
000170 e7 78 a7 3d 6e 03 f1 3c aa 8b 35 3e 64 ed b5 3d
       0.08177357 0.02942058 0.17729059 0.08883169
000180 42 ff 1e bd d4 09 91 3d 43 5f ec 3d f9 3b ac 3d
       -0.03881765 0.07081953 0.11541607 0.084098764
000190 fa c5 92 bd a3 7c 5e bd 8d d9 2d 3e d0 aa 63 3d
       -0.07166667 -0.05431808 0.1697752 0.05558282
0001a0 fc 99 b3 3c 59 5c f4 bb 12 66 b6 3d 54 5f 49 3e
       0.021924011 -0.0074572978 0.08906187 0.19665271
0001b0 19 5b d6 b9 21 58 df 3d 4c 44 d9 3c 21 3d db 3d
       -0.00040885134 0.10905481 0.026521824 0.10705019
0001c0 cc ba 2e bc b8 5f 16 3e 87 14 10 3e 9d f8 8f bc
       -0.010664653 0.14684951 0.1407033 -0.017574603
0001d0 61 e5 d2 3d b5 79 13 3e 8f 88 5b bd aa 5b 58 3e
       0.10297657 0.14401896 -0.05359703 0.21128717
0001e0 df 01 36 3e 10 f8 d9 3d d8 a3 e1 3c 92 77 b2 bb
       0.17774151 0.10643017 0.027543947 -0.005446383
0001f0 b3 4a 1c 3e 0b 60 6e 3d a4 a9 2c bd fc d6 7d 3d
       0.1526287 0.058197062 -0.04215397 0.061972603
000200 28 9e 96 3c 7c 80 2f bd 66 67 c3 3d 46 e8 f7 3d
       0.018385962 -0.04284714 0.09541206 0.121048495
000210 68 1b 92 bd da fb 10 bd fd 4d 2a 3d d3 f1 94 bd
       -0.071341336 -0.035396434 0.04157828 -0.07272687
000220 35 c9 43 3e ad b1 9d 3d 78 45 a9 bc fd b5 3e 3e
       0.19119723 0.076999046 -0.020663008 0.1862411
000230 9d 45 79 bc fb 28 ee bc 28 d4 9c 3d 8c 39 d0 bc
       -0.015214351 -0.029072275 0.07657653 -0.025418065
000240 54 b6 0a 3d be 9d d8 3d 4f da 5e bc 67 b6 e1 bb
       0.033865288 0.10576962 -0.0136018535 -0.006888199
000250 4d cf d9 3b 6e 18 06 bc 52 a5 e0 bb eb 03 b1 3d
       0.0066470266 -0.008184535 -0.006855645 0.086433254
000260 13 83 8e bb 70 e4 72 3d 6f d1 c8 3c cb a2 67 3d
       -0.0043491214 0.059299886 0.024513928 0.056551736
000270 e5 61 50 3b 19 a6 2a 3e c7 6f d4 bc 37 c8 9b 3b
       0.003179663 0.16664924 -0.025932206 0.004754092
000280 d1 9e 57 ba 6b ac 0d bd 56 42 d7 bc 5e 0b 19 3c
       -0.00082252646 -0.03458826 -0.026276749 0.009341089
000290 08 de 40 bd 2e 92 f1 3d f2 b1 f1 3d 0b 77 fb bc
       -0.047086746 0.1179546 0.118015185 -0.030696413
0002a0 b3 f6 8d 3d 46 eb 38 bd 13 c7 53 bd 5b cf dc bc
       0.0693182 -0.04514625 -0.051703524 -0.026954344
0002b0 7d 0b 15 bd 1b 53 2d bc 7c 2b 28 ba ea 85 87 3d
       -0.03638791 -0.010578896 -0.0006415171 0.06617339
0002c0 a1 93 82 bc 14 54 3b 3c c1 1b 4f bc 5c 92 e5 3c
       -0.015939536 0.01143362 -0.012640894 0.028023891
0002d0 34 d9 f9 3d 34 20 ec bd 7b 1c 7f 3b d1 fb 41 bd
       0.12199631 -0.1152958 0.0038926888 -0.04735929
0002e0 6b b2 4b 3e 18 ff c2 bd 63 b8 ad 3c 54 3b 68 3c
       0.1989228 -0.095213115 0.021206087 0.014174301
0002f0 ce 64 a3 bd 60 00 bd 3b fc 16 f5 bc 0e fb 21 bd
       -0.07978211 0.005767867 -0.029918186 -0.039546065
000300 84 3a b1 bd d7 80 9e 3c 85 61 00 3c d8 7a 8d 3d
       -0.08653739 0.019348545 0.0078357505 0.06908196
000310 2b 40 c8 bb 5b dd d9 3b 85 92 57 3b 12 62 d7 bc
       -0.006111165 0.006648702 0.003289373 -0.02629188
000320 d2 50 13 3e 1b fd 7c 3d fe f0 51 3d 63 6c 5f 3e
       0.14386299 0.061764818 0.05125522 0.2181869
000330 26 bb a1 bd 39 6c c1 bc 65 c9 a2 3d 56 07 56 3e
       -0.07897024 -0.023611175 0.07948569 0.20901236
000340 2b 72 c5 bc 24 e9 74 3d 0f fc 15 bd 63 47 9b bc
       -0.024102291 0.059792653 -0.036617335 -0.018954938
000350 4f 54 ef bc 5d c8 c5 bc c8 04 89 3d 76 45 89 3d
       -0.029215006 -0.024143392 0.06690365 0.06702702
000360 de ca 2a 3e d1 80 73 3d e1 7a c9 3d b4 c5 f4 3d
       0.1667895 0.05944902 0.098378904 0.119517714
000370 ab d7 26 3e 5f 9b 73 3e 04 5d ac bc d4 62 77 bd
       0.16293208 0.23789738 -0.021040447 -0.060396984
000380 36 15 6f bd 31 e1 fa bc 43 d4 14 39 85 0a 05 be
       -0.058369838 -0.030624958 0.00014193454 -0.12992294
000390 8d 71 b2 3d a9 65 d2 3d 6d 7a dc 3d 01 b2 7a bd
       0.08713064 0.102732964 0.10765538 -0.061204914
0003a0 90 e5 e0 3d 10 20 3c 3b fa a2 c6 3b 20 6c 94 3d
       0.109812856 0.0028705634 0.006061909 0.07247186
0003b0 99 b7 8c bd 93 59 5e 3e bf 0e cc 3b 4e b2 25 3d
       -0.06870956 0.21713857 0.006227344 0.040453248
0003c0 02 62 2b 3d 5c 2a af 3d b4 06 33 bc 36 1d 57 3e
       0.041841514 0.08553001 -0.010926891 0.21007237
0003d0 52 35 9f bc a1 61 95 3d 87 2e a6 bd 14 9b 52 bd
       -0.019434605 0.07294012 -0.08114343 -0.051417425
0003e0 fa a9 b8 3d ef 09 74 3e 26 b6 e5 3d fb 70 96 3d
       0.090167955 0.23831914 0.11216383 0.07345768
0003f0 ab d8 f4 3d 82 c5 26 3e 58 26 1f bc f4 2a b6 bc
       0.11955389 0.16286281 -0.009713732 -0.022237279

weight f4 [64, 256]
000000 74 ff eb bc cd 81 6c 3d 9c bf 8c 3d c7 ae 6d 3d
       -0.028808333 0.057740975 0.06872484 0.05802801
000010 cf 0a 57 bd 2c 2d 37 3d 15 ef 08 3d 9f 49 79 3c
       -0.052500542 0.044720814 0.03343113 0.015215307
000020 c9 8b 0d 3c f7 16 51 bd 6f b5 d7 3c 87 83 81 bc
       0.008639284 -0.05104729 0.026331631 -0.015809787
000030 32 f9 da 3c 4b 59 55 bb ed 6f 06 3d 55 98 37 bd
       0.026730154 -0.0032554443 0.032821584 -0.04482301
000040 53 29 81 bd 8d 09 f8 b9 47 52 8e bc 17 ed 9f bd
       -0.0630671 -0.00047309362 -0.017373217 -0.07808893
000050 77 12 a0 3b 38 b8 1a 3d 89 11 e8 bd 15 35 0c 3a
       0.0048850137 0.03777334 -0.113314696 0.0005348486
000060 51 20 98 3c 90 83 97 bc 3c cc 15 bd bb 52 f9 3c
       0.018570097 -0.018495351 -0.036571726 0.030434957
000070 78 d5 d6 3d 7d e4 05 bd 01 26 68 3d 26 5e 9d 3c
       0.10489935 -0.032688607 0.05667687 0.019209933
000080 f0 9c 43 b9 69 8e 8a bc a0 d1 5a bd a6 dd f7 bc
       -0.00018655113 -0.01691361 -0.05342257 -0.030257057
000090 06 4b 1b 3d ac 9a 2a 3d 4c 59 ed 3a b7 be 81 3d
       0.037913345 0.041651413 0.0018108278 0.06335204
0000a0 f2 ce 37 3d 93 ca 29 bd 65 9d 66 3d 03 37 22 3d
       0.044875093 -0.041452955 0.056302447 0.039603245
0000b0 8c bc 8c bd 29 40 67 3d 78 4f f2 bd ad 15 50 3d
       -0.068719 0.056457672 -0.11831564 0.05080192
0000c0 e1 d7 3f 3d 54 a3 53 bd 37 d3 2c bd 3e 0d fa bb
       0.046836738 -0.051669434 -0.042193618 -0.007630973
0000d0 94 43 dd bd 90 8d ef 3b f2 36 51 3d c3 0d c2 bc
       -0.10803905 0.0073105767 0.05107779 -0.023688203
0000e0 57 b8 69 3a c8 d1 49 3c 3c 7c b4 3c 42 9e e3 3c
       0.00089157134 0.012318082 0.022031896 0.027785424
0000f0 d1 bc f1 3c 51 c7 c6 bb 84 d5 07 3d 1a ee b4 3d
       0.02950898 -0.006066241 0.03316261 0.08834477
000100 e3 5b 6b 3d 7c aa 69 bd d6 da ee 3c eb 39 d5 bd
       0.057460677 -0.057047352 0.029157083 -0.104114376
000110 3b 95 21 ba 55 87 ee bc 4a e9 44 3c fb d5 1c 3c
       -0.00061638997 -0.029117266 0.012018511 0.009572501
000120 88 4f 88 bd c6 b5 b7 3b 44 86 4a bd 79 78 bc bc
       -0.066557944 0.005606386 -0.049444452 -0.023006665
000130 d4 8a c6 bd df f4 51 bb 45 50 a9 3c 59 60 83 3d
       -0.09694448 -0.0032036824 0.020668158 0.06414861
000140 0c 60 5d bd c9 45 45 bd 6d 85 49 3b 75 9e f3 bc
       -0.054046676 -0.048162255 0.0030749694 -0.029738644
000150 db 79 a8 bd c1 0b 1a 3e 52 80 01 be 35 53 7c bb
       -0.08226367 0.15043546 -0.12646607 -0.0038501744
000160 38 23 f0 bc a7 44 d8 3d 8c a8 e6 bd 40 7f 68 3d
       -0.029313669 0.105599694 -0.112626165 0.05676198
000170 7d 72 b4 bc 51 d9 62 3d 5a 36 17 3d 01 7e 1f 3d
       -0.022027249 0.05538303 0.036917068 0.038938526
000180 a1 ff a4 bb 87 16 de bd 19 c7 db 3d b4 eb fe bc
       -0.005035356 -0.108441405 0.10731334 -0.031118251
000190 fe dd 64 3d 52 0d 65 bd ba 1c fa bc d0 da 6f bd
       0.05587577 -0.055920906 -0.030531276 -0.058558285
0001a0 e9 7d d5 3b 99 5b 63 bc d3 57 4e bd fa ed e2 bd
       0.006515254 -0.013876819 -0.050376724 -0.11080547
0001b0 b2 b5 31 bd 32 6e 02 bd 76 f7 b5 3c e8 51 d1 bb
       -0.04338617 -0.03184337 0.022212725 -0.006387938
0001c0 f3 5a b2 bb cc 5e ad bd e2 52 50 bd a8 65 fd 3c
       -0.005442971 -0.08465347 -0.050860293 0.030932263
0001d0 5c d7 44 3d 7a e5 f1 bc 66 d1 4d 3d c0 25 a9 bd
       0.048056945 -0.029528368 0.050248526 -0.08259153
0001e0 b9 18 2f 3d 80 fc 29 3d 2f a9 4c 3b c2 3b c1 bd
       0.042748187 0.04150057 0.003122877 -0.09435226
0001f0 27 3b d3 bc b3 a3 41 bc ee 80 20 3c 68 7a 71 3d
       -0.025785042 -0.011818814 0.009796364 0.058954626
000200 80 35 ff 3b 83 25 36 3d 26 59 83 3d fa 56 05 b8
       0.00778836 0.044469368 0.06413488 -3.1790674e-05
000210 18 8b 26 3c e5 a2 7b 3c d6 4c 57 3c 8e f8 10 3c
       0.0101649985 0.015358661 0.013140878 0.008848323
000220 07 3c d5 bd 28 1a 1a 3d 02 5f fa ad 16 3e 57 bd
       -0.1041184 0.0376226 -2.8463901e-11 -0.052549444
000230 e0 fc be 3d 05 d8 8f 2b bc b0 ee 3d a3 6b 0f be
       0.09325576 1.0220719e-12 0.11654803 -0.14005904
000240 4b 19 cc bc b7 d4 ab 3c 28 a6 20 3d b3 d4 88 3d
       -0.024914404 0.020975454 0.03922096 0.06681194
000250 69 29 4a 3c 75 74 1a 3c ba 77 9d 3c 41 40 0f 3d
       0.0123389745 0.00942718 0.01922213 0.034973387
000260 e7 32 bd bc 20 df d7 3c 18 93 88 bd e1 b1 fa bc
       -0.023095561 0.026351511 -0.06668681 -0.030602397
000270 f3 3c 0a 3d 47 67 ce 3c fa 71 44 bd 27 26 c4 3d
       0.033749532 0.02519573 -0.04796026 0.095775895
000280 47 24 95 bc e7 86 39 ba c9 f4 f6 3c e7 46 f2 b2
       -0.018205775 -0.0007077292 0.03014602 -2.820475e-08
000290 00 b2 84 bb 6e 5e 52 3d 5f 65 2c 3d 45 8a a3 bc
       -0.0040495396 0.051359586 0.042088863 -0.019963393
0002a0 06 81 21 3d ea c0 6d 3d 5d bb 09 3d 64 a9 30 3d
       0.039429687 0.058045305 0.03362595 0.043130293
0002b0 d6 b0 5f bc da 40 3b bd c1 57 72 3d 61 f1 4d 3c
       -0.013653001 -0.045716144 0.05916572 0.012569756
0002c0 a6 ff 4c 3d a3 d5 72 3a f1 d2 b6 3c 36 b2 7f 3d
       0.050048493 0.0009263402 0.022317382 0.062425815
0002d0 3e cf 87 bc d0 0a 39 3d b8 61 c4 ba 29 64 46 3c
       -0.016578313 0.045176327 -0.0014982736 0.012108841
0002e0 d6 6f 35 bd ad 50 df 3d 98 e6 a7 bd 0a 6d 41 3c
       -0.04429611 0.109040596 -0.08198279 0.011805782
0002f0 46 39 69 3b 4a 5d 9f 3c 34 d0 d6 3c 30 5b 85 3c
       0.0035587116 0.019453663 0.026222326 0.016278833
000300 b7 42 04 3d 7a 0e 6e 3d 29 c9 9c 3d 36 f9 0f bd
       0.032290187 0.058119275 0.07655556 -0.035149775
000310 48 30 40 bd d8 da 20 bc 05 36 0f 3d 74 a7 1f bd
       -0.046921045 -0.009817801 0.034963626 -0.038978055
000320 69 09 8e bd 2e 8e 3f bd 5c cc b4 3c dc 6b 0c bd
       -0.069353886 -0.046766452 0.022070102 -0.03428255
000330 79 bc c4 3c aa 0e 3a 3c 8b be dc bd eb 77 36 3d
       0.024015652 0.011356035 -0.10778531 0.044547956
000340 65 30 ad 3c 8e c2 38 3d e2 87 97 bd e1 8b 95 bd
       0.02114124 0.045107417 -0.073989645 -0.073020704
000350 73 e3 27 3c 74 d6 89 a9 b4 ea 12 3e b4 7f 24 3d
       0.010247099 -6.121224e-14 0.14347345 0.04016085
000360 07 63 d1 bc 02 4b f7 bc 75 b1 60 bd 52 5d 3a bc
       -0.025559915 -0.030187134 -0.054856736 -0.011374788
000370 d7 02 8d 3d e9 cf 12 be db d3 6c 3d 28 f0 76 bd
       0.06885307 -0.14337124 0.05781923 -0.060287625
000380 d3 f5 34 bd a7 1b 85 bd c0 25 fe 24 0f a1 83 3b
       -0.04417975 -0.06499415 1.1021889e-16 0.0040170024
000390 d2 d4 34 bb c3 b0 89 3d 3f a2 70 3d 9f 75 c8 bc
       -0.002759267 0.06723168 0.05874848 -0.024470149
0003a0 57 32 34 bc 34 2e 91 3d ad de 87 39 a8 ad e4 bc
       -0.01099833 0.07088891 0.00025915113 -0.027914837
0003b0 a0 e1 a8 3b 47 91 f1 bd 21 25 63 3b 5a ae 5b 3c
       0.0051538497 -0.117952876 0.0034659582 0.013408268
0003c0 51 f8 cb bd 4c 32 2d 3d 07 75 49 3d ea 37 40 3d
       -0.09959472 0.042284295 0.04918387 0.046928324
0003d0 79 34 d5 3c d3 3c 22 3c 21 9b a0 3d 91 73 e3 bb
       0.026025997 0.009902197 0.078420885 -0.006941267
0003e0 ee b4 82 3d ea fc 83 3c 0a 1d ca 3c 42 b0 13 3d
       0.06382166 0.01611181 0.02467205 0.036056764
0003f0 89 ec 1f 3d ed 02 1e be fb 42 5d 3c 48 1c 3c 3c
       0.039043937 -0.15430804 0.013504739 0.011481352

bias f4 [64]
000000 19 df c4 bd e4 21 7f 3d e0 83 1b 3e e6 a5 b7 bb
       -0.09612865 0.06228818 0.15187025 -0.0056044934
000010 50 42 0a 3d a1 0c 1c 3d e3 bb a2 3d fc d1 41 3e
       0.033754647 0.03809798 0.07945993 0.18927759
000020 1e 7b 10 3d 60 53 d4 3b 2e d3 69 bd 86 73 2f bd
       0.035273664 0.0064796656 -0.057086162 -0.04283478
000030 60 4a 6e bc 80 95 8b 3d ba c5 99 3d 9c 57 6d 3e
       -0.0145441 0.06815624 0.075084165 0.23177952
000040 5a da 0c 3e 6e 2b 94 3d 00 99 08 3a 62 13 12 3e
       0.1375517 0.07234846 0.0005210787 0.14265206
000050 6a 3a e3 bc 98 3b 57 bd a5 08 3f 3e f1 5c 7c 3d
       -0.027737815 -0.052547067 0.18655641 0.061612073
000060 9d 67 5c 3d 65 9f 38 bd aa 94 ca 3d 69 a6 c7 3b
       0.05380975 -0.045073885 0.09891637 0.0060928357
000070 99 0b 79 3e 06 b3 5b bc de 52 a9 bb 13 b6 ea 3b
       0.2432083 -0.013409382 -0.0051673492 0.007162818
000080 fa 8d 03 3e 44 89 6a bd fa d0 dc bb 27 da 93 bd
       0.12847129 -0.057259813 -0.006738779 -0.07219344
000090 e7 26 e7 3d 8e 7a 85 3c 04 55 df 3c 61 50 f0 bc
       0.11286717 0.01629379 0.027262218 -0.029335203
0000a0 78 fc 2b 3d ac 37 ad 3d f8 57 61 3d a5 f1 08 bd
       0.04198882 0.08457884 0.055015534 -0.033433575
0000b0 51 57 80 bc 15 e0 f4 3d c5 81 22 bd a0 70 eb 3b
       -0.015666636 0.11956803 -0.03967454 0.007185057
0000c0 c4 d3 67 3d b0 9a 87 3c 35 2a b5 bd 39 b5 ae bd
       0.05659844 0.016553253 -0.08845941 -0.08530659
0000d0 dc fa 82 bd 6d 6a 9f bc fa 13 2b 3b df 10 24 3b
       -0.06395504 -0.019459927 0.0026104436 0.002503447
0000e0 8f b6 95 3d 8f 9e 22 3e 40 52 45 bd fb e5 a9 3d
       0.07310211 0.15880798 -0.048174143 0.082958184
0000f0 16 f4 21 bd 5f 04 ad bb 9b cc 81 bd 17 5f cb bd
       -0.03953942 -0.005280062 -0.063378535 -0.09930246

weight f4 [10, 64]
000000 5e 85 f5 3d 3c a5 af bd d2 1d 41 3d 92 f5 f6 b9
       0.119883284 -0.08576438 0.04714758 -0.0004710374
000010 48 8b 35 3d 13 05 ab 3d 71 79 94 3d 1e 96 a5 3c
       0.044322282 0.08350577 0.072497256 0.020213183
000020 cf f0 47 3e 0c ba f7 3d 9f d6 94 3a 29 1e 82 bd
       0.19525455 0.120960325 0.0011355466 -0.06353409
000030 2b 17 a4 3c e5 5b 1b 3e 43 86 00 be 35 86 63 bd
       0.020030579 0.15171774 -0.12551217 -0.05554791
000040 79 56 f5 bd 29 eb fd bd 91 64 37 3d 73 83 03 bc
       -0.11979384 -0.12398369 0.044773642 -0.008026945
000050 2d 48 84 3d 0e 9c a8 bc 93 36 d9 3d 56 37 f9 3d
       0.06459079 -0.020582225 0.10606112 0.121687576
000060 61 7f 2b bd b6 e3 5b bc 07 0d 8a bd 10 b4 21 bc
       -0.041869525 -0.01342099 -0.06740766 -0.00986959
000070 fc 6a 83 be a6 7b 60 3d 04 38 b8 bd 81 03 16 3e
       -0.2566756 0.05480542 -0.08995059 0.14649774
000080 40 b3 d2 3d ab 0e f7 3b 9f 5b f0 bc 1d d6 62 bd
       0.102880955 0.0075395904 -0.029340563 -0.055379976
000090 a0 c5 e0 bd cf f4 3f 3d f1 9a 11 be a1 1f b5 3d
       -0.10975194 0.046864327 -0.14219262 0.08843923
0000a0 e6 77 08 3e 18 17 f3 3b fe 13 ae bd 91 7a 07 be
       0.13326988 0.0074185245 -0.08499907 -0.13230349
0000b0 49 db aa 3c ad ef 81 bd 65 00 57 3b dd 1c 81 3d
       0.020856516 -0.06344543 0.0032806632 0.06304333
0000c0 ee e9 3c bd 38 8e 25 3e ba 8f 22 be f8 d4 fa bd
       -0.04612153 0.16167533 -0.1587514 -0.12247652
0000d0 8f 1d 26 bd b0 2c 2f be 49 b9 df 3d 6d a2 c7 bd
       -0.040555533 -0.1710689 0.10924012 -0.09747777
0000e0 3f 2f 6c bd f1 7d 3e be c5 07 97 bd ed c2 36 3d
       -0.057662245 -0.1860273 -0.07374529 0.04461949
0000f0 82 cc 75 bc a6 27 2b be 5c bd 73 3d 66 45 3d be
       -0.015002372 -0.16714343 0.05950676 -0.18483505
000100 09 87 c0 3d 39 1e 12 bd 5b 4c 47 be bc a4 d1 3c
       0.09400756 -0.035673354 -0.19462721 0.025591247
000110 cc 06 81 bd 3f 3d 21 be 29 2c 5f be 9c fc b5 3d
       -0.063001245 -0.1574602 -0.2179419 0.08886072
000120 bd f8 d2 3d c7 b8 39 bd 8c e1 76 3d 9c ff ec bd
       0.10301349 -0.045342233 0.060273692 -0.11572191
000130 57 78 1d 3d 8f a1 06 be 6f 2e 81 be 31 65 49 bd
       0.038444843 -0.13147567 -0.2523074 -0.04916877
000140 e8 9f 37 be 0c 8c b3 bd d5 5c 29 3e 53 49 d7 bd
       -0.17932093 -0.08766946 0.16539319 -0.10512032
000150 00 ed f6 bd 6c 17 52 3c cf 89 80 bd 36 64 af 3d
       -0.12056923 0.012822967 -0.06276285 0.085640356
000160 8d 4f 5d bd 96 de bc 3d f8 2e 81 bd 0e 3e 4f be
       -0.054030944 0.092221424 -0.06307787 -0.20238516
000170 3a ea 35 be fc 17 e8 bb f4 4c bf bd 86 a1 0b 3e
       -0.17765132 -0.0070829373 -0.093408495 0.13635835
000180 4a 47 98 3d 2a aa 99 bd 7e 48 90 3d 72 48 f7 3d
       0.07435472 -0.07503159 0.07045077 0.12074365
000190 63 c8 b8 bc 82 5e 58 be a5 fe 29 3e c0 59 a0 bd
       -0.02255649 -0.21129802 0.16601045 -0.078296185
0001a0 d4 c8 9f bd c9 44 9e 3c 09 63 57 be 34 f2 9d 3d
       -0.07801977 0.019319909 -0.21033873 0.07712212
0001b0 2c 60 73 3e ef 8c 6d be 2f 18 46 bd f6 ba 1a 3e
       0.23767155 -0.23198293 -0.048362907 0.15110382
0001c0 dc cb 97 bd 08 f0 f4 3d 3d 5f b3 bb 45 9d 30 be
       -0.0741193 0.11959845 -0.005474 -0.17247494
0001d0 b4 b9 42 bc 25 79 06 be da 7b 16 be 76 b8 22 3e
       -0.011885095 -0.1313215 -0.14695683 0.15890679
0001e0 02 d6 39 3e be 21 c4 bd 02 56 80 bd a9 d5 88 3d
       0.18148044 -0.09576748 -0.06266405 0.066813774
0001f0 8a ce 16 be d0 81 e1 3d 10 9f 44 be a3 4a aa 3d
       -0.14727226 0.11011088 -0.19201303 0.08315017
000200 26 ad f6 3d 31 91 8e bd c6 55 4b 3c 7e 14 98 bd
       0.12044744 -0.06961287 0.012410587 -0.074257836
000210 95 e9 0e bc f7 38 69 bd b8 eb c9 3d 82 ad 2f 3d
       -0.0087226825 -0.05693909 0.09859413 0.04289008
000220 2a cf 1a be 06 7d fd 3d 2a 45 c4 bd b0 12 b8 bd
       -0.1511809 0.12377362 -0.095835045 -0.08987939
000230 00 91 be bc 59 9b d6 bd e1 4b ca bc 89 f7 8b 3d
       -0.0232625 -0.10478849 -0.024694385 0.06834323
000240 b8 f5 ad 3d 2a ff cb 3c 10 97 e3 3d 27 fb c8 3d
       0.08494133 0.024901945 0.11112797 0.098135285
000250 07 4c a3 bd 3f c8 07 bc f6 97 42 be a3 9e 7d 3d
       -0.079734854 -0.0082874885 -0.19003281 0.061918866
000260 40 61 44 3c 40 0f 31 3d 05 79 3d be 98 da b8 bd
       0.011986077 0.043227434 -0.18503197 -0.090260684
000270 d6 4d 70 be a9 3e a7 3b 87 a2 11 be 5f 76 08 3e
       -0.23467192 0.005103905 -0.14222156 0.13326405
000280 18 ad 9c 3d 14 22 27 be 53 0d 4b 3d 06 a1 1c bd
       0.076502025 -0.16321594 0.049573254 -0.0382395
000290 82 45 04 bd 02 bd 64 3d 2a 08 e6 bd 6e 37 a5 bd
       -0.03229285 0.055844314 -0.11232026 -0.08067213
0002a0 de c7 f6 3d 8e e0 03 bd d2 13 5e be 05 6d 74 3b
       0.120498404 -0.032196574 -0.21687248 0.0037296426
0002b0 aa a0 ac 3d 93 2c c0 bd ae bb ec bd 25 dd 9b bc
       0.08429082 -0.09383502 -0.115592346 -0.019026348
0002c0 e8 6d 03 be 2c 2b ee bd 17 a1 15 bc ec 86 ef bd
       -0.12834895 -0.11629328 -0.009132645 -0.11695656
0002d0 dc f3 d9 3c 2b ca 7b 3d 59 6b 9b 3d bb fb 18 be
       0.026605539 0.0614721 0.07588834 -0.14939778
0002e0 f2 06 e4 bd 6f 69 51 3c c1 86 46 bd 45 e1 e5 3d
       -0.11134137 0.012781485 -0.048468355 0.112246074
0002f0 d2 7e 8f bc 03 24 99 3c cf ae ac bd 72 a5 a3 3d
       -0.017516527 0.01869393 -0.084317796 0.079905406
000300 19 72 91 3d cb 51 9b 3d 32 92 76 3d 0e 3a 1c be
       0.071018405 0.0758396 0.060198016 -0.15256521
000310 48 af 3f 3d 38 d0 48 be 9c 77 45 3d fa 5e e5 3d
       0.04679802 -0.19610679 0.04820977 0.11199756
000320 c8 13 a7 bd 07 b6 14 3e f0 36 02 be 30 c7 24 be
       -0.0815807 0.14522563 -0.1271627 -0.16091609
000330 9a bf 91 bd 4f b0 61 3c 4f 55 3d 3d 5d 16 54 be
       -0.07116623 0.013774945 0.046223935 -0.20711656
000340 1c 07 a0 3d d7 b3 69 be 2b 41 e0 3d e5 95 67 be
       0.07813856 -0.2282251 0.1094993 -0.22615774
000350 a1 5f 15 be ae 33 8a 3c 36 54 0a 3e 40 c3 42 bd
       -0.14587261 0.016870346 0.13508686 -0.047549486
000360 72 21 10 3d cf 09 3a 3d 16 a8 00 3d 20 17 a7 bd
       0.035188146 0.04541951 0.0314103 -0.081587076
000370 08 ec 52 be a2 e2 a3 bd b6 06 91 3d f3 c1 70 3b
       -0.20597851 -0.08002211 0.07081358 0.0036736696
000380 18 c4 e1 3d 75 24 6b 3c 73 79 7a bd de b3 9d 3d
       0.1102373 0.014351954 -0.06115098 0.077003226
000390 f4 b6 06 3e 95 31 84 3c bd c5 40 3c 5c 60 bd b8
       0.13155729 0.016136924 0.0117658945 -9.0301706e-05
0003a0 89 53 b4 bb 30 83 00 3e f1 8b a8 be 84 05 42 bd
       -0.005503122 0.12550044 -0.32919267 -0.04736854
0003b0 44 0a bc bd fb f4 7f 3d 05 6c c2 3d 11 8d 00 3e
       -0.091816455 0.06248949 0.09493259 0.12553813
0003c0 21 89 be bd 56 ee 42 3d eb c4 51 be c1 15 c6 bd
       -0.09303499 0.047590576 -0.20485274 -0.09672118
0003d0 64 21 46 bc 6f 9c 5f bd 78 20 35 bd e4 6b 8a 3d
       -0.012092922 -0.054592546 -0.044220418 0.0675886
0003e0 cd 24 8a 3d 50 ab 9f bd d4 13 42 3c d1 54 52 3d
       0.067453004 -0.07796347 0.011845548 0.05135042
0003f0 0c b2 57 3d 68 2b 06 bd 91 c6 ec bd 37 5f 14 be
       0.052660033 -0.03275624 -0.11561311 -0.14489447

bias f4 [10]
000000 65 a6 a7 3d 76 e3 1c be 4d 00 c1 bd 62 e0 48 3d
       0.08186034 -0.15321144 -0.094238855 0.049042113
000010 bb d4 06 3b 54 35 e1 3d bc 38 93 3d 9e bf a3 bd
       0.0020573575 0.109965 0.071885556 -0.079955325
000020 53 35 e0 bd 5c 7f 26 bd
       -0.10947671 -0.040648803
