2-hypertuning-mlflow/models/20250927-1408model.pt (torch, 549529 bytes, 6 tensors)

weight f4 [128, 784]
000000 dd f9 52 3c e3 99 52 3c 54 51 6c bc 62 97 2b bd
       0.012876955 0.012854072 -0.014423687 -0.041892417
000010 02 b2 bb bc dc 78 0d 3c af aa f3 3d 4b 0d e2 3d
       -0.02291203 0.008634772 0.1189779 0.11037692
000020 e0 4a cd bd 7f 8c a0 3c bd c2 5f bc 6f 98 14 3d
       -0.10024047 0.019598244 -0.013657269 0.036278185
000030 20 f1 47 3d a8 5a e0 3b 39 9a cd bc 48 24 0b 3b
       0.04881394 0.0068467446 -0.025097953 0.0021231342
000040 cc 41 bc 3d 5a e7 d3 3c e7 66 47 bd ad c9 c5 bd
       0.09192237 0.025867153 -0.04868212 -0.09657607
000050 29 7a 65 bd 37 2e c0 3d d5 6e 46 3d b9 26 3f bd
       -0.056024704 0.09383815 0.04844554 -0.04666779
000060 b2 65 3b bc 70 86 31 bd 61 ed 1e bc 3d 24 52 3c
       -0.01143782 -0.0433411 -0.00970015 0.012826023
000070 b1 91 53 3c 70 42 55 3c d0 7b 57 bd d4 ac 90 bd
       0.0129131535 0.013016328 -0.05260831 -0.07064214
000080 9e 38 9b bd 90 5f a8 bc 78 de 0a 3b 5e ea 91 bd
       -0.07579158 -0.02055338 0.002118973 -0.0712478
000090 57 0c 25 3d 26 79 08 3e 3c 3a a1 3d ac 5b a3 bc
       0.04029497 0.13327464 0.078724355 -0.019941173
0000a0 1a 76 1d 3d 23 ef 66 3d 05 3c ae 3d 9a db 1e 3d
       0.03844271 0.056380402 0.085075416 0.038783647
0000b0 ba de 58 bd dd 1c dc 3c d1 00 10 3d 5f 58 f1 3c
       -0.052946784 0.026869232 0.03515703 0.029461084
0000c0 60 5a 09 be 27 de bb bd b9 7a db 3c 06 48 7e 3c
       -0.13413382 -0.091732316 0.026791917 0.015520101
0000d0 7c db 24 3c a1 34 ec bc 12 8a 4b bd 67 79 77 3c
       0.010062095 -0.02883369 -0.04969222 0.015104628
0000e0 42 03 48 3c 91 c5 92 bc bc b7 a7 bd fc a4 a7 bd
       0.012207808 -0.017916473 -0.081893414 -0.08185765
0000f0 08 3b 83 bd be 04 c1 bd ec c5 d9 bd 00 ce 9b bc
       -0.06407744 -0.094247326 -0.10633454 -0.019019127
000100 c4 8e f9 3d d9 5f d8 3d ad e5 8a bb 79 aa c7 bc
       0.121854335 0.105651565 -0.0042388053 -0.02437328
000110 84 43 ad bd 37 de 04 bd de 2b ae 3a 0d 88 ad bd
       -0.08460143 -0.032438483 0.001328822 -0.08473215
000120 65 d6 a0 bc 18 17 9b bc 74 55 4d 3d 23 fb 2e 3d
       -0.019633481 -0.01893191 0.050130323 0.04271997
000130 af 81 75 3b 5d 0f 82 bd 2f 26 c9 bd 11 fb 41 bd
       0.003746133 -0.063505866 -0.09821736 -0.047358576
000140 cb 33 d6 3c 85 2e 6e 3b 3a 5b 09 3c 49 ca e6 3c
       0.026147744 0.0036343646 0.0083835665 0.028172629
000150 15 04 90 3b 62 e6 2c bd ae d6 56 bd 6d 5d bc bd
       0.004395018 -0.042211898 -0.05245083 -0.09197507
000160 87 37 fe bd b7 34 1e be ee c3 d1 bd 68 e1 b4 3c
       -0.12412935 -0.15449797 -0.10242449 0.022080138
000170 41 3b 0a 3d 4a b2 f1 bb c4 b6 3d bc de 76 0d 3d
       0.033747915 -0.00737599 -0.011579219 0.03453719
000180 c1 54 62 3a b1 3f a8 bb 0f ba 34 3d 96 29 f5 bc
       0.0008633845 -0.0051345457 0.04412275 -0.029927056
000190 3a 88 08 bd 3a 52 8e 3c 97 d4 15 bd bf 9e d3 3c
       -0.03333304 0.017373193 -0.036579695 0.025832532
0001a0 1c 70 be bc d4 63 b9 bd 74 20 d6 bd 4b d9 eb bd
       -0.023246817 -0.09052244 -0.10455409 -0.11516055
0001b0 f3 05 25 3d d5 4c 4f 3d fd 1e 99 3c 38 0c 5a 3c
       0.040288877 0.050610382 0.018691534 0.013308577
0001c0 2b 97 06 3d 04 2f f8 3b c0 c9 86 bd 15 67 b3 bd
       0.03285901 0.007573964 -0.065814495 -0.08759896
0001d0 17 0e 18 be 7f 5b 21 be db 2d 15 bd c9 3f 9b 3d
       -0.14849125 -0.15757559 -0.036420684 0.075805254
0001e0 bc c3 7b 3d 61 75 00 bd 08 03 65 3d 6b dc 07 3d
       0.061465964 -0.03136194 0.055911094 0.03316919
0001f0 c2 cc be ba 9a 94 76 bd 59 02 21 3c 6b 9c 05 bd
       -0.0014556872 -0.06020031 0.00982722 -0.032619875
000200 a9 f7 24 3d 81 96 10 3d e1 8f 8f bb 0f da 0d 3d
       0.04027525 0.03529978 -0.0043811654 0.034631785
000210 36 05 1d 3d 58 ed 77 bd ec 7f ee bd 1c 5f 66 bd
       0.038335048 -0.060529083 -0.11645493 -0.056243047
000220 bc a6 4f 3b ff a8 c5 3b 01 f2 2b bb 48 86 9b 3d
       0.0031685075 0.006032109 -0.0026236775 0.075939715
000230 8d 0c 9e 3c 20 1a ba 3c 9f ff 96 bd 15 d7 d5 bd
       0.019293094 0.022717535 -0.073729746 -0.10441414
000240 af 6d 6e be d9 0a 39 be 36 4e 5c 3b 04 d2 43 3d
       -0.23284028 -0.18070544 0.0033615953 0.04780771
000250 20 d8 93 3d c2 7c 4e 3d ca 7c e9 3c c0 9f 28 3c
       0.07218957 0.050411947 0.028501887 0.010291994
000260 2a 8d a8 bc 54 83 2e bd 12 ac f9 3b 49 0c 9b bb
       -0.020575125 -0.042605713 0.0076193893 -0.004731689
000270 8d e7 cd 3c b1 b8 88 3c c2 e2 19 3c a8 e9 92 3c
       0.025134826 0.01668963 0.009392442 0.017933682
000280 8b d0 6c 3d ac 48 0f bd cc e1 f5 bd 58 02 ee bc
       0.05781607 -0.034981415 -0.12005958 -0.029053852
000290 42 1a db b9 a2 e5 06 bd c2 a4 b9 3c 9f 4d 15 3d
       -0.000417905 -0.03293384 0.02266157 0.03645098
0002a0 27 7d ca 3b 40 fb 02 3b d1 92 a7 bd c6 cd b7 bd
       0.00617947 0.0019986182 -0.081823 -0.08974795
0002b0 46 da 26 be ac 5a 41 be b2 8b 0b 3d 68 29 82 3d
       -0.16294202 -0.18882245 0.03406877 0.06355554
0002c0 c9 b9 17 3c 82 28 5c bc 66 41 9c bb 14 07 02 bc
       0.009260603 -0.013437392 -0.0047685383 -0.007936258
0002d0 81 d7 bf bb 3c a5 00 bd 04 d0 28 bc b5 5a e4 bc
       -0.0058545475 -0.03140758 -0.010303501 -0.027875284
0002e0 5d 93 1f 3c 4b 69 fb 3c 53 56 3e 3d d5 57 52 3c
       0.009739724 0.030689856 0.046469044 0.012838324
0002f0 ca 7d 6e 3d 6c 55 38 3d 89 e8 e6 bd e3 8f eb bd
       0.05822543 0.04500334 -0.11274821 -0.115020536
000300 94 e4 ae bb 7c 3b ca ba b5 bf 18 3d 70 a3 84 3d
       -0.005337307 -0.0015429105 0.0372922 0.06476486
000310 c1 b3 f6 bc 1d 77 e6 bc ed 90 9d bd 97 4f f8 bd
       -0.03011501 -0.02813297 -0.07693658 -0.121245556
000320 0a 4a 1c be 95 10 15 be 7b 08 09 3d c0 4b b0 3d
       -0.15262619 -0.14557107 0.033455353 0.08608198
000330 4f a1 53 bd e9 9c 23 3b f6 be 0a 3c bd 32 5a 3d
       -0.051667508 0.0024965352 0.00846838 0.053271044
000340 cd 59 ce 3c d1 f9 79 3b e3 d8 6e bd ee 18 c1 3c
       0.025189305 0.0038143287 -0.058312308 0.023571458
000350 3b 83 e0 3a ac 91 48 bd 77 0c 65 ba 83 61 12 3d
       0.0017128953 -0.04896705 -0.0008737514 0.035737526
000360 d7 83 b0 3d 6e 3b 9d 3d f6 85 28 bd 27 1b eb bd
       0.086188965 0.07677351 -0.04114338 -0.11479788
000370 fb 42 b0 bd 91 88 a6 3c 7f 1b 31 3b ed fb 89 3b
       -0.086065255 0.020328792 0.0027024446 0.00421094
000380 1b 6f 3d bd d0 31 41 bc 2c 0b 8c bd 6d 2e f4 bd
       -0.046248537 -0.011791661 -0.06838068 -0.119229175
000390 d9 6e 3e be 5d f3 2d be a8 17 90 3d 6a cb be 3c
       -0.18596973 -0.16987367 0.07035762 0.023290355
0003a0 31 bc 61 bd e4 09 79 bd 30 e4 e3 bc b4 0e c6 3c
       -0.055111114 -0.060800448 -0.02781877 0.024176933
0003b0 f1 af a2 bc 26 10 22 bd 04 1e 27 bd dc bb fb bc
       -0.019859286 -0.03956618 -0.04080011 -0.030729227
0003c0 30 91 d9 3c 22 c7 9b bb 28 70 90 bd 22 68 e8 3c
       0.026558489 -0.004753963 -0.07052642 0.028369967
0003d0 ca 2e f2 3c 7e c0 78 3d 58 ed 92 bd 4e 13 bf bd
       0.029563326 0.06073045 -0.07174176 -0.09329854
0003e0 a1 c2 38 bd 25 c5 66 3d 23 98 41 3c c3 51 70 bd
       -0.045107488 0.056340355 0.011816057 -0.058671724
0003f0 c4 11 17 bd 78 2a 37 bd 7a f9 60 bd 36 68 ba bd
       -0.036882177 -0.044718236 -0.05492542 -0.09101908

bias f4 [128]
000000 da d9 6f 3d de 7e 49 3e c0 b3 36 be b9 80 c6 bd
       0.05855737 0.19677302 -0.17842007 -0.09692521
000010 00 38 41 3e ac 18 0c 3e 3f d1 ae 3d fe 8e 55 bd
       0.18869019 0.13681287 0.08536004 -0.05213832
000020 50 d9 eb 3d f4 75 6a bd 49 3b e1 bb b5 7a 21 3e
       0.115160584 -0.057241395 -0.0068735224 0.15769465
000030 17 6e 41 3c e6 51 59 3e 6f 26 10 3e 01 ae 1b be
       0.011806033 0.21222648 0.14077161 -0.15203096
000040 81 4f ae 3d e7 dd c3 bd b8 ec a5 bb 05 04 4a 3e
       0.08511258 -0.09563809 -0.0050636195 0.19728096
000050 bd 9a 1e be e4 5f 81 3d 90 ce 92 3d 56 5f 06 bc
       -0.15488715 0.06317118 0.07168305 -0.008201441
000060 02 79 aa 3b e9 82 7d 3e 76 e7 0a bd d4 7a c5 3d
       0.0052024135 0.2475697 -0.033912145 0.09642568
000070 c3 44 3e 3e 40 14 f0 bb 59 5b 0e 3e 2e 8e 9f 3d
       0.18580918 -0.0073266327 0.13902034 0.077907905
000080 5a 99 8b 3d 43 5d 1e 3e 2f 0e f2 bc 1e b0 97 3d
       0.06816359 0.15465264 -0.029547779 0.074066386
000090 6d 18 4a 3e 94 85 0c 3c d5 ed 4f bd 17 36 df bd
       0.1973588 0.008576769 -0.050763924 -0.10898989
0000a0 c1 dd 70 3d 63 71 ae bc 80 09 43 3d 36 47 f4 bc
       0.05880523 -0.021294301 0.04761648 -0.029819112
0000b0 59 86 f0 3d e3 4a 03 be 02 85 69 3e 63 76 25 bd
       0.11744375 -0.12821536 0.22804645 -0.040396105
0000c0 70 76 f5 ba ea df 30 bc ff a8 af bd 83 63 8a 3e
       -0.0018727314 -0.010795573 -0.08577155 0.27029046
0000d0 4b 96 3d 3e 22 af bd bd a3 39 4d 3e 6e fc 7f 3e
       0.18514363 -0.092619196 0.20041518 0.24998638
0000e0 d6 55 69 bc 2f 85 18 3e 47 d8 70 bb 98 14 e2 bd
       -0.014241656 0.14894556 -0.0036750005 -0.11039084
0000f0 83 e3 93 bc bf 26 30 bc 86 1b 05 3e 5d 14 27 bd
       -0.018052822 -0.010751425 0.1299878 -0.040790904
000100 d4 36 0c bc 37 85 74 3d ce f5 d9 3d 4b e1 7d ba
       -0.008557994 0.059697356 0.10642587 -0.00096847554
000110 cf 70 32 3c 1c b8 b1 bd 77 00 74 3e de ee 19 3e
       0.0108911535 -0.08677694 0.23828302 0.15032527
000120 d6 39 1d bd c2 b0 4d 3d ab 9f 23 3d b8 62 87 bd
       -0.038385235 0.050217398 0.039947193 -0.06610626
000130 74 7f e6 bc 1a 97 a2 3d 89 a8 ad 3c c6 87 51 3d
       -0.028136946 0.079389766 0.021198528 0.051154874
000140 09 2f 2a be e2 f1 df bc 9e bb 65 3e 30 c6 19 3e
       -0.16619505 -0.027337018 0.22434852 0.15017009
000150 69 36 fe 3d a8 28 be bd 57 c8 04 bd ac 66 70 bd
       0.12412722 -0.09285098 -0.03241762 -0.058691666
000160 80 7f 05 3d e5 90 1f 3e 20 d2 42 3e 72 15 99 3c
       0.032592297 0.15582617 0.19025469 0.018686984
000170 6c 89 d7 3d c8 d5 ab 3d 58 95 b1 3d c7 94 7f bd
       0.10524258 0.08390385 0.08671063 -0.062397745
000180 78 04 10 bc 8b d7 11 3e 2c 31 36 3e 57 b5 ba bd
       -0.008790128 0.1424238 0.17792195 -0.09116619
000190 d7 47 99 3c 6a df fc ba ef 8b 1d 3c 50 ac ce 3d
       0.018711014 -0.0019292657 0.009615882 0.1009146
0001a0 2c a7 1a 3e 3b 65 b2 3d fa 4a 7f 3d 33 e8 2f 3e
       0.15102834 0.087107144 0.062327363 0.1717842
0001b0 2d 45 54 3e 7c f4 3f 3c 2a 3b 1e 3e a9 0b 74 3c
       0.20729513 0.011716004 0.15452257 0.014895358
0001c0 8c 9a d6 3a 85 5c c0 3c 80 16 93 3d 65 de 14 bd
       0.0016372963 0.023481617 0.07182026 -0.036344904
0001d0 7a 1f c1 bd 55 34 88 3d 33 4e 01 3e 89 87 1b 3e
       -0.09429832 0.066506065 0.12627487 0.15188421
0001e0 8c 13 09 be 2e b8 ac bd 82 e5 9a bc 6f 78 52 bb
       -0.13386363 -0.08433567 -0.018908266 -0.003211524
0001f0 85 0b 90 bd 3d 6c 2a 3d 71 52 f3 bd 4b 42 51 3e
       -0.07033447 0.04160713 -0.11880959 0.20435445

weight f4 [256, 128]
000000 69 5b 23 3c 9c 91 c0 3d 4b 9e f7 bb 5b b8 f8 3d
       0.009970524 0.09402773 -0.007556712 0.12144538
000010 98 1d c9 bc 56 7c 5e bd ce c2 64 3d 2d 4a 1b 3d
       -0.024550244 -0.054317795 0.055849843 0.037912536
000020 d7 ed 7b 3d 23 45 17 be e8 2c 51 bd a9 44 98 bd
       0.06150612 -0.14772467 -0.051068217 -0.07434971
000030 8c e6 75 bd 7e 3a b7 bd 99 d9 04 bd e4 fd b3 bc
       -0.06003432 -0.089467034 -0.03243408 -0.02197165
000040 36 d5 c2 3d 9d de a8 ba 98 0b 22 bd 9a 39 3e bd
       0.09513323 -0.0012883727 -0.039561838 -0.046441652
000050 8b 1a a6 3d 13 a7 9a 3c ff b0 32 bd de ac d7 3b
       0.081105314 0.018878495 -0.043625828 0.0065818867
000060 b3 e1 b8 3d 02 c1 76 3c e6 25 c8 3d f0 51 16 bd
       0.09027424 0.015060665 0.097728536 -0.036699235
000070 cd c0 50 3e 12 a6 5d bd 65 e2 04 3e fb 47 ab 3d
       0.20386048 -0.054113455 0.12976988 0.083633386
000080 a1 38 aa 3c 18 da f4 3c 08 55 52 bb 6a e9 24 bd
       0.020778956 0.029889151 -0.003209414 -0.040261663
000090 93 77 35 bd 04 3d 05 be 1c 78 c0 bd 0f 27 29 bd
       -0.044303488 -0.13011557 -0.09397909 -0.041297015
0000a0 ee ac 0c bb 9c e8 9d bc e5 74 16 bc 8b 48 5d bd
       -0.0021465379 -0.019275956 -0.009183143 -0.05402426
0000b0 11 24 e5 bd c7 34 93 3d 57 3b ff bc e2 ef 16 bd
       -0.1118852 0.07187801 -0.031156225 -0.036849864
0000c0 4f 10 73 bd b1 49 a8 bd 78 6d 92 3d a0 ab cd bc
       -0.059341725 -0.082171805 0.07149786 -0.025106251
0000d0 36 df 0a 3d c0 a0 f4 bd c4 11 1a 3e 37 c8 b3 3d
       0.033904277 -0.11944723 0.1504584 0.08778422
0000e0 47 16 8d bc bd 27 af 3d 1d 6c 69 ba 42 c4 f2 bc
       -0.017222537 0.08552501 -0.0008904355 -0.029634599
0000f0 1c 74 93 3c 77 51 0e 32 d6 53 a5 bd ee 6c d1 bd
       0.017999701 8.284011e-09 -0.08072631 -0.10225855
000100 00 12 8a 8c f2 38 0e be 89 d7 14 3d e8 e4 9a 9a
       -2.12731e-31 -0.1388891 0.036338363 -6.4062725e-23
000110 2f 3a 94 3c c4 ad ea 3c d2 d5 ce ba 52 6a c2 bd
       0.01809415 0.028647311 -0.0015780276 -0.09492935
000120 f5 59 34 3c 7c e9 4b ba ac 26 32 bd 58 33 00 3d
       0.011007776 -0.00077786273 -0.04349391 0.031298965
000130 4d b2 a7 bd 69 a0 d5 3d c3 e9 f9 b8 92 30 0a 3e
       -0.08188305 0.104309864 -0.00011916787 0.1349509
000140 fa 6c d2 3d ad 74 ec bd c6 7a 83 3d 18 b7 96 bd
       0.10274692 -0.11545692 0.064199015 -0.07359141
000150 ad 45 cf bd 2d 61 ae 3d 86 c0 fa bd 14 d6 79 3c
       -0.101207115 0.085146286 -0.12243752 0.015248794
000160 13 9a 91 3d 98 35 e5 3d 93 18 29 3d 25 4d 7d bc
       0.071094655 0.11191863 0.0412832 -0.015460287
000170 e2 22 0f 3e 6b 34 c3 bd fb 91 ad bd a1 03 ae 3d
       0.1397815 -0.09531482 -0.08475109 0.08496786
000180 dc 7d e5 38 18 c7 37 bd 5f 38 a6 bb 4a 65 04 bd
       0.00010943014 -0.044867605 -0.005072638 -0.03232316
000190 39 ec 0b 3d 5d ab 8a bd 4a 36 5d bd 84 4c cb 3d
       0.034160826 -0.06770966 -0.054006852 0.099267036
0001a0 08 7c c4 3d 47 d5 7f 3d e0 77 8c 3d b0 30 ae 3b
       0.095939696 0.062459257 0.06858802 0.0053158626
0001b0 ee a9 25 bd a0 b2 d7 bd e2 59 53 bd 63 fe 07 bd
       -0.04044526 -0.10532117 -0.05159939 -0.033201586
0001c0 2c b6 9e bc cd 54 b6 3d 12 e6 70 bd f6 4b 95 3d
       -0.019373976 0.08902893 -0.058813162 0.07289879
0001d0 73 cf a1 3b 13 ed a7 3c 89 7a c7 bb 26 87 e4 3c
       0.00493806 0.020498788 -0.0060876054 0.027896475
0001e0 8d 2c 94 3d 81 01 b3 bd 90 45 d5 3c 84 52 3e 3d
       0.0723506 -0.08740521 0.026034147 0.04646541
0001f0 7e d5 82 3b 70 c4 b0 bd 5c 6c 72 3d 87 83 b0 bb
       0.0039927354 -0.086312175 0.05918537 -0.005386773
000200 07 32 f1 3c 13 ff d4 3d a4 b9 ad bc ee d1 17 bd
       0.0294428 0.10400214 -0.021206684 -0.03706544
000210 c2 4b 9f 3d c4 10 51 3d b4 0f a2 bd b9 e0 49 3d
       0.077781215 0.05104138 -0.079131514 0.049286578
000220 c6 6b 3b 3d 93 72 66 bc c0 eb 78 bc 68 d8 94 3d
       0.045757078 -0.014065403 -0.015192926 0.07267839
000230 02 af 86 30 c4 73 d4 3d 28 70 49 bc c8 21 9a bd
       9.799523e-10 0.10373643 -0.012294807 -0.075259745
000240 34 2c 87 3d 2f 4b 5e bd 90 60 cd 8e 22 68 c7 3d
       0.06600228 -0.05427092 -5.0629388e-30 0.09736659
000250 4f c1 a4 bd 31 ee 75 bc cf df 50 bd d6 4d 98 91
       -0.08044683 -0.015010403 -0.05099469 -2.4029342e-28
000260 00 1b 0b bd 2c dd b1 3d 0f c8 43 3d 5e 61 84 3d
       -0.033961296 0.08684763 0.047798213 0.06463884
000270 d2 43 a8 3d b6 02 1f 90 0f b3 56 3d 5f c4 a8 bd
       0.08216061 -3.135931e-29 0.052416857 -0.0824058
000280 28 74 92 3d 38 77 b0 bd ab e9 eb 3c 7e d7 c4 3b
       0.07151061 -0.08616489 0.028797945 0.006007134
000290 3c bc 20 3e c6 a1 f0 3c f8 88 4f 3d 5f e9 05 3d
       0.15696806 0.029374015 0.050667733 0.032693263
0002a0 1b ff ac bc 4a 44 c6 8c 15 7c f7 3c aa 28 91 bb
       -0.021117738 -3.054783e-31 0.030210534 -0.0044298964
0002b0 ad 5a 62 bd 29 48 16 3d 9a 3a 77 bd 2a 2a cb 3c
       -0.055262256 0.03668991 -0.06035862 0.024800379
0002c0 c3 cb 46 bd 2d 5d ad bc bd 85 af 3d d6 6f 95 3d
       -0.048534166 -0.021162594 0.085704304 0.07296722
0002d0 b6 27 72 bc a2 38 42 bc 74 20 fb 3d c2 f7 92 3c
       -0.014779976 -0.011854323 0.12262049 0.017940406
0002e0 1d af 8f 90 51 f8 24 bc 35 6b 81 3d fa 43 9c 3c
       -5.667336e-29 -0.010068969 0.06319276 0.019075383
0002f0 80 5c 38 90 29 25 c1 8c 38 10 9a 3d 96 3a d6 3c
       -3.635886e-29 -2.9758723e-31 0.07522625 0.026150983
000300 1f e9 bc b4 51 a9 40 bd cd 3b 98 bd db 3a 00 1c
       -3.5187347e-07 -0.047036473 -0.07433281 4.2427716e-22
000310 12 74 f8 3d 5f 7e 5b bc cc 8a 09 3d 52 eb f2 bd
       0.12131514 -0.013396828 0.033579633 -0.1186129
000320 24 1b 16 3d 5b 93 8a bc d0 ae d0 3c 4d 4f 88 bc
       0.036646977 -0.016915968 0.025473982 -0.016639376
000330 a2 15 81 bd 2b 2d 72 bd 04 5c 0d 30 27 a3 7d bd
       -0.06302954 -0.059125107 5.1426263e-10 -0.061923172
000340 7a 41 ee bd 57 b0 44 bc 42 0f e6 3d b5 03 9e 3b
       -0.116335824 -0.012004933 0.11233379 0.0048222193
000350 5c 89 8e 3d 6d 64 f0 bd 5a 29 ab bc 04 de 9b 3d
       0.06959793 -0.11737905 -0.020893741 0.076107055
000360 e0 67 14 3d 52 69 9e bd 3c b5 11 3d 64 ff 64 3c
       0.036231875 -0.07734932 0.03557323 0.0139769055
000370 32 8e 8f bb 4e 00 6d bd 5f 44 8a bd ba 3f b2 3d
       -0.0043809647 -0.05786162 -0.06751322 0.08703561
000380 6a 0a 46 0c 36 5e 43 bd a9 28 87 3c c5 66 19 3d
       1.5256499e-31 -0.04769727 0.01649888 0.037451524
000390 1d b3 16 bb f6 80 dd bc 66 1e ad 8d 3d cb f0 3d
       -0.0022994943 -0.027039032 -1.0669266e-30 0.117575146
0003a0 22 c0 e8 bc e5 fa 78 bd dc 59 38 38 a0 f5 81 3d
       -0.028411929 -0.060786147 4.3952707e-05 0.063456774
0003b0 2a b4 27 3d f6 ab 06 bd 5e 0a b4 ba ec a9 2a bd
       0.040943302 -0.03287884 -0.0013736 -0.041665956
0003c0 48 c8 0e 3d fd 64 90 3d ca f2 05 3e cc d4 ba 3c
       0.03485897 0.07050512 0.13080898 0.022806548
0003d0 1d d6 19 3d 62 e8 85 3d 0d 3b 5c 3c 2d 1a b7 bc
       0.03755771 0.06538464 0.013441813 -0.022351349
0003e0 48 0c 41 3d 1e 7c 77 3d 9e 6c 35 3d 82 b6 84 38
       0.047130853 0.0604211 0.04429304 6.328245e-05
0003f0 fb f0 ca bc 12 97 6c bd fd ca ae 3b 5c d1 15 bd
       -0.024773112 -0.05776126 0.0053342567 -0.036576614

bias f4 [256]
000000 90 42 2a 3e 13 e2 dc 3d 9b fa 7b 3c b2 82 23 bd
       0.16626954 0.10785308 0.015379573 -0.039919563
000010 22 a0 15 be c7 53 a0 bc a5 cd bf b9 fa f9 d5 3d
       -0.14611867 -0.019571198 -0.00036583576 0.1044807
000020 ed 9f 35 3d 53 75 85 3c fb ca aa 3d 1e 34 b3 3d
       0.04434197 0.016291296 0.08339497 0.08750175
000030 78 98 92 bd bf 8c 1f be c4 55 8c 3d de 5f fa 3d
       -0.07157987 -0.15581034 0.06852296 0.122253165
000040 96 5a b7 bd 5f 51 c9 3d 40 86 e4 3d 17 e7 7b 3c
       -0.08952825 0.098299734 0.11158419 0.01537492
000050 9d 19 95 3e 11 cc d1 bb 7b a9 8c bb 6b 5a 17 3c
       0.29121104 -0.0064025004 -0.0042926646 0.009237866
000060 ae de a7 bd 00 76 b4 3d bd d3 3c 3e ed 0d a3 bd
       -0.0819677 0.08811569 0.18440147 -0.079616405
000070 8c 62 cc 3c 12 cd 2e 3e 86 bb 80 bb b7 65 60 bd
       0.024949335 0.17070416 -0.0039286045 -0.054784503
000080 25 2b 1a 3e b2 44 cc 3d 86 12 2e 3e af 61 a2 bc
       0.15055521 0.0997404 0.16999254 -0.01982197
000090 7b 86 27 bc d4 c6 1e 3e f3 ee c5 bb 3c e1 fa 3c
       -0.010224934 0.15505534 -0.006040448 0.030624978
0000a0 22 2f 53 3d a3 09 f6 bc fc 6c 41 3b 75 8a 0a 3d
       0.05155862 -0.030033892 0.0029514423 0.03382345
0000b0 3c bb a6 3d 5a 45 5c 3e 3a fa fd 3d 6b 17 2d 3d
       0.08141181 0.2151083 0.124012426 0.04225866
0000c0 a5 77 cc 3d bc e3 87 3c b7 12 7b 3e 62 e6 f7 3d
       0.09983758 0.016588084 0.24518858 0.12104489
0000d0 32 e9 dc 3d 73 16 8f bd d1 d1 ba bd 4c 71 d5 bc
       0.10786666 -0.06986704 -0.091220506 -0.026055
0000e0 de 6f 5c bc b4 20 2b bd fa c8 d1 bd ea 54 8b bb
       -0.013454406 -0.041779235 -0.10243411 -0.004252066
0000f0 bc e6 9e 3b cb 75 34 bd f7 82 19 3e 28 10 88 3c
       0.004849283 -0.04405765 0.14991365 0.016609266
000100 c9 75 0d 3e 23 ca d5 3d 8a 7d 99 3d 01 00 40 3e
       0.13814463 0.10438945 0.07494648 0.18750001
000110 c3 ec 2d 3e aa f1 1b 3d 80 c8 0c be 05 4f f5 3d
       0.16984849 0.038072266 -0.1374836 0.119779624
000120 fa 37 3e 3d 4d db 5b 3d db 0d 51 3d 83 59 9c bd
       0.046440102 0.05367594 0.051038604 -0.076342605
000130 3c a8 fc 3d ad a9 56 3d 7d 1b 1e 3e 16 8e 4a 3e
       0.12336776 0.05240791 0.15440173 0.19780764
000140 6d 1f 38 3e 44 5c cc bc ef 04 a0 bd 6c e2 09 bc
       0.17980738 -0.02494634 -0.07813441 -0.0084158
000150 87 78 8e 3d a7 01 0b 3b 80 53 9e 3c 51 c1 a1 3d
       0.069565825 0.0021210702 0.019326925 0.078982
000160 f3 55 51 ba 44 5d 12 3e 06 19 28 3e 83 55 fd 3d
       -0.0007985525 0.1429339 0.16415796 0.12369826
000170 ff 69 dc 3d 47 d5 19 bc c6 15 78 3d 73 0d 3e bd
       0.10762405 -0.009389228 0.06056764 -0.046399545
000180 26 88 60 3d c8 78 df 3d 6d 1a 11 3e 90 5e a8 bc
       0.05481734 0.10911709 0.14170237 -0.020552903
000190 2d b5 1c 3b d3 75 79 3e 09 ff c0 3d 46 c7 85 bd
       0.00239117 0.24361353 0.09423644 -0.06532149
0001a0 92 52 be 3c dd 2a d4 bd e8 cc 03 3e d1 79 94 bd
       0.023232732 -0.10359738 0.12871134 -0.07249797
0001b0 d7 14 2f bd b3 44 41 3d 63 7e 9c 3e 79 07 e9 3c
       -0.042744484 0.047184657 0.30565175 0.028445946
0001c0 bc cb 72 bc 25 37 18 bd f2 35 e1 3b af cc 51 bc
       -0.014819082 -0.037161965 0.006872886 -0.012805148
0001d0 1e 60 72 bd f5 79 5a bc a1 b7 31 3e 4e df 98 3d
       -0.059173696 -0.013334741 0.17355205 0.07464467
0001e0 e9 66 04 bd dc 01 2b 3e 9a 74 6c 3e fe 1c c9 3d
       -0.032324705 0.16699928 0.23091355 0.09819983
0001f0 5a 43 e9 3d 1c 6e 8f bc 0e 8f 5d 3e b1 18 4a 3e
       0.113897994 -0.017508559 0.21636602 0.19735982
000200 69 78 37 3c 64 b8 99 3e 1c c7 61 3e 21 54 06 3d
       0.011198142 0.3002349 0.2204861 0.032795075
000210 23 20 9d 3d 05 69 f6 bb 24 1f 16 bb 5e 0c 22 bd
       0.07672145 -0.0075198435 -0.0022906745 -0.039562576
000220 bc 2b 97 bd 12 4f 2d 3d a7 25 a7 bd 2d 8f 47 3e
       -0.073813885 0.042311735 -0.081614785 0.19488211
000230 e8 67 7f 3e 01 fc 3d 3d 0c 60 d9 bd 4f b1 3f 3d
       0.24941981 0.046382908 -0.106140226 0.046799954
000240 e2 3d 15 3d 33 89 47 3d e7 a3 aa 3c c9 07 39 3e
       0.03643597 0.048714828 0.020830108 0.18069376
000250 6d e9 87 bc 98 26 e9 3d 0a 5e a1 bd 7e fe 94 bd
       -0.016590798 0.11384314 -0.07879265 -0.07275103
000260 2f 0b 9a 3c e5 c1 48 bd 22 ab 5d 3d 2e b2 26 3e
       0.01880416 -0.049013037 0.054118283 0.16278908
000270 31 aa 18 bd ef 5a e5 3d cd 87 8c 3e 74 89 ed bd
       -0.037271682 0.11198985 0.27447358 -0.11598483
000280 b1 5f ab 3b 49 4f 62 bd b8 74 ee bc 76 2c 34 3d
       0.005229913 -0.055251393 -0.02910839 0.043987714
000290 9f b5 9d 3d 2a 0d 95 3c 71 7e 89 3c 24 e7 71 bd
       0.07700657 0.018194754 0.016783925 -0.059058324
0002a0 24 18 c1 3d 0e 2a 6b 3b 6b 6a 5a 3e fb d6 e9 3d
       0.094284326 0.003588322 0.21329658 0.114179574
0002b0 77 cf 8f 3e 95 83 bd 3d cf ad b6 bd 75 85 3d bd
       0.2808797 0.09253613 -0.0891987 -0.046269853
0002c0 0c b4 0a 3e e6 25 c6 bc 4f 63 48 3e a6 59 8d 3d
       0.13545245 -0.024187993 0.19569133 0.06901865
0002d0 38 f7 4a 3e da 3d 65 bd c6 94 40 3d 68 42 e1 3d
       0.19820869 -0.05596719 0.04701688 0.10998994
0002e0 4f d3 ea 3d 31 48 f3 3d 26 39 42 3d 32 54 2f bd
       0.11466085 0.11879004 0.047417782 -0.042804904
0002f0 e7 9a 45 3e 8d a4 32 be 6d ab 6c bd 62 57 39 be
       0.19297372 -0.17445584 -0.057780672 -0.1809974
000300 9f f9 28 bc 00 6c 5b bc 6a 70 2d 3e a3 79 4e bd
       -0.010313421 -0.013392448 0.16937414 -0.05040897
000310 4b 7e 7d 3c 9a 72 ba bb 7c af 8a bd 7f f6 d3 3d
       0.015472005 -0.005689931 -0.06771752 0.1034975
000320 8a 3b fa 3d 17 77 6f bc 59 ac f2 3d 47 83 52 3e
       0.122183874 -0.014615796 0.11849279 0.20557891
000330 85 12 b4 3d 22 99 9e 3d fb d1 02 3d e7 a5 4a bd
       0.08792595 0.077440515 0.031938534 -0.049474623
000340 26 7b eb 3c 55 84 9a bb 4e 85 06 3e 5d 8c 33 bc
       0.028745245 -0.0047154822 0.13136789 -0.010958758
000350 4f bd 34 bd f5 b4 b9 3d 8a 16 33 3c 32 7f 9a 3d
       -0.04412585 0.09067718 0.010930667 0.07543792
000360 d2 ce 0a 3e 35 d0 ba 3d 9e 4a d7 bd 8d 0a ab 3c
       0.13555458 0.091217436 -0.10512279 0.020879054
000370 f5 f0 ee 3d f6 24 dc 3c 6e a4 95 3e cf 19 5d 3e
       0.11667053 0.026873093 0.29227012 0.21591876
000380 e9 91 78 3e 5e be 16 bd 42 04 8d 3d ea bb 88 bc
       0.2427441 -0.036802642 0.06885578 -0.016691167
000390 fa 26 f7 3d a7 fe 1c bc 96 45 db 3d fa 57 0f 3e
       0.12067981 -0.009582198 0.10706632 0.13998404
0003a0 20 0d 61 3e 57 f6 6b bc db 56 b3 bc f8 3a eb bd
       0.21977663 -0.014401994 -0.021892002 -0.11485857
0003b0 00 8f 87 3d 87 d9 0d 3d fe 70 4e 3c 76 02 00 bd
       0.06619072 0.03463128 0.012600182 -0.031252347
0003c0 48 7c 88 3e 2f 47 9f 3d 1e 4e 40 bc 49 1f fa 3d
       0.2665732 0.07777249 -0.011737375 0.122129984
0003d0 c6 13 98 3d e4 df 4e bd f2 77 34 bb 38 62 18 3e
       0.074256465 -0.050506487 -0.0027537313 0.14881217
0003e0 25 9c 41 3e 2a 86 11 3e 80 c3 8b 3c 01 74 37 3e
       0.1890722 0.14211336 0.017060995 0.17915346
0003f0 c6 0e 32 3d cc 63 43 3d 08 a6 55 3a b2 32 a3 bc
       0.04347112 0.047702596 0.0008150046 -0.019921634

weight f4 [10, 256]
000000 2f 56 ac 3c 89 a2 ab bc f4 14 d4 3c d8 1b af bc
       0.02103719 -0.020951526 0.025888897 -0.021375582
000010 ef 6e 07 be 15 d6 0c bc ca 0e bc ba d2 9b fc 3d
       -0.13225912 -0.008595963 -0.0014347669 0.12334408
000020 ed f4 78 bd f5 ac 6b bb 09 99 ae 3a d3 64 25 bd
       -0.060780454 -0.0035961245 0.0013320755 -0.040379357
000030 7b 16 8f bc 90 e6 40 bd 51 9e 26 bd d5 18 94 bd
       -0.017466774 -0.04709488 -0.040678326 -0.07231299
000040 b6 56 8e bd f6 49 80 bd 40 b4 9d bd 97 47 00 ba
       -0.069501325 -0.06264107 -0.077003956 -0.000489348
000050 b9 04 ad 3c c9 1a 12 bd e3 7e ac 3d af c9 9d 3d
       0.021120416 -0.035670076 0.08422639 0.07704484
000060 e1 71 b0 bd 8b c9 97 3d 7e 42 a1 bd 79 25 5c bd
       -0.08615471 0.07411488 -0.078740105 -0.053746674
000070 74 cd 56 3d b7 59 37 bc ab 04 6c 3c 0e 9a 95 bd
       0.05244203 -0.011190823 0.01440541 -0.07304774
000080 8c 40 30 3d d5 b3 89 3d 96 65 57 bd 03 cd 93 bb
       0.043030307 0.06723753 -0.052587114 -0.0045105233
000090 67 a6 b4 bd 4d 6a 88 3c 13 23 0e 3d 90 b6 0f be
       -0.08820801 0.01665225 0.034701418 -0.14034486
0000a0 d6 b9 22 3b c9 ca 06 bd 77 83 95 bc 35 42 ef 3d
       0.0024830005 -0.032908235 -0.018251164 0.1168255
0000b0 03 95 a6 bd 71 65 19 be 23 d7 7b 3d f1 f8 cf 3d
       -0.081338905 -0.14980103 0.061484467 0.10154904
0000c0 5c a0 9d 3c 76 4e 40 3d cb 61 7a 3c a6 68 2d 3d
       0.019241504 0.046949826 0.015282105 0.04233613
0000d0 83 79 1b 3b dc 13 c5 bc d5 61 dd bd 2c bc a9 bd
       0.002372355 -0.024057321 -0.108096756 -0.08287844
0000e0 60 4a e6 bc 48 dd a5 ba 58 5f 9a bd 9d bf a2 bd
       -0.028111637 -0.0012654448 -0.075377166 -0.079467036
0000f0 24 0d fd bd 1e 0e fa 3c e1 ee 58 3d 97 3a a3 bd
       -0.12356022 0.03052431 0.052962188 -0.079701595
000100 ac 69 0f 3d d5 fd 9c bd ae 2f e6 3c d0 b6 85 bd
       0.035012886 -0.07665602 0.028098907 -0.06529009
000110 6f bb 7b 3b 9d 03 d8 bd 77 1e 9a bb d7 ec 8f 3d
       0.003841128 -0.10547564 -0.0047033387 0.070275955
000120 e3 19 6b 3c e7 05 6f 3d ce 90 6c 3c dc 69 0a bd
       0.014349434 0.05835524 0.014438821 -0.03379236
000130 88 9a 9d 3d 02 4d cf 3c c8 c2 a3 bd 1a 1c ab bc
       0.0769549 0.025305275 -0.07996136 -0.020887423
000140 29 08 aa bc cc 75 f2 bc 2e 53 15 bd f8 8a a0 bb
       -0.020755844 -0.029597186 -0.03645628 -0.004899379
000150 e7 3a 1d bc bc 45 6b 3c 44 65 5d bd fa e7 bf bd
       -0.009596563 0.014359888 -0.054051653 -0.09370418
000160 40 8f f0 bd 7a 43 92 bd a3 27 5e 3d ac 56 ae 3c
       -0.11746073 -0.071417764 0.05423702 0.021281563
000170 66 19 1d 3d ac 3f 9c 3d 2e 0f 93 bd a4 ae 28 bd
       0.0383543 0.07629332 -0.0718063 -0.041182175
000180 eb 3d 10 3d 56 f8 09 3d 69 0e 67 3d e0 4f c2 bb
       0.0352153 0.033684097 0.056410227 -0.005929932
000190 67 42 ec bd 14 e6 1b 3c 16 48 c0 bd 94 9b 46 bc
       -0.11536103 0.009515304 -0.09388749 -0.012122054
0001a0 32 0a d7 3c 2d 86 9e 3d 97 05 db 3c 4e 1d 6f 3b
       0.026249979 0.07740436 0.026736064 0.0036485973
0001b0 54 54 a9 3b c5 31 3b bd 4d 39 c5 3c ce ca 0a bd
       0.0051675234 -0.04570176 0.024075175 -0.033884816
0001c0 cf 82 bf bc 4f 3c b2 bd 19 aa 1a 3c 07 e2 4f bd
       -0.023377804 -0.08702909 0.0094399685 -0.050752666
0001d0 1d 43 26 3d ec e8 e2 3c 89 5e 9e bd e9 a9 42 bd
       0.040591348 0.027698956 -0.07732875 -0.04752532
0001e0 d1 ad 80 3c 58 7f 0b be 4f e9 83 3d 5b 86 ae 3d
       0.015707882 -0.13622797 0.064409845 0.0852172
0001f0 6c 7e c7 bc 9f 02 0c 3d 3d dc c7 3d 44 8c b4 3c
       -0.024352275 0.034182187 0.09758804 0.02203954
000200 88 8a d3 ba b1 8e 85 bd 62 89 74 3d b3 73 24 3c
       -0.0016139308 -0.06521357 0.05970133 0.0100373505
000210 af 43 9d 3d ef 4c fb bd 88 ae ad 3d b1 7d 82 bd
       0.07678925 -0.12270533 0.08480555 -0.0637163
000220 d9 d1 d5 3c 2a 78 eb 3c 98 7f 81 bc ba 2a 7c 3b
       0.02610104 0.028743822 -0.015807912 0.0038477615
000230 08 7e eb bd 03 a9 5c bd 12 6e 0c be 93 0b 00 be
       -0.11498648 -0.05387212 -0.13713863 -0.12504415
000240 3a 73 9b 3d 9c 1c fa bd f8 0b 7e 3d be 42 ad bd
       0.07590337 -0.12212488 0.062023133 -0.08459996
000250 b0 e7 c5 ba 66 de bf 3b 03 4a 47 bd 16 1b 87 3c
       -0.0015098955 0.0058553694 -0.048654567 0.016492408
000260 9b e2 a2 bd 6e 86 94 bd 9f 7b 6f bd 1c e3 93 3d
       -0.07953378 -0.07252203 -0.058467504 0.07221052
000270 7c 99 b9 3c bc e0 ac 3b 4d e5 06 be bd 89 c8 bc
       0.022656195 0.005275814 -0.13173409 -0.024479741
000280 6d a3 ea 3b eb b2 b6 3d 34 fa 10 bd fb 56 c6 3c
       0.007160595 0.08920845 -0.035394862 0.024211397
000290 0b 7b 2a bc a2 fa 8d 3b 43 fa cf 3c 54 f5 a3 bc
       -0.010405312 0.0043328563 0.025387889 -0.020014443
0002a0 1d 5a 0c 3d 7d 23 20 3d 2f f7 cd 3d d1 47 f9 3c
       0.034265626 0.039096344 0.10056912 0.030429753
0002b0 b5 05 39 be 55 ea d8 bd 20 71 87 bd 85 a0 c1 bc
       -0.18068583 -0.1059157 -0.06613374 -0.023636112
0002c0 f6 1e 8f bd e2 75 37 bd 12 80 e8 bd f3 d9 c5 bd
       -0.06988327 -0.044790156 -0.113525525 -0.09660711
0002d0 39 c3 f2 bd 78 53 35 bc fb ff 15 bd 5b 45 76 3d
       -0.11853642 -0.011067264 -0.036621075 0.060124736
0002e0 33 4b 6a 3d 05 13 10 3d 02 e0 a9 bd 27 f7 f3 3c
       0.05720062 0.03517439 -0.08294679 0.029780937
0002f0 58 7f 95 3d fc 7b ea bc 53 24 f3 bc ee 90 2b 3d
       0.072996795 -0.028623573 -0.029680407 0.041886263
000300 0e df b1 bd b8 34 30 bc 5e a7 0d 3d 7a a8 8b bd
       -0.086851224 -0.010754757 0.034583442 -0.06819244
000310 5c d1 b4 3d c2 59 2e bd 93 64 7b bd 21 91 ac bd
       0.08828995 -0.04256607 -0.061375212 -0.08426119
000320 a4 85 79 bd e3 64 af bd 21 7c 62 3d 9f 97 e3 bd
       -0.060918465 -0.085641645 0.05529416 -0.11112904
000330 b5 77 25 3d ed 79 96 3b de c7 48 3d 87 2f 6f bd
       0.040397365 0.0045921714 0.049018733 -0.058394935
000340 fc 56 44 3b c0 fc b4 bd f8 32 22 bd ea d7 b6 3c
       0.0029959073 -0.08837271 -0.03959939 0.022319753
000350 3a b4 05 3d bd 0c 1d bd ae 97 25 3d 0d 2a aa bb
       0.03264258 -0.038342226 0.040427856 -0.005193001
000360 fc dc bc 3d e0 95 8c 3d c2 a1 53 bd a2 b6 fe bc
       0.09221837 0.06864524 -0.051667936 -0.031092945
000370 17 66 16 3c ef 90 ab be 44 0b 92 3c f3 d4 94 3d
       0.009179614 -0.33509013 0.017827637 0.07267179
000380 60 d7 49 3d 88 9e 60 bd 9c 61 13 3d 85 67 a4 bd
       0.049277663 -0.054838687 0.03598176 -0.08027557
000390 f8 e3 06 be 82 dc 80 3d ee b5 7e 3d d3 d5 8e 3c
       -0.131729 0.062920585 0.06218522 0.017435944
0003a0 a5 5a 3f 3d 61 8a 0a bc 55 32 04 bc d7 35 16 be
       0.046717305 -0.008455844 -0.008068641 -0.14668976
0003b0 dd a0 36 bd b5 02 05 bd 67 9a 8d 3c 81 37 14 bc
       -0.044587005 -0.032473285 0.017285539 -0.009046436
0003c0 86 fc 20 3e 46 34 a6 bd 6d b4 14 bd 29 ef 05 bd
       0.1572133 -0.08115439 -0.03630488 -0.032698784
0003d0 b5 70 4a 3d 43 b8 fd 3c fa 08 d1 bb f4 96 79 bd
       0.049423892 0.030971652 -0.006379244 -0.060934976
0003e0 3e fa e9 bd a3 6e 8f 3d 92 2b 82 3d 4a 40 8c 3c
       -0.11424683 0.07003524 0.06355967 0.0171205
0003f0 2f c0 2d 3c e8 4a cf 3d 40 f8 c3 3a 62 0a 54 3b
       0.010604902 0.10121709 0.0014951304 0.0032354821

bias f4 [10]
000000 89 ca 73 3c 51 c2 a5 bd c1 7b a4 3d e4 5d a8 3d
       0.014879831 -0.080937035 0.08031417 0.08221033
000010 60 f5 de bd b1 04 d1 3d c1 7b cb 3d ea ad d2 3b
       -0.10886645 0.10205973 0.099357136 0.0064294236
000020 ed 58 ab bc f4 bf 01 be
       -0.020916427 -0.1267088
