2-hypertuning-mlflow/models/20250926-1529model.pt (torch, 877465 bytes, 6 tensors)

weight f4 [256, 784]
0	0x3a863ff2	0.0010242446
1	0x3ab42546	0.0013744019
2	0x3d31392b	0.04326741
3	0x3c5893bf	0.013218819
4	0xbc34840d	-0.0110178115
5	0xbd6632bf	-0.05620074
6	0xbe250d6b	-0.161184
7	0xbdfbc24a	-0.12292917
8	0xbdc0e1e9	-0.09418089
9	0xbd97adae	-0.07406174
10	0xbd71d4d2	-0.059040852
11	0xbdba0296	-0.090825245
12	0xbb967d64	-0.0045925844
13	0xbb9f97f6	-0.00487041
14	0x3b983fc5	0.004646274
15	0xbc29b3af	-0.010357781
16	0xbd61cf64	-0.055129424
17	0xbd8442c5	-0.06458048
18	0xbd3dda6d	-0.046350885
19	0xbdc6d8dc	-0.097093314
20	0xbe19ca0c	-0.15018481
21	0xbe3354cc	-0.17512816
22	0xbdd7757b	-0.105204545
23	0xbb64774e	-0.003486115
24	0xbc1f59df	-0.009726017
25	0x3b6c7f0d	0.003608647
26	0xbd154193	-0.03643949
27	0x3c1e0799	0.009645366
28	0x3b51e772	0.0032028821
29	0xbb25558b	-0.002522799
30	0x3cc7f165	0.024407098
31	0x3c15a228	0.009132899
32	0xbaf82029	-0.0018930483
33	0xbb8e9ee7	-0.0043524387
34	0x3c00dc46	0.007865017
35	0x3cc158c4	0.023601897
36	0xbca7964c	-0.02045741
37	0xbd02a229	-0.03189293
38	0xbd8b5a71	-0.0680436
39	0x3cfc9456	0.03083245
40	0x3d999928	0.07499915
41	0x3d0f92c1	0.035052065
42	0x3c2f1239	0.010685497
43	0x3d76853c	0.060185656
44	0x3d18f16f	0.037339624
45	0xbd641885	-0.055687446
46	0xbd1d1752	-0.038352318
47	0xbd8d847c	-0.06910035
48	0xbcbe0ee9	-0.02320047
49	0xbd7fe8aa	-0.062477745
50	0xbd7f92d3	-0.06239588
51	0xbcedef66	-0.029044818
52	0xbcd741f1	-0.02627656
53	0xbd6066a3	-0.054785382
54	0xbd32f7a8	-0.043693215
55	0xbc6a3df0	-0.014296994
56	0xbd0dceb7	-0.034620967
57	0xbc16043e	-0.009156285
58	0x3d2b8474	0.041874364
59	0xbb96548a	-0.0045877146
60	0x3be0cb80	0.0068601966
61	0x3cfc5b8c	0.030805372
62	0x3dd33e17	0.10314577
63	0x3d3be3dd	0.045871604
64	0xbd29df88	-0.04147294
65	0x3c969e2c	0.01838597
66	0x3c8e89b1	0.01739964
67	0x3a2031fa	0.0006110963
68	0x3db32acd	0.08748398
69	0x3d9cd890	0.076584935
70	0x3dd4ec98	0.10396689
71	0x3dd08835	0.101822294
72	0x3d91c58c	0.07117757
73	0xbbda7702	-0.006667019
74	0xbcd2b045	-0.025718817
75	0xbd48d9bb	-0.04903577
76	0xbd80c3a3	-0.06287315
77	0x3d6ef692	0.058340617
78	0x3d673713	0.056449007
79	0xbccb4e7c	-0.024817698
80	0xbc9e4835	-0.01932154
81	0xbd28960a	-0.041158713
82	0xbd9fd419	-0.07804126
83	0xbd8935f9	-0.066997476
84	0xbcf11458	-0.029428646
85	0xbc045a1d	-0.008078125
86	0x3c21f299	0.0098845
87	0x3d671b5c	0.056422576
88	0x3d2d262a	0.042272724
89	0x3d6bf787	0.057609107
90	0x3d7dddb0	0.061978996
91	0x3d0751cc	0.033036992
92	0x3cdcf2e6	0.026971292
93	0x3d2817c7	0.0410383
94	0x3ceb7921	0.028744282
95	0x3c9a03a5	0.018800566
96	0x3d70c11d	0.058777917
97	0x3d826a89	0.06367976
98	0x3d1fc27b	0.03900383
99	0x3d3766ee	0.044775896
100	0x3bead5e0	0.007166609
101	0xbbd14d37	-0.0063873786
102	0xbcee6acd	-0.029103661
103	0x3d09c4f7	0.033635106
104	0xbc09982c	-0.008398097
105	0xbc188099	-0.009308004
106	0x3d6c9057	0.05775484
107	0xbcaa1066	-0.020759773
108	0xbd9db4d1	-0.077005036
109	0xbd46a20a	-0.048494376
110	0xbd1ecd13	-0.038769793
111	0xbce6e750	-0.02818647
112	0xbcc88ab2	-0.024480198
113	0xbc7a8023	-0.015289339
114	0x3cfc4900	0.030796528
115	0x3d84163e	0.06449555
116	0x3cdf9795	0.02729396
117	0x3d71755e	0.05894982
118	0x3d3fd186	0.046830676
119	0x3cddc82e	0.027072992
120	0x3c236769	0.009973385
121	0xbbcedee3	-0.0063131913
122	0x3cbb7da4	0.022887059
123	0x3cc552ec	0.024087392
124	0x3cd2d85c	0.025737934
125	0xbc1b0410	-0.009461418
126	0x3c67223b	0.014107282
127	0x3d147280	0.03624201
128	0xbbedeecc	-0.007261133
129	0x3b3983c9	0.002830731
130	0xbc788969	-0.01516948
131	0xbc97bf3a	-0.018523801
132	0x3c8d4238	0.01724349
133	0xbb46274b	-0.0030235823
134	0x3cb12aca	0.021626849
135	0x3b9dbf88	0.004814092
136	0xbd3642f5	-0.04449745
137	0xbd15e213	-0.036592554
138	0xbdcc9056	-0.099884674
139	0xbd68ed67	-0.05686703
140	0xbd5d936e	-0.054095678
141	0xbc8badc2	-0.017050628
142	0x3cfcef0b	0.030875703
143	0x3d883cee	0.066522464
144	0x3d523121	0.051316384
145	0x3d5467ad	0.051856685
146	0x3c0bb508	0.008527048
147	0xbc4ab7ed	-0.012372953
148	0x3cc622f9	0.024186598
149	0x3ce12c1d	0.027486855
150	0xbcb99518	-0.022654101
151	0xbcf3e7ec	-0.029773675
152	0xbc076e23	-0.008266005
153	0xbaa07e9d	-0.0012244765
154	0xbc31417e	-0.010818837
155	0xbcb75836	-0.02238093
156	0xbd15fd4e	-0.036618523
157	0xbd2f54ee	-0.042805605
158	0xbd1c0e58	-0.038099617
159	0x3c393ef9	0.011306518
160	0xbd07264c	-0.032995507
161	0x3c8e0045	0.017334113
162	0x3b1dd051	0.0024080465
163	0xbb200d17	-0.0024421865
164	0xbc12f350	-0.008969143
165	0xbca7661a	-0.020434428
166	0xbd6ce9e1	-0.05784023
167	0xbd827db2	-0.06371631
168	0xbd25a390	-0.04043919
169	0x3cd46aa3	0.025929755
170	0x3d2a33b0	0.0415532
171	0x3d5d1afd	0.053980816
172	0x3bfc6f74	0.007703716
173	0x3d6de562	0.058080085
174	0x3ccb2386	0.024797212
175	0x3d57863d	0.052618254
176	0x3cff43a4	0.031160183
177	0xbd092faf	-0.03349274
178	0xbd3d3937	-0.046197142
179	0xbd01968a	-0.031637706
180	0xbce9a232	-0.028519724
181	0xbb8dd529	-0.004328389
182	0x3c3ae30c	0.011406671
183	0x3c2e3e7c	0.010635015
184	0xbc1cb23b	-0.009563978
185	0xbd422717	-0.04740056
186	0x399c3016	0.00029790465
187	0xbd495300	-0.04915142
188	0xbd1a0f1a	-0.03761206
189	0x39fd1b64	0.00048276328
190	0x3bf3986a	0.0074339407
191	0x3d2047d5	0.039131004
192	0xbc746be9	-0.014918306
193	0xbd8a48ac	-0.06752142
194	0xbd26a341	-0.040683035
195	0x36f031a4	7.1583363e-06
196	0xbbbf2a8c	-0.0058339294
197	0xbccbc975	-0.024876336
198	0x3bd71f12	0.006564983
199	0x3d1dd753	0.038535427
200	0xb9d5668b	-0.00040702926
201	0x3c0b8c2f	0.008517309
202	0x3d69143f	0.056904074
203	0x3bd5bc08	0.006522659
204	0x3cd844a9	0.026399927
205	0xbc1ba941	-0.0095008025
206	0x3c0e3ed7	0.008681974
207	0xbcca5174	-0.024697043
208	0xbc8b2674	-0.01698611
209	0x3c85ba91	0.016324313
210	0x3cc0ada0	0.02352029
211	0xbd0c75ed	-0.03429215
212	0xbcad02ae	-0.021119442
213	0xbcd21318	-0.02564387
214	0xbd350aa0	-0.044199586
215	0xbd28778d	-0.041129638
216	0xbce2c63b	-0.027682414
217	0x3b472db9	0.0030392243
218	0x3adeda94	0.0017002397
219	0x3cc68c75	0.024236897
220	0xbc74d946	-0.01494438
221	0xbce02de4	-0.027365632
222	0x3cdd9286	0.027047407
223	0x3d38c8f1	0.045113508
224	0xba803ac5	-0.000978314
225	0x3a30750a	0.00067313074
226	0x3d3f92a1	0.046770696
227	0x3d163341	0.036669973
228	0x3b9b92d3	0.0047477274
229	0x3c1856dc	0.009298053
230	0x3bed7574	0.0072466675
231	0x3d927a74	0.07152262
232	0x3d3ce819	0.046119783
233	0x3d6f2ff0	0.058395326
234	0x3d495489	0.049152885
235	0x3ccbbcbe	0.024870273
236	0x3ccdcdda	0.025122572
237	0xbad69cd2	-0.001637364
238	0x3b79ec6a	0.0038135299
239	0xbd4ee642	-0.05051256
240	0xba468948	-0.0007573557
241	0xbd1978a0	-0.037468553
242	0x3ce6c4e9	0.028170066
243	0xbca51e58	-0.02015607
244	0x3ca9ab23	0.020711487
245	0x3c339a68	0.010962106
246	0x394264c7	0.00018538824
247	0x3ce845d6	0.028353613
248	0xbd490e2a	-0.049085774
249	0xbd8056c0	-0.06266546
250	0x3cf2a826	0.029621195
251	0xbada5022	-0.0016655962
252	0xbc011c9a	-0.007880354
253	0x3d7c5b72	0.061610647
254	0x3c2c5f27	0.010520733
255	0x3cb167e8	0.021655992

bias f4 [256]
0	0xbc340855	-0.010988315
1	0x3e712e46	0.23552808
2	0x3ccea65b	0.025225809
3	0xbcf78cd6	-0.030218523
4	0x3d72cdc3	0.05927826
5	0xbe14781d	-0.14498945
6	0xbd98c6e9	-0.07459814
7	0x3d2195ee	0.039449625
8	0xbd0001df	-0.031251784
9	0x3b3e2c8c	0.0029018251
10	0x3c37ecc1	0.01122588
11	0x3ce0ca2f	0.027440159
12	0xbdd7dd7c	-0.10540292
13	0x3ca21977	0.019787533
14	0x3e1d6a45	0.1537257
15	0x3e7dbdca	0.2477943
16	0x3c80611a	0.015671302
17	0xbdb2b30e	-0.08725558
18	0xbdce1262	-0.100621
19	0x3df8035a	0.12110014
20	0xbd1d4814	-0.038398817
21	0xbdc04a5d	-0.09389184
22	0x3de5f456	0.11228244
23	0xbcb09fc9	-0.021560566
24	0xbd93161b	-0.07181951
25	0x3def38a0	0.11680722
26	0xbd0000a3	-0.031250607
27	0x3d391cff	0.04519367
28	0xbcdb25b8	-0.026751384
29	0x3d533a4e	0.051569276
30	0xbda93ea1	-0.08263899
31	0xbdcdc224	-0.10046795
32	0x3d59eb48	0.053202897
33	0xbd857974	-0.06517306
34	0xbcc4be96	-0.02401666
35	0x3dad796f	0.08470427
36	0xbba3a436	-0.0049939407
37	0x3e467544	0.19380671
38	0xbd9a52b4	-0.075353056
39	0xbd5b129b	-0.05348454
40	0x3d415223	0.047197472
41	0xbb8914dc	-0.004183395
42	0x3db10939	0.08644337
43	0xbd585fd0	-0.05282575
44	0x3d3655bf	0.044515368
45	0x3d58d5f4	0.052938417
46	0x3d925a58	0.07146138
47	0xbc795539	-0.015218073
48	0x3d82368e	0.06358062
49	0x3dc33266	0.09531097
50	0xbc1356db	-0.008992876
51	0xbcb4b11f	-0.022057114
52	0x3d8f370b	0.069929205
53	0x3e38b52f	0.18037866
54	0x3e2177e0	0.15768385
55	0x3a7f300e	0.0009734639
56	0x3d2373f5	0.039905507
57	0x3d9e3310	0.07724583
58	0xbd472696	-0.048620783
59	0x3ce1cb19	0.027562665
60	0x3dea1f2b	0.11431726
61	0x3cd5256c	0.02601882
62	0xbdf45939	-0.1193108
63	0x3dd04c56	0.1017081
64	0x3da1427a	0.078740075
65	0x3e101ee2	0.14074281
66	0xbe1d891f	-0.15384339
67	0xbdf52687	-0.11970239
68	0xbd7fbc74	-0.062435582
69	0x3d0ef994	0.034905985
70	0x3b79739c	0.0038063293
71	0x3d8cfef2	0.068845645
72	0xbd3c3f48	-0.045958787
73	0x3e07bb5b	0.13255064
74	0x3e212015	0.15734895
75	0x3b22b133	0.0024824857
76	0xbd18d43a	-0.03731177
77	0x3d25e298	0.0404993
78	0xbb843c1e	-0.004035487
79	0x3e18083d	0.14846893
80	0x3e48e210	0.19617486
81	0x3df63e6c	0.12023625
82	0x3e2b925e	0.16755053
83	0x3d652880	0.055946827
84	0x3e348b0f	0.17631172
85	0xbd8432ce	-0.06455003
86	0x3e1b5bc2	0.15171722
87	0x3e1399df	0.14414166
88	0x3db527f7	0.08845513
89	0xbd7d94a0	-0.061909318
90	0x3a3cf07b	0.0007207465
91	0x3de7bebd	0.11315677
92	0xbd22589a	-0.03963528
93	0xbd623358	-0.055224746
94	0x3d586f4b	0.052840512
95	0xbcc24081	-0.023712398
96	0xbdc601d0	-0.096683145
97	0xbcdf2dcd	-0.02724352
98	0xbc06e83b	-0.008234079
99	0x3daf557e	0.08561228
100	0xbcf63e47	-0.030058993
101	0x3e750d09	0.23930754
102	0x3d0e162e	0.03468912
103	0xbdaf1e22	-0.08550669
104	0x3b91ace0	0.004445657
105	0x3d2a3d8b	0.0415626
106	0x3c14de7e	0.009086249
107	0xbc4ce2bb	-0.012505229
108	0x3c4a0e61	0.01233253
109	0x3cccb7c3	0.024989968
110	0x3e4d989c	0.20077747
111	0x3d8adfe8	0.06780988
112	0x3d4b6efa	0.049666382
113	0xbe0a7ec9	-0.13524927
114	0x3dcfa470	0.10138786
115	0x3bdcd1bb	0.006738869
116	0x3de7fb7a	0.11327262
117	0x3dc68d84	0.09694961
118	0xbc5d6466	-0.013512706
119	0xbd83f93a	-0.064440206
120	0x3e03c3a1	0.12867595
121	0x3d246146	0.04013183
122	0xbd419556	-0.04726156
123	0x3dab9a27	0.083790116
124	0x3dc46375	0.095892824
125	0x3c4b62a8	0.012413658
126	0x3d328a3c	0.04358886
127	0x3de14c1a	0.11000843
128	0xbc02ce12	-0.007983701
129	0x3e53b64e	0.20675012
130	0x3d6a8997	0.057260122
131	0xbd773c26	-0.060360096
132	0x3e006209	0.12537397
133	0x3d7a7752	0.06114895
134	0x3c29f208	0.010372646
135	0xbcbd3690	-0.023097306
136	0x3d093619	0.033498857
137	0x3e07d703	0.13265614
138	0x3de5c92e	0.112200126
139	0x3e0c60fb	0.1370887
140	0x3e014f07	0.12627803
141	0xbe284225	-0.16431482
142	0x3b6f96c3	0.0036558367
143	0x3c2bd1c2	0.010487022
144	0x3e5db05d	0.21649309
145	0x3d5b255b	0.05350242
146	0x3d791122	0.060807355
147	0x3d58659d	0.05283128
148	0xbcee58b3	-0.02909503
149	0x3e3766a9	0.17910255
150	0x3d57b2c7	0.05266073
151	0x3cffc927	0.031223847
152	0x3c973a56	0.018460434
153	0x3d732b25	0.059367318
154	0x3df41c91	0.11919511
155	0x3e0cabe5	0.13737448
156	0x3e1cc3ae	0.15309021
157	0xbd079673	-0.033102464
158	0xbc8cea52	-0.017201576
159	0x3d4170fe	0.0472269
160	0x3da1430e	0.07874118
161	0x3dc0c50a	0.09412582
162	0x3de2d8f0	0.11076534
163	0x3d8c4076	0.068482324
164	0x3e7c0d9e	0.2461457
165	0xbd18c906	-0.037301086
166	0xbd62df18	-0.05538854
167	0xbdb2d626	-0.08732252
168	0xbce6f7eb	-0.028194388
169	0x3db6d4ee	0.08927332
170	0x3d4c1bae	0.049831085
171	0x3e10d93b	0.14145367
172	0xbd114166	-0.03546276
173	0x3ca4af5d	0.020103151
174	0xbce00f3c	-0.027351014
175	0x3e5d64f8	0.21620548
176	0xbdeff0ef	-0.11715876
177	0xbcc0ce26	-0.0235358
178	0x3d9ad79c	0.075606555
179	0x3cf2d300	0.029641628
180	0x3cad7e0a	0.021178264
181	0xbc94e01f	-0.018173276
182	0xbd48078c	-0.048835322
183	0xbcaeec24	-0.021352835
184	0x3d38c90b	0.045113605
185	0x3cfb30d8	0.030662939
186	0xbbd9fd25	-0.0066524916
187	0xbc7d2cb8	-0.015452556
188	0x3e306d79	0.1722926
189	0xbda2970c	-0.07938966
190	0x3c50453b	0.012711818
191	0x3be34046	0.006935152
192	0x3db19328	0.08670646
193	0x3dc0fb23	0.094229005
194	0x3dddf654	0.10837999
195	0x3d0b4cb6	0.034008704
196	0x3c7f1776	0.015569558
197	0x3d0596bf	0.032614466
198	0xbca68422	-0.020326678
199	0x3df69b38	0.120413244
200	0x3c109309	0.008824118
201	0x3e02e34c	0.1278202
202	0x3e0f3ffb	0.1398925
203	0x3c92d030	0.017921537
204	0x3d4af17b	0.0495467
205	0xbdd6d320	-0.10489488
206	0xbdd279f1	-0.10277165
207	0xbe0a968a	-0.13533989
208	0x3d22e326	0.039767407
209	0x3e24ebbf	0.16105555
210	0x3e2d3316	0.16914019
211	0x3d846eff	0.06466483
212	0x3d2b8f45	0.04188468
213	0xbc740a64	-0.014895055
214	0x3e426a96	0.18985972
215	0x3cbaa768	0.022784904
216	0x3d523b77	0.05132624
217	0xbc0b4136	-0.008499434
218	0x3e1152fe	0.14191815
219	0x3dce979f	0.10087513
220	0x3d949d3a	0.07256551
221	0xbaf2af37	-0.0018515353
222	0xbd0cc1d0	-0.03436452
223	0x3c7f5642	0.01558453
224	0xbd19b15e	-0.037522666
225	0x3c136e2c	0.008998435
226	0xbd78bf11	-0.06072909
227	0xbd3da42f	-0.046299156
228	0xb93dfd20	-0.00018118741
229	0x3d6d7fef	0.057983335
230	0x3b04148c	0.0020153848
231	0x3d80599f	0.06267094
232	0x3d5f6e3d	0.05454849
233	0x3d7e13a5	0.062030453
234	0x3e2467c5	0.1605521
235	0xbcc0f997	-0.023556514
236	0x3d974138	0.07385486
237	0xbdd480dc	-0.103761405
238	0x3d98b618	0.074566066
239	0x3e118562	0.14211038
240	0x3dc8281b	0.097732745
241	0xbb51c1e0	-0.0032006428
242	0xbbe3ace8	-0.0069481023
243	0xbc5748b9	-0.013139897
244	0x3d96147c	0.07328126
245	0x3dffa40b	0.124824606
246	0x3d90fd72	0.07079591
247	0xbd78d284	-0.06074764
248	0x3dfe53fb	0.12418362
249	0x3d1a53b7	0.037677493
250	0xbcb30130	-0.021851152
251	0x3d6f5bf4	0.058437303
252	0xbd9ae12f	-0.075624816
253	0x3d952526	0.07282476
254	0x3d849b5b	0.06474944
255	0xbcb2039b	-0.021730235

weight f4 [64, 256]
0	0x3c8df490	0.01732853
1	0xbe071cfc	-0.1319465
2	0x3bc4e395	0.006008575
3	0xbdf7deaa	-0.12103017
4	0x3c98c73b	0.018649688
5	0xbcbf2a2f	-0.023335544
6	0xbcafa0ad	-0.02143892
7	0xbdd38776	-0.103285715
8	0x3d5775dc	0.052602634
9	0xa4a289e6	-7.048991e-17
10	0x3d6f1624	0.058370724
11	0x3cbbf91b	0.022945931
12	0x3971a232	0.00023043973
13	0xbd97b4f4	-0.07407561
14	0x3d379dae	0.04482811
15	0xbd99bcfa	-0.075067475
16	0xa4a63821	-7.208611e-17
17	0x3cc86003	0.024459844
18	0xbd57cc5b	-0.052685123
19	0x3d78bbbc	0.060725912
20	0x3b89028b	0.0041812113
21	0xbd59bd7e	-0.05315923
22	0x3d1b3efd	0.037901867
23	0xa5a60019	-2.8796476e-16
24	0x3d44baf7	0.048029866
25	0x3d3b8969	0.04578534
26	0x3c8aa30e	0.016923454
27	0xbc91587a	-0.017742384
28	0xbd22205b	-0.039581638
29	0x3d82a861	0.06379772
30	0x3cea49c1	0.028599622
31	0xbd7b5752	-0.061362572
32	0x3d5956c5	0.053061265
33	0x3be73d1e	0.0070568463
34	0x3b96da66	0.004603672
35	0x3dc9e7e7	0.09858685
36	0xbd25ebfa	-0.040508248
37	0x3d17e496	0.03708323
38	0x3c578c59	0.01315602
39	0xbd4315fa	-0.04762838
40	0xbc787536	-0.015164664
41	0x3d7a8e08	0.061170608
42	0x3df3b858	0.11900395
43	0xbd6b4fea	-0.05744926
44	0xbdc6506b	-0.09683307
45	0xbb741f1e	-0.0037249993
46	0x3d8030b3	0.06259289
47	0xbc30b77c	-0.010785934
48	0x3d3ca123	0.04605211
49	0x3cf34005	0.029693613
50	0xbc548587	-0.0129712885
51	0xa691448e	-1.0079978e-15
52	0xbd69848e	-0.05701118
53	0xbe1fc3bf	-0.15602015
54	0x3c6029e2	0.013681861
55	0xbdd72841	-0.10505725
56	0xbd5b0d3f	-0.05347943
57	0x3cf5313e	0.029930707
58	0x3c019e0a	0.007911215
59	0x3d21dfbd	0.039520014
60	0x3e017c2c	0.12645024
61	0x3d843c7b	0.06456848
62	0x3cfc6ec9	0.030814545
63	0x3dd16742	0.10224773
64	0x3d7dd659	0.061971996
65	0x3dc6d25e	0.09708093
66	0xbc45b99f	-0.012068181
67	0xbc7f5aee	-0.015585644
68	0xbd1be6ae	-0.03806179
69	0xbd2ac197	-0.041688528
70	0x3d5c88f6	0.053841554
71	0xbc4fabde	-0.012675254
72	0x3d966098	0.073426425
73	0x3d0bcc18	0.034130186
74	0x3b29c3e2	0.0025904109
75	0xbb60edb6	-0.0034321374
76	0x3cb01151	0.021492632
77	0x3d261d1c	0.040555105
78	0xbb6bf2d8	-0.00360029
79	0xbda58c35	-0.08083383
80	0xbdd38d8d	-0.10329733
81	0xbc943ca2	-0.018095318
82	0x3d4aeda4	0.049543038
83	0xbdbcbf65	-0.09216193
84	0xbd3317fb	-0.04372404
85	0xbdf43eeb	-0.11926063
86	0x3c9879c8	0.018612757
87	0x3da7fef1	0.08202923
88	0x3d69a96b	0.057046335
89	0x3d97af1a	0.07406445
90	0x3d2cdd8b	0.042203467
91	0xbcc3730b	-0.023858568
92	0xbd6cb6fe	-0.057791702
93	0xbcf00973	-0.02930138
94	0x3cd92997	0.02650909
95	0xbd6ead65	-0.05827083
96	0x3ce4d6cd	0.027934456
97	0xbc75e4ab	-0.015008132
98	0x3c8baa70	0.017049044
99	0xbda4147b	-0.08011719
100	0xbd0b01f3	-0.033937406
101	0xbc929215	-0.017891923
102	0x3cb951ee	0.022622075
103	0xbd6e0f90	-0.05812031
104	0x3c67b69a	0.014142657
105	0x3d554928	0.05207172
106	0x3d810812	0.063003674
107	0x240b70c0	3.0236323e-17
108	0xa4d7e318	-9.36261e-17
109	0xbda89c33	-0.08232918
110	0xbd113a1b	-0.035455804
111	0xbc5eebf8	-0.013606064
112	0x3c914c0f	0.017736463
113	0xbbf3ceb5	-0.007440413
114	0xbc51b0f9	-0.012798541
115	0xbd50be16	-0.05096253
116	0x3da0ecec	0.07857689
117	0x3d33d18f	0.043901023
118	0x3d53ba71	0.051691476
119	0x3d8be5ec	0.068309635
120	0x3d3d485a	0.046211578
121	0x3d4f9060	0.050674796
122	0x3cd49bcc	0.025953196
123	0xbd97f69f	-0.07420086
124	0x3bee4ca6	0.007272321
125	0xbbf4e647	-0.0074737403
126	0xbdd4adc6	-0.10384707
127	0x3b6aa384	0.003580303
128	0xbda1d584	-0.07902053
129	0xbdfb405a	-0.122681335
130	0xbc48c0ee	-0.012253029
131	0x3d645a8d	0.05575042
132	0x3bb15d9c	0.0054127704
133	0xbd8e6b14	-0.06954017
134	0xbd6bf6d4	-0.05760844
135	0x3d268f0d	0.040663768
136	0x3ca65d80	0.020308256
137	0x3ce05ee9	0.027389007
138	0x3d31c7ec	0.04340355
139	0x3d588228	0.0528585
140	0x3d0e5e28	0.034757763
141	0xbcf8f5a9	-0.030390577
142	0xbc853265	-0.016259382
143	0x3bf03668	0.0073307045
144	0xbe02c749	-0.12771334
145	0xbd21d815	-0.039512713
146	0x3dadc0ca	0.08484037
147	0xbcdb0078	-0.026733622
148	0x3d4e4ab7	0.050364222
149	0xbde37acb	-0.11107405
150	0x3d676852	0.056495972
151	0xbd3af851	-0.04564697
152	0x3d1ce602	0.03830529
153	0x3bc54601	0.006020308
154	0xbd877f83	-0.06616118
155	0xbc7a1fe2	-0.0152663905
156	0x3d5f7909	0.054558787
157	0xbd9e9e52	-0.07745041
158	0x23a9610e	1.8364121e-17
159	0x3db94edf	0.090482466
160	0xbd81bdc9	-0.06335027
161	0xbbd49d33	-0.006488466
162	0xbca97ad6	-0.020688456
163	0xbde15351	-0.110022195
164	0xbe008da2	-0.12554029
165	0xbb45acad	-0.0030162737
166	0xbd18e59a	-0.03732834
167	0xbc5a6c11	-0.013331429
168	0x3e0e112f	0.13873743
169	0x3d83d336	0.0643677
170	0x3b974337	0.004616167
171	0x3daf3a27	0.085560136
172	0x3d21d1b6	0.039506637
173	0xbd7cd8d8	-0.061730236
174	0x24d23d1e	9.117652e-17
175	0xbe622f6e	-0.22088405
176	0xbd5ca5d3	-0.05386908
177	0xbc9a2a02	-0.018818859
178	0x3d4d32b5	0.050097186
179	0xbc382ee7	-0.011241651
180	0x3d988887	0.074479155
181	0xbc284b78	-0.010271899
182	0xbd4beeb9	-0.04978821
183	0x3d94d42d	0.07267032
184	0xbd87cc04	-0.0663071
185	0x3db8023b	0.089848004
186	0x3b8e9329	0.004351039
187	0x3b131950	0.0022445507
188	0x3d21f347	0.039538648
189	0x3d04e51e	0.032445066
190	0xbcf02c7f	-0.029318092
191	0x3aa0d99b	0.0012271883
192	0x3d0c3378	0.034228772
193	0x3c5165f1	0.012780652
194	0xbc4ce7fe	-0.012506483
195	0x3ccac278	0.024750933
196	0xbc2859f7	-0.010275356
197	0xbb322fba	-0.0027189092
198	0x3d70366b	0.058645647
199	0x3d722fa1	0.059127454
200	0x3d8165ed	0.06318269
201	0x3d82f65c	0.063946456
202	0xbc888a34	-0.016667463
203	0xbda2645f	-0.079293005
204	0xbdd9fe99	-0.10644264
205	0xbcb72718	-0.022357509
206	0x38868134	6.413684e-05
207	0xbdd2e665	-0.102978505
208	0x3ceda691	0.02901009
209	0xbdc8ec7b	-0.0981073
210	0x3d90a5fa	0.070629075
211	0x3cdd5b8e	0.027021196
212	0xbb31735b	-0.0027076814
213	0xafe190b5	-4.1030082e-10
214	0x3d39894c	0.045296952
215	0x29feedda	1.13211266e-13
216	0xbd4b1ada	-0.049586155
217	0xbd77cb7a	-0.060496785
218	0xbd6e821a	-0.058229543
219	0xbd16b43d	-0.036792982
220	0x3c98dd02	0.018660072
221	0x25038a43	1.1409284e-16
222	0x258a6c41	2.401254e-16
223	0xbde62612	-0.1123773
224	0x3d023f96	0.03179892
225	0xbbd4b697	-0.006491493
226	0xbd551307	-0.0520201
227	0xbbb73be7	-0.0055918577
228	0x3ceb4240	0.028718114
229	0xbd3e91d1	-0.04652578
230	0xbd9f8223	-0.077884935
231	0x3d1c3a61	0.038141612
232	0x3d94531d	0.07242415
233	0xbc11bd76	-0.008895269
234	0x3d15ce16	0.036573492
235	0xbdb9e3e0	-0.09076667
236	0x3c9070c8	0.017631903
237	0xbd322f87	-0.043502357
238	0xbdbbb539	-0.09165425
239	0x3cf5a132	0.02998409
240	0x3a41e099	0.00073958334
241	0x3c0e2a0d	0.008677018
242	0xb1b3951e	-5.2265383e-09
243	0x3cbbd27a	0.022927511
244	0x3c8bc698	0.01706247
245	0x3d0abde5	0.033872504
246	0xbd729d1c	-0.059231862
247	0x3c69aae2	0.014261933
248	0xbd3c852a	-0.046025433
249	0x3d41f14e	0.047349267
250	0xbd74c274	-0.059755757
251	0x3d8e9b0a	0.06963165
252	0x3d38d602	0.04512597
253	0x3d13fffa	0.03613279
254	0x3d2a5c7e	0.041592114
255	0xb21b7e35	-9.050884e-09

bias f4 [64]
0	0x3cbdb07a	0.02315544
1	0x3e05db9a	0.13072053
2	0xbd62bea4	-0.05535759
3	0x3d84b342	0.06479503
4	0xb85cfcf4	-5.268767e-05
5	0x3dad25c3	0.08454468
6	0x3dac86f3	0.08424177
7	0xbc8f4af5	-0.017491797
8	0x3c379a0f	0.011206164
9	0xbdb5f1d6	-0.08884017
10	0xbd1dd1dc	-0.038530216
11	0x3d8f322a	0.0699199
12	0x3d896d0b	0.067102514
13	0xbd98f9d2	-0.074695244
14	0xbd82ffbe	-0.06396435
15	0x3df0f51f	0.11765503
16	0xbcc8e4b9	-0.024523126
17	0x3da73487	0.08164316
18	0xbc243c77	-0.010024182
19	0x3d8b7c1d	0.06810782
20	0x3e0e6f1d	0.13909574
21	0xbd85a2a8	-0.06525165
22	0xbd8758c3	-0.06608727
23	0x3cc218c7	0.023693455
24	0x3c0e12da	0.008671487
25	0xbd5792b1	-0.05263013
26	0xbb1c9100	-0.0023890138
27	0x3d75e3a4	0.06003155
28	0xbc9b6d16	-0.018972915
29	0x3e10078d	0.1406538
30	0xbd949866	-0.0725563
31	0x3d663d14	0.056210592
32	0xbd3ac271	-0.04559559
33	0xbcb7d72b	-0.022441467
34	0x3e22b30b	0.15888612
35	0x3d9be6dd	0.07612393
36	0x3ceffb6f	0.029294698
37	0xbccb3ea6	-0.024810147
38	0x3d9195cd	0.0710865
39	0xbc9b2ed9	-0.018943237
40	0xbd81f450	-0.06345427
41	0x3b04da87	0.0020271854
42	0x3d5f6770	0.054542005
43	0xbc47ef5b	-0.012203063
44	0x3dd9321f	0.10605263
45	0x3e2dfa15	0.1698993
46	0x3db8e3ca	0.09027822
47	0x3d52e2b6	0.05148574
48	0x3deaa19a	0.11456604
49	0x3e3714e5	0.17879064
50	0xbd1e6152	-0.03866703
51	0xbc2d9973	-0.010595667
52	0xbd26ecd8	-0.040753216
53	0x3dc5a4ac	0.09650549
54	0xbcffb586	-0.031214487
55	0xbe12c50e	-0.14332983
56	0xbdb8bd4b	-0.0902048
57	0xbd47b691	-0.048758093
58	0x3dc94668	0.09827882
59	0xbd74b02d	-0.059738327
60	0x3e35031c	0.17676967
61	0x3de4e885	0.11177162
62	0x3dca3cff	0.09874915
63	0x3e46e1f2	0.19422129

weight f4 [10, 64]
0	0x3c9259d5	0.0178651
1	0xbe60dc11	-0.21958949
2	0x3dce7404	0.10080722
3	0x3dffddad	0.12493453
4	0x3df20007	0.118164115
5	0xbe142e13	-0.14470701
6	0x3cfcf848	0.030880108
7	0xbdc1627f	-0.09442615
8	0xbcca16f1	-0.024669142
9	0xbde235d5	-0.11045424
10	0xbd0bdbb9	-0.03414509
11	0x3de74148	0.11291748
12	0x3d5bbc2c	0.05364625
13	0x3c4bcced	0.012438995
14	0xbce25a05	-0.027630815
15	0x3cf1d941	0.02952254
16	0xbe028997	-0.12747799
17	0xbdc64ac4	-0.09682229
18	0x3c03c74a	0.00804312
19	0x3c8784bd	0.016542787
20	0xbd23af3a	-0.03996203
21	0x3c288943	0.010286632
22	0xbb254f80	-0.0025224388
23	0xbd936054	-0.071961075
24	0x3cc7ee93	0.024405753
25	0xbae8ec8c	-0.0017770692
26	0x3bad729b	0.005293203
27	0xbda67d60	-0.08129382
28	0x3dcecd11	0.10097707
29	0xbe404487	-0.18776141
30	0x3c4f502c	0.012653392
31	0xbd339ec8	-0.043852597
32	0xbd91779a	-0.0710289
33	0x3dd5f64e	0.104473695
34	0xbd16b92b	-0.036797684
35	0xbde1b81f	-0.110214464
36	0x3d50287d	0.050819863
37	0xbd99a9ce	-0.07503091
38	0x3dc46ec7	0.095914416
39	0x3cfb6141	0.030686023
40	0xbc17dfc8	-0.009269662
41	0x3c542867	0.012949086
42	0xbdc3eee3	-0.095670484
43	0xbc9eb18a	-0.019371767
44	0x3dc1a56a	0.09455378
45	0xbd5a1854	-0.053245857
46	0xbdb5d530	-0.08878553
47	0xbe01f681	-0.1269169
48	0xbe062ef0	-0.13103843
49	0xbe5c0077	-0.21484552
50	0x3cce0197	0.025147242
51	0xbe3a0783	-0.18166928
52	0x3a7238b5	0.00092400174
53	0xbe6570c2	-0.22406295
54	0xbb126529	-0.0022338128
55	0xbdac2719	-0.08405895
56	0xbe3332df	-0.17499875
57	0xbd4fc275	-0.050722558
58	0xbd876495	-0.066109814
59	0xbe214a24	-0.15750939
60	0x3dcbb3f0	0.0994643
61	0x3cf42a80	0.029805422
62	0x3dc3892b	0.09547647
63	0x3df29c91	0.11846269
64	0xbe03f2c6	-0.1288558
65	0xbc23fad8	-0.010008536
66	0x3e0cd6b4	0.13753778
67	0xbdba353c	-0.09092185
68	0x3be06d95	0.0068490007
69	0xbe088c74	-0.13334829
70	0x3c3b426b	0.0114294095
71	0x3e14e61b	0.14540903
72	0xbdf6450c	-0.120248884
73	0xbe38027a	-0.17969695
74	0xbdb9d5d5	-0.09073988
75	0xbe6413cc	-0.22273177
76	0x3e0f9dc0	0.1402502
77	0x3d67d84d	0.056602765
78	0x3de5633f	0.1120057
79	0xbe26f186	-0.16303071
80	0x3e4b6af0	0.19865012
81	0x3b06c5bc	0.0020564636
82	0x3cb3c2ca	0.021943469
83	0xbe3824ae	-0.17982742
84	0xbe530129	-0.20605911
85	0x3d211520	0.039326787
86	0x3ddd1f5f	0.10796999
87	0xbdee63b4	-0.116401106
88	0xbd98900c	-0.0744935
89	0x3dce35c8	0.10068852
90	0xbd5289ab	-0.05140082
91	0x3dda2005	0.106506385
92	0x3d767572	0.0601706
93	0xbda4a626	-0.08039503
94	0x3bc4e09b	0.0060082204
95	0xbe102182	-0.14075282
96	0xbd66e7a4	-0.056373253
97	0xbdd28617	-0.10279482
98	0x3dd56f30	0.10421598
99	0xbe2dd3ab	-0.16975276
100	0xbdd3b111	-0.10336507
101	0x3d195e2e	0.037443332
102	0x3bfabacf	0.007651664
103	0xbe3ac388	-0.18238652
104	0xbd9cd941	-0.076586254
105	0xbc0c5508	-0.008565195
106	0xbce2ce74	-0.027686335
107	0x3d29b570	0.041432798
108	0xbe6d8690	-0.23195863
109	0xbe4f6d6d	-0.20256586
110	0xbe3e7d05	-0.18602379
111	0x3e0d1f62	0.13781503
112	0xbda4d342	-0.08048107
113	0xbe9db784	-0.30804074
114	0x3d1b56c2	0.037924536
115	0xbd1b4864	-0.037910834
116	0x3d893744	0.06699994
117	0xbd873b26	-0.066030785
118	0x3e2261aa	0.15857568
119	0xbcd277bd	-0.025691861
120	0xbcc49b5a	-0.023999859
121	0xbccd0c23	-0.025030201
122	0x3c5d3e98	0.013503693
123	0x3d9bc33d	0.07605598
124	0xbe08a99a	-0.13345948
125	0x3d8d2bd9	0.06893129
126	0x3e0145b1	0.12624241
127	0x3d57332c	0.052539036
128	0x3d0f4fc6	0.034988187
129	0xbe3e583b	-0.18588345
130	0x3dc128d2	0.09431614
131	0x3e0e076f	0.13870023
132	0xbd23862a	-0.03992287
133	0xbcba32d4	-0.022729315
134	0xbe816707	-0.25273916
135	0xbcf771ae	-0.030205574
136	0x3dca89c9	0.09889562
137	0xbd175145	-0.03694274
138	0xbe11ddc3	-0.14244752
139	0xbdcda840	-0.10041857
140	0xbe17216c	-0.14758843
141	0xbdd0ffdf	-0.102050535
142	0xbd108ce7	-0.035290625
143	0x3dd74415	0.105110325
144	0xbe057570	-0.1303308
145	0x3d5e1a2d	0.054224182
146	0xbb817a4e	-0.0039513474
147	0x3e01983f	0.12655734
148	0xbe658892	-0.22415379
149	0xbc596637	-0.013268999
150	0xbe004ac6	-0.12528524
151	0x3e0f36a9	0.13985695
152	0x3e13bc4b	0.14427297
153	0x3d936069	0.07196123
154	0x3d834d08	0.06411177
155	0x3ddd7476	0.10813229
156	0xbdd64910	-0.10463154
157	0xbe1f417e	-0.15552327
158	0x3d65f51a	0.05614195
159	0xbe2202ba	-0.15821353
160	0xbe2cdb8b	-0.16880624
161	0x3c7d7808	0.015470512
162	0xbe64b930	-0.22336268
163	0xbe5f245b	-0.21791212
164	0xbd0aed94	-0.03391798
165	0x3c93cdce	0.018042471
166	0xbe4b9122	-0.19879583
167	0x3cfa261f	0.030535756
168	0x3c21f7d5	0.009885748
169	0x3baa8705	0.005204084
170	0xbd436a41	-0.047708753
171	0x3da4f13a	0.08053823
172	0xbe29690c	-0.16543978
173	0x3e07193e	0.13193223
174	0x3c10b37e	0.008831857
175	0xbdcebf5e	-0.10095094
176	0xbdd23bf1	-0.10265339
177	0xbe1b1563	-0.15144877
178	0xbdab8085	-0.083741225
179	0x3d9f2047	0.07769828
180	0x3d8d4afc	0.06899068
181	0xbe53e3c3	-0.20692353
182	0xbd76beb8	-0.060240477
183	0xbc4b14ef	-0.012395128
184	0x3cb5d118	0.02219443
185	0x3cfede44	0.031111844
186	0xbe4d2842	-0.20034888
187	0xbe03d95c	-0.12875885
188	0x3d82c7ea	0.06385787
189	0xbe4e06f0	-0.20119834
190	0x3de1aa71	0.11018837
191	0x3d505396	0.050860964
192	0xb90742b6	-0.00012899455
193	0x3db4a44c	0.088204
194	0xbe00821d	-0.12549634
195	0x3de6217d	0.11236856
196	0xbe2b99c9	-0.16757883
197	0xbe63b435	-0.22236712
198	0x3d2351db	0.039872985
199	0x3dcd31c3	0.10019257
200	0x3d8282de	0.06372617
201	0xbcc1c21c	-0.023652129
202	0xbe0d4afd	-0.13798137
203	0xbb3b90a4	-0.0028620148
204	0x3e01dc9f	0.12681817
205	0xbdea54e6	-0.11441974
206	0xbcf30c87	-0.02966906
207	0x3ce63acb	0.028104207
208	0xbdffc843	-0.12489369
209	0xbdb4de54	-0.08831468
210	0xbc34fe0c	-0.011046898
211	0x3c5dd89c	0.013540413
212	0x3d5354a8	0.051594406
213	0xbd715eee	-0.058928423
214	0xbe43c282	-0.19117168
215	0x3e331ca6	0.17491397
216	0xbdd9289a	-0.10603447
217	0x3da7bda5	0.08190469
218	0x3c11fc0a	0.008910188
219	0x3d386773	0.045020532
220	0x3dbb2769	0.09138376
221	0xbe5a5ac6	-0.2132369
222	0xbdc6f080	-0.097138405
223	0xbde7ea0a	-0.11323936
224	0xbdb75b0d	-0.089529134
225	0xbcb894c0	-0.022531867
226	0xbcb7417d	-0.022370094
227	0xbe82fcfa	-0.2558363
228	0x3bdc5328	0.00672378
229	0x3db234c4	0.087014705
230	0x3e08535a	0.13313046
231	0xbe1e81e5	-0.15479238
232	0xbd6281ca	-0.055299558
233	0xbc88a4c2	-0.016680125
234	0xbe1e4564	-0.15456158
235	0x3d1691bc	0.036760077
236	0x3d40ab44	0.04703833
237	0xbe5bb195	-0.21454461
238	0xbe5cc569	-0.21559681
239	0xbe132c9a	-0.14372483
240	0xbe5cd152	-0.21564224
241	0xbe34932a	-0.17634264
242	0x3c69075a	0.014222944
243	0xbd7e9867	-0.06215706
244	0xbd874b2f	-0.06606137
245	0xbdb4fd0b	-0.088373266
246	0xbd06ae05	-0.0328808
247	0x3d801bf4	0.06255332
248	0xbde4beee	-0.111692294
249	0xbc57b42d	-0.013165516
250	0xbe0f2834	-0.1398018
251	0x3dfe2925	0.124101914
252	0xbe2a8b20	-0.16654634
253	0xbd820668	-0.06348878
254	0x3dbe47e9	0.092910595
255	0x3dbefefe	0.0932598

bias f4 [10]
0	0x3c71c242	0.014755787
1	0xbe2acb4b	-0.16679113
2	0xbd2e5b40	-0.04256749
3	0x3dafd9f2	0.08586492
4	0xbe399ab8	-0.18125427
5	0x3de49d63	0.11162832
6	0x3d2e8248	0.042604715
7	0x3c26b2e5	0.010174488
8	0xbc087f2f	-0.008331104
9	0xbe0d9ae9	-0.13828625
