2-hypertuning-mlflow/models/20250926-1519model.pt (torch, 442777 bytes, 6 tensors)

weight f4 [128, 784]
000000 bc cd b2 a4 ee 71 9f a3 b0 d7 91 a1 a6 94 55 a5
       -7.754372e-17 -1.7287066e-17 -9.882674e-19 -1.8525169e-16
000010 94 ef d4 a4 d7 fa 67 2a a5 1b e0 36 4f 20 61 3c
       -9.2346205e-17 2.0603949e-13 6.6789385e-06 0.013740613
000020 54 22 9a bc 2c 17 46 3c 16 fe d9 3c af 6e 93 3c
       -0.018815197 0.012090486 0.026610415 0.017997114
000030 89 75 bc bc 2d 4d 76 bb eb 84 b5 bc 5d 21 a1 bc
       -0.023005264 -0.0037582621 -0.022158107 -0.01966923
000040 e5 ad 43 bb 7d 51 8a 3c ef 1a 0b bd 47 12 a3 3c
       -0.0029858288 0.01688456 -0.033961233 0.019906176
000050 b7 65 a1 bc 41 09 35 bb 19 f3 12 a4 f1 aa e2 a3
       -0.019701822 -0.0027623924 -3.1864615e-17 -2.4575366e-17
000060 f4 d7 e2 24 40 0e e0 24 ba 65 99 a4 4f ff d6 24
       9.8377715e-17 9.7168655e-17 -6.6525504e-17 9.3240216e-17
000070 59 f2 06 24 d3 97 85 a3 28 2d 37 28 0e 00 36 24
       2.9261895e-17 -1.4484189e-17 1.0168332e-14 3.9465005e-17
000080 38 19 e1 a6 a9 07 e1 bb 0d d1 df ba e2 6e ad 3c
       -1.5619347e-15 -0.0068673682 -0.0017075852 0.021171037
000090 17 20 98 bc 31 72 2c 3c b8 95 c4 3c fc 9d 11 bd
       -0.01856999 0.010525272 0.023997173 -0.035551056
0000a0 66 c5 a6 bc 48 d1 69 3c c3 d9 c1 3c 33 d3 b3 bb
       -0.020357799 0.014271088 0.023663407 -0.0054878234
0000b0 96 72 e2 ba 1a 40 6c 3c d5 91 a1 bc 87 48 aa bc
       -0.0017276581 0.01441958 -0.019722858 -0.020786537
0000c0 c1 2f 4f bc d6 33 0b 3c 66 22 28 3c e8 62 60 a7
       -0.012645663 0.008496245 0.0102621075 -3.1139862e-15
0000d0 b8 10 29 21 a8 fc 1c a5 07 15 8f a4 a0 a3 df a0
       5.7281554e-19 -1.3616446e-16 -6.2051986e-17 -3.7885947e-19
0000e0 b1 b2 14 a4 54 13 50 22 5a d0 9d a4 16 80 8c 24
       -3.2243742e-17 2.8199489e-18 -6.844086e-17 6.093231e-17
0000f0 aa 81 97 bc e4 09 f0 ba 79 bd 97 bc b7 6f dd bc
       -0.018494446 -0.0018313495 -0.018522965 -0.027030809
000100 4c 48 a9 3c 04 fa 0a bc 7e b3 8d bc 7f 23 01 bd
       0.020664357 -0.00848246 -0.017297503 -0.031527992
000110 0f be e8 bc 81 0c 1b 3b ae dc 1b bd a5 a4 c5 bc
       -0.02841094 0.0023658576 -0.038052253 -0.02412636
000120 e1 e9 9d 3c a4 90 25 bd 41 cb 54 3b 3f 8a 91 bc
       0.019276561 -0.040421143 0.0032469782 -0.017766116
000130 59 41 89 3b 41 8b 1c bd 5d 4e be 3c 12 87 66 3c
       0.0041886983 -0.03821874 0.023230726 0.014070289
000140 8f 77 14 24 31 20 4c 24 65 47 a4 23 5c dd 38 a3
       3.2193654e-17 4.4262716e-17 1.7811152e-17 -1.0021535e-17
000150 7c 28 cc a3 22 31 04 a7 6d 99 5c b9 69 2b 4a 3a
       -2.213487e-17 -1.8345315e-15 -0.0002103799 0.0007712157
000160 a4 e9 0d bc 44 28 1f bd 89 4b 24 bd b5 6d 3e bc
       -0.008661661 -0.03885676 -0.0401111 -0.011622836
000170 91 22 60 3c 89 f3 b2 bc 80 b9 ae bc ed dc 0d bd
       0.013680116 -0.021844642 -0.021328688 -0.03463452
000180 59 97 2c bc 96 58 02 bd b1 d3 db 3c 7a d9 15 bd
       -0.010534131 -0.031822763 0.02683434 -0.036584355
000190 72 c5 76 3c 2c 53 c5 3c b9 71 65 bc cd 34 c9 3c
       0.015061723 0.024087511 -0.014004164 0.02456131
0001a0 08 0b fb 3b 74 e8 c7 bc a5 95 83 bc e1 78 b9 3c
       0.007661227 -0.024402834 -0.016062567 0.022640647
0001b0 18 f1 a6 bb 61 2b 5c 24 0c 95 39 aa 84 97 c8 36
       -0.0050946586 4.774164e-17 -1.6483012e-13 5.978103e-06
0001c0 ad c1 10 a5 7d e7 d4 3a 30 cd c3 b9 a7 83 a0 3c
       -1.2555629e-16 0.0016243305 -0.00037346175 0.019594027
0001d0 c4 43 0b bd a0 62 33 bc 7c b6 6c ba 7e 52 3e bc
       -0.034000173 -0.010948807 -0.0009029878 -0.011616347
0001e0 98 29 1e bd 8d 42 da bc c4 82 05 bc dc 9a 08 bd
       -0.038613886 -0.026643062 -0.008148853 -0.03335081
0001f0 01 93 18 bd 08 88 b8 3c 72 c6 14 bd 85 fe bd 3c
       -0.03724957 0.022525802 -0.036322065 0.023192653
000200 d4 09 46 bc 3a 85 ab 3c b6 2a 16 bd 9f fb 07 bd
       -0.012087304 0.02093755 -0.036661826 -0.03319895
000210 0b df ea 3b 72 a7 a9 3c fe 95 05 bb 80 5e ac bb
       0.007167702 0.020709727 -0.0020383592 -0.0052602887
000220 f9 3b 87 bc ff 98 57 b9 78 91 3b b0 50 2d da 38
       -0.01650809 -0.00020560993 -6.8236927e-10 0.0001040349
000230 c2 81 ae a8 51 2c f9 3b 14 84 83 bc 40 e8 cc bc
       -1.9374154e-14 0.00760416 -0.01605419 -0.02501309
000240 69 28 b4 bc 61 2a b8 bc 3f b0 bf 3c 17 2a 96 3c
       -0.021991925 -0.022481145 0.02339947 0.018330617
000250 2e 8d 60 3c 21 bf 0a bc 9f a0 76 3c 4b 74 af bc
       0.013705535 -0.00846842 0.0150529435 -0.021417757
000260 a6 62 d7 3c e9 fe b3 3c 62 bd 91 3c d0 f0 31 bc
       0.026292156 0.021972137 0.0177905 -0.010860637
000270 be 5d 0e 3c 82 d2 9c bc 87 c5 f2 bc 97 d3 0e bd
       0.008689342 -0.019143347 -0.029635204 -0.034869757
000280 70 92 25 bd 77 4f c7 3c b7 28 15 bd d4 4a ad bc
       -0.040422857 0.024329884 -0.03641578 -0.021153845
000290 34 06 25 bc 87 39 33 bc 41 ae 50 3c 87 53 55 3c
       -0.01007228 -0.010939009 0.012736858 0.013020403
0002a0 f8 fd 2f a3 69 18 b0 bc 5a 13 53 bc 2d ba 9a bb
       -9.540549e-18 -0.021496015 -0.012883032 -0.004721901
0002b0 ad b1 88 bb 0f 80 a0 3c 11 e9 d1 3c f9 ca 8b 3c
       -0.004171571 0.019592313 0.02562383 0.017064558
0002c0 d9 b1 95 3c 2b 0f 1d 3c 92 fc be 3c e6 78 81 3c
       0.018273281 0.009586136 0.023313794 0.01580472
0002d0 5c af 98 3c ed 1f 4e bc a7 6f 9d 3c 6e 9d 8e 3b
       0.018638305 -0.012580854 0.019218279 0.004352263
0002e0 88 42 76 3c 07 f3 96 3a 11 57 9e bc 28 ea b5 bc
       0.015030511 0.001151652 -0.019328626 -0.022206381
0002f0 7f 10 dd 3c f6 62 d3 bc 99 33 b2 bc f0 ef 0b bd
       0.026985405 -0.025804024 -0.02175312 -0.03416437
000300 69 3c a3 3c 4c 6b bc bc e9 1d 0b bd ab 99 5a bc
       0.019926267 -0.023000382 -0.03396407 -0.013342301
000310 57 2e c2 b5 f3 da ea bb cf 33 ec 3b e2 e8 56 3c
       -1.4467613e-06 -0.007167214 0.0072083245 0.013117047
000320 5a 8a d2 3c 80 f2 19 bd 3f 85 20 3c b5 5e 47 3c
       0.025700737 -0.03758478 0.009797393 0.012168576
000330 18 d6 46 bb 5a e1 c7 3c 7e ad 63 ba 32 ab dd 3c
       -0.0030340012 0.024399448 -0.0008685215 0.027059171
000340 bd e1 12 bd 44 0d 0a 3c 2c a6 48 3c f4 09 0e 3b
       -0.035859812 0.008426014 0.01224665 0.0021673413
000350 af b3 47 bc 92 ee c9 3c 86 32 2c bc f1 23 90 3c
       -0.012188836 0.024649892 -0.010510093 0.017595263
000360 9b 61 4b 3c d3 71 36 bc dd 7d 8e bc f4 7b 9d 39
       0.012413408 -0.011135536 -0.017394 0.00030037726
000370 90 2a 10 bd ea ec fc bc 0f 19 10 3b 4e 1f 50 bc
       -0.03519684 -0.030874688 0.0021987592 -0.012702776
000380 5c 43 8e bb b0 2f 03 bc 7c a7 36 bc 54 07 47 39
       -0.004341526 -0.008006975 -0.01114833 0.00018980849
000390 00 16 48 3c 87 14 e7 bc ba da be bc 2e 33 ad bb
       0.012212276 -0.02820803 -0.023297656 -0.005285642
0003a0 f5 e4 5c 3c 70 ce 02 bd 5e 42 f0 3b c6 a4 d0 bc
       0.013482322 -0.031935155 0.0073321303 -0.025469195
0003b0 90 ee c7 3c 8d 5a 8e bc 05 98 29 bd c1 8c 20 bd
       0.024405748 -0.017377162 -0.041404743 -0.039196733
0003c0 de d9 88 3c 2d 11 27 bd 94 8d f1 bc 3a 74 24 bc
       0.01670545 -0.040787864 -0.029486455 -0.010037476
0003d0 11 79 fe bc 1a 46 8b bc 3d 45 a7 3c 6e 83 03 bd
       -0.031063588 -0.0170012 0.020418758 -0.032107763
0003e0 63 36 b9 3b a4 03 3c bb b4 cb 85 bc 71 8e 6f bc
       0.0056522354 -0.0028688693 -0.016332485 -0.014621363
0003f0 3d e7 56 bc 85 d0 ea bc f3 6c c8 3b b8 80 81 3c
       -0.013116655 -0.028663883 0.0061165034 0.015808448

bias f4 [128]
000000 a2 65 66 bc ac 0a 5f 3e b5 b8 de bb db a2 d1 bc
       -0.014062317 0.21781415 -0.006796921 -0.02559035
000010 bf 0e d3 3b 11 15 61 bd f2 18 12 3c 48 d3 a5 ba
       0.006440967 -0.05495173 0.00891708 -0.0012651468
000020 6f 52 35 3e 30 76 0a bd 6c 42 af 3d 37 de ac bd
       0.17707227 -0.03380412 0.08557591 -0.084408216
000030 ba 2d ac 3c 75 c6 c9 3d de 79 a9 3c 9a 6d e4 bc
       0.021017898 0.09852306 0.020687994 -0.027884293
000040 28 16 58 3a 20 fb 17 bc e6 8c 82 3d f3 63 f2 bd
       0.00082430476 -0.009276181 0.063745305 -0.1183547
000050 66 0b 16 bd 9c b8 90 3c 44 4f b1 3d 10 53 ac 3d
       -0.036631964 0.017666154 0.08657697 0.084142804
000060 93 3b 1e 3d de d7 2f 3c d2 ae 48 3e 0a 51 c6 bc
       0.038631033 0.010732619 0.19597939 -0.024208564
000070 2e 3c 75 bc 85 65 ea bb 9e 56 84 3d b1 cd 37 3d
       -0.014967961 -0.0071532154 0.064618334 0.044873897
000080 4a 07 07 3e e2 08 94 3d 47 83 9f 3c ff c5 61 bc
       0.13186374 0.07228257 0.019471778 -0.013780116
000090 f0 50 a7 bd e8 e5 51 3e 60 21 3b 3e 1c f7 3c bb
       -0.081697345 0.20497859 0.1827445 -0.0028833812
0000a0 b0 58 65 3e dc e0 2b 3c a9 ce 81 bc 3c 9a 97 3c
       0.22397113 0.010490622 -0.015845614 0.018506162
0000b0 09 2e 8e 3d 69 cd e8 3d 47 ce 2c bd 18 79 d8 3d
       0.06942374 0.11367304 -0.04218891 0.10569972
0000c0 0f ff 08 bd cb b5 13 3e 56 9c 03 bc 13 f9 1d 3d
       -0.033446368 0.14424817 -0.008032879 0.038567614
0000d0 89 a2 d7 3d 5c 19 b9 3d a9 7a 6c bc f0 e2 a1 bd
       0.10529048 0.0903804 -0.014433541 -0.07904613
0000e0 f8 57 0f be 19 43 22 3d df 84 b1 bc 19 6d ec bc
       -0.13998401 0.03961477 -0.021669803 -0.028860616
0000f0 de b2 fe 3d a1 35 11 bc 0b e2 23 3d e3 e4 80 bd
       0.1243646 -0.008862884 0.040010493 -0.06293657
000100 26 88 63 3d 79 99 37 3d 5b 07 35 bc 6c 99 25 3e
       0.055549763 0.044824097 -0.011049117 0.16171807
000110 d4 37 a7 3c db ca a0 bc aa dc ba bc 82 a2 74 3e
       0.020412363 -0.019627979 -0.022810299 0.23890117
000120 1f 07 01 3e 04 1c dc bb b3 19 24 3e f5 16 a5 3d
       0.12600373 -0.006717207 0.16025428 0.08061019
000130 f0 b4 a6 3d 5a 9d 8a bd eb 6b 3b 3e a5 35 43 3e
       0.0813998 -0.06768294 0.18302886 0.19063433
000140 6a ca 91 3d 97 f8 40 3c 4f 93 e3 bc e0 53 f8 3c
       0.071186855 0.011778018 -0.027780203 0.030313432
000150 25 b8 fa bb 1e 9b 26 3b 91 43 27 bd 81 0d b6 3d
       -0.0076513463 0.0025422047 -0.04083592 0.088892944
000160 d2 82 75 bd c0 cd 87 3d 17 89 79 3d 40 b1 2d bc
       -0.059939213 0.066310406 0.060921755 -0.010601342
000170 01 c4 97 3b b7 ed 56 bb 14 a9 23 3c 1d 27 e7 bb
       0.00463152 -0.0032795498 0.009989042 -0.007054223
000180 c2 f7 11 3e 4d 6c 3b 3e 74 0e 07 bd a1 5b 51 3c
       0.14254668 0.18303032 -0.032972768 0.012778194
000190 08 5d b0 bd bf 8d 80 3e 3b 01 8a 3c e0 58 2c 3c
       -0.08611494 0.25108144 0.01684629 0.010519236
0001a0 0c 72 b6 bc 82 88 fb ba b8 b6 f7 bd 90 48 3a bb
       -0.022271179 -0.0019190463 -0.12095398 -0.0028424598
0001b0 ab 89 aa bc e4 18 78 bd 5f 80 8c bd 72 b5 95 3c
       -0.020817598 -0.060570613 -0.06860422 0.018274996
0001c0 f7 ee f0 3d 84 cb 70 bc 3a db 51 3e 20 cd 15 3d
       0.11764329 -0.014696959 0.20493785 0.036572576
0001d0 84 6d 30 3e 93 58 7f bd 8e 54 d2 3d 7c 3f a4 3d
       0.17229277 -0.06234033 0.10270034 0.08019921
0001e0 78 47 f4 bc e9 cd 0a bc a4 9a 82 3c 96 4c e6 bb
       -0.029819235 -0.008471944 0.015942879 -0.0070281727
0001f0 dd 48 d3 3d 25 dd fc 3d 01 e6 fb bc 5a 01 a4 3d
       0.10316632 0.123468675 -0.030749323 0.0800807

weight f4 [64, 128]
000000 07 bb 3a bd 04 ef c5 bd 76 bb 75 bd d0 10 f9 b9
       -0.04558852 -0.09664729 -0.05999323 -0.00047505507
000010 06 41 03 3d 9a c8 52 3d 06 7a cd 3c fc 0b 0c bb
       0.032044433 0.05146084 0.0250826 -0.0021369448
000020 8b ea 74 3d 0f c3 3e 3d 3c d2 b9 bd 24 e0 36 3d
       0.05979399 0.04657274 -0.09073302 0.04464735
000030 c3 a3 9d 3c 61 90 3f 3d 2b 1b 0e 3e 36 19 94 bd
       0.019243127 0.04676855 0.13877551 -0.07231371
000040 59 34 82 bd b1 b0 25 3c 12 c6 41 3d f9 22 84 bd
       -0.06357641 0.010112927 0.047308035 -0.06451983
000050 5f 47 bc bd 09 57 95 bd f4 46 b8 3c 7a 07 a9 3c
       -0.091933005 -0.07291991 0.02249477 0.020633448
000060 50 45 92 3b 32 1f 15 3d ea 95 dc 3c b1 6b e7 3c
       0.004463829 0.036406703 0.026926953 0.028249593
000070 74 69 ec bc a8 c7 8a 3d 67 90 a7 bd 83 84 c8 3d
       -0.028858878 0.06776363 -0.081818394 0.097908996
000080 d4 2b a5 3c fc 8d c6 bc 1c e4 52 bd 99 c5 36 3d
       0.0201625 -0.024237625 -0.051487073 0.044622038
000090 04 c3 e5 bc 0f 1d 79 bd 5a 52 2a bd 79 67 b1 bb
       -0.028047092 -0.060818728 -0.041582443 -0.005413946
0000a0 cb 00 0b be 80 c2 9a bb c8 9b 31 bd 33 09 af bd
       -0.13574521 -0.0047228932 -0.043361455 -0.085466765
0000b0 62 be 0d 3e 8b 2a 37 bc 7e 70 82 3c fa 59 3d 3d
       0.13842157 -0.011179577 0.015922781 0.046228386
0000c0 13 80 73 bb db 61 51 3d c0 a2 9b 3d e3 c5 e9 3c
       -0.0037155196 0.051118713 0.075994015 0.028536743
0000d0 42 08 ab bd d5 45 ef 3d ff 69 d2 bb 4f 86 ac 3d
       -0.083511844 0.11683241 -0.006421327 0.08424055
0000e0 23 12 db 3c fe 70 a4 3c 43 d8 94 bd 5a 7b a2 bd
       0.026742047 0.02007341 -0.07267811 -0.07933684
0000f0 b2 6f 0d 3e c2 ad b1 ba ab ce 7b 3d b9 4d 23 3d
       0.1381214 -0.0013555812 0.06147639 0.039869044
000100 8e 8d 6c 3d e9 42 c2 bc 19 09 ae bc 02 17 ba 3c
       0.057752185 -0.023713546 -0.021244572 0.02271605
000110 3c 0f 8a 3c f8 f9 3c bd 01 70 8f b7 c8 43 0f be
       0.016852967 -0.046136826 -1.7099084e-05 -0.139907
000120 fc 37 b9 3d e4 f6 80 bd c3 d1 18 be 79 50 9a bd
       0.09043881 -0.06297091 -0.14923768 -0.0753488
000130 57 47 81 3d f5 f9 84 3c fd 12 be bd 0a 01 1f 3e
       0.06312435 0.01623247 -0.092809655 0.1552774
000140 ee 04 01 3e 0f 72 c3 3d 34 c5 ed 3c bb 48 cb bd
       0.12599537 0.09543239 0.029024698 -0.099259816
000150 ed 03 53 bb 99 4f 06 bd 8c a2 02 bd 1c ba 22 3e
       -0.0032198385 -0.032790754 -0.031893298 0.15891308
000160 85 53 b6 3d 30 a2 95 3d 79 7e 96 bd 00 c5 12 3d
       0.08902649 0.073063254 -0.073483415 0.035832405
000170 ab 84 87 bd c2 0e d4 bc c2 19 52 bd 91 58 bc 3c
       -0.06617101 -0.025885943 -0.051294096 0.02299145
000180 c7 08 84 3d 9d 51 24 3c 4e 5e 1d 3d 8f 18 77 3c
       0.06446987 0.010029224 0.038420014 0.015081539
000190 d4 23 c7 3c ce d4 fd bd f6 05 29 3d 12 45 de 3c
       0.024309076 -0.12394105 0.04126545 0.027132545
0001a0 4c 59 61 bc 0f b1 db bd 80 1b 07 3b 27 69 c6 bc
       -0.0137542 -0.107271306 0.0020615757 -0.024220062
0001b0 b9 40 33 3c ab 75 82 3d 68 4d ad bc 2a 8d c2 bd
       0.010940724 0.063701 -0.021155074 -0.09499581
0001c0 eb 77 61 bd bf e4 e2 3c c9 3d 66 3d fe 77 9d bd
       -0.055046003 0.027696965 0.056211267 -0.07688902
0001d0 29 7c b9 bd cd d6 8c bd 51 b2 02 be d0 56 c7 bc
       -0.09056885 -0.068769075 -0.12763335 -0.024333388
0001e0 ef 99 8a 3d 7c 2b 55 bd 39 76 06 bd 3f 5e d9 3c
       0.06767642 -0.052043423 -0.03282759 0.026534198
0001f0 96 d9 68 3b e5 93 97 bd d7 f8 60 3b c6 37 81 3d
       0.0035530082 -0.074012555 0.0034328008 0.06309466
000200 61 36 2c bc 87 fd d8 bd 95 98 6c 3d 62 84 04 3d
       -0.010511012 -0.105952315 0.0577627 0.032352813
000210 f0 73 b4 3d 13 60 25 3e 79 37 8b b9 1b d1 4c bd
       0.08811176 0.1614993 -0.00026553476 -0.050004106
000220 f9 b8 b4 bc 0d 63 87 bd 27 20 2b be 35 2f 34 be
       -0.022060858 -0.06610689 -0.16711484 -0.17596133
000230 d6 b0 25 bd c7 6b 93 3d 9b 77 10 3e c0 23 77 bc
       -0.040451847 0.07198291 0.14108126 -0.015084207
000240 22 e6 0f bc 74 b6 3f aa 22 c9 19 bd 6a 2e a9 bd
       -0.008782895 -1.7027509e-13 -0.03754533 -0.08260806
000250 0b 8a 0e 3c db 39 93 3d db b3 38 3d d0 4a f2 3c
       0.008699904 0.071887694 0.0450934 0.029576689
000260 d2 e2 3c 3d 07 95 8c 3c 26 12 d5 bd f2 6c 0c 3d
       0.04611475 0.017160906 -0.10403852 0.034283586
000270 72 e5 4d 3c 85 51 b6 3d 37 9a d1 bd d0 c0 3b 3d
       0.012566911 0.08902267 -0.10234492 0.045838177
000280 6c 5c 90 3d fe b0 1c 3d 11 d8 f7 3d 10 5d 84 bd
       0.07048878 0.03825473 0.12101758 -0.06463063
000290 84 86 9b bc 1a 9f a3 bd 67 67 a9 bd e4 b7 1f bc
       -0.01898504 -0.079893306 -0.082716756 -0.009748433
0002a0 87 0f 3c 3c 66 42 ad bb 7c ed ac bd bd 94 d5 bd
       0.011478311 -0.0052874563 -0.08443734 -0.1042876
0002b0 05 13 24 3d 4b 62 3f bd c4 4f 80 bc 39 ea 72 bd
       0.0400572 -0.0467246 -0.015663035 -0.059305403
0002c0 0f 18 64 3c 6c b3 ad bd 5e 34 82 3d 6b 19 a2 bd
       0.013921752 -0.08481488 0.063576445 -0.07915004
0002d0 aa 75 5d bd 19 b9 fe 3b 64 eb d8 3c 3f 05 55 3d
       -0.05406729 0.00777353 0.02647943 0.052006956
0002e0 d2 c2 8c bc 5d 7e da bb d6 cc 28 3d 11 81 dd bc
       -0.017182741 -0.0066678957 0.04121097 -0.027039083
0002f0 25 38 fc 3c 32 ca a0 a9 84 83 25 bd 06 d5 48 bd
       0.03078849 -7.1405027e-14 -0.040408626 -0.04903128
000300 99 d7 94 bd dc 13 46 bd 4e cb fd 3c e9 ca d2 bd
       -0.072676845 -0.048358783 0.030980732 -0.10292608
000310 05 78 d8 3b 52 c1 20 34 39 c9 4b a8 eb 82 3e 3d
       0.0066061043 1.4971491e-07 -1.1312397e-14 0.04651157
000320 a2 41 93 3d 9f 42 20 be c0 c7 da bc ac 71 1a 3d
       0.07190253 -0.15650414 -0.026706576 0.037706062
000330 b8 c8 c5 3d db 95 1e 3e 67 1b e6 3a b5 11 b2 bc
       0.09657425 0.15486853 0.0017555774 -0.021736959
000340 9d 92 2c 3e 3d 75 1a 3e 71 6b 1f bd 2f 8d 70 3d
       0.16852804 0.15083785 -0.038920823 0.058728393
000350 14 08 89 a8 a5 51 37 bc 97 63 e3 bd 4f dc 31 3a
       -1.5213559e-14 -0.011188899 -0.1110298 0.00067848427
000360 d1 10 ae bb da 97 b6 bc a8 10 b7 3c 57 1a ff 3c
       -0.0053120633 -0.022289205 0.02234681 0.03114049
000370 0f ff 03 3d 7a 3b ce bc 66 ee 70 bd 27 b8 8e 3c
       0.032225665 -0.025174845 -0.058821104 0.017421795
000380 18 84 6a bc e3 8a b8 3d cc f2 8e 3c 73 af 90 3d
       -0.01431372 0.090108655 0.017449759 0.07064714
000390 f4 05 0a be 97 07 74 3d 34 03 17 bc f8 6f a2 bb
       -0.13478833 0.05957755 -0.009217072 -0.0049571954
0003a0 13 3d ec bc 78 9a 93 3a df 8d cf bc a1 39 3d a5
       -0.028837716 0.0011261245 -0.025336204 -1.6412662e-16
0003b0 80 51 01 be 43 a5 82 bc a7 2c c1 bd fa 0b 9e bd
       -0.12628746 -0.015947944 -0.09432345 -0.07717128
0003c0 aa be cd bc d0 61 71 3c 35 b7 5d 3d 3d 88 5a 3d
       -0.02511533 0.014732793 0.054129798 0.053352583
0003d0 9f bd 91 bc 8a 82 bd 3d 1d c5 2a be 85 05 a8 bd
       -0.017790614 0.09253414 -0.16676755 -0.08204178
0003e0 b2 8a 41 3d a1 c3 94 3c 5c 65 70 bb 49 34 65 bd
       0.04725141 0.01815969 -0.0036681509 -0.055958066
0003f0 3e c9 37 bd 34 bb 8d bd 34 6b 09 38 d4 99 07 3e
       -0.044869654 -0.06920472 3.2763186e-05 0.13242275

bias f4 [64]
000000 a9 58 d3 3d 7f d8 df 3c cb 16 34 3d 66 15 91 bc
       0.10319645 0.027324913 0.04396705 -0.017710399
000010 bc af d6 3d 15 43 26 3d fe 8a 12 3e be a5 3f bc
       0.104827374 0.04059132 0.14310834 -0.011697231
000020 91 87 81 bd dd 96 06 3c 19 b4 8d bd 8b ff 2e 3e
       -0.06324685 0.00821468 -0.069191165 0.1708967
000030 6f 19 34 3e 68 36 c4 bb c2 8c 3f 3e 97 46 ba 3d
       0.17587827 -0.005987931 0.18706039 0.09095495
000040 a3 16 58 bd 6d fb 9c 3e 3b 1c ba bd c8 7d e0 3d
       -0.052755963 0.30660573 -0.09087416 0.10961491
000050 3f 80 57 3e 1d 7a c0 bb b1 b1 b6 bc a8 09 62 3e
       0.21045016 -0.005873932 -0.022301527 0.22073996
000060 05 56 89 bd cf c3 9c 3d 9a a1 ef bc b9 97 a1 3b
       -0.0670586 0.07654535 -0.029251862 0.004931417
000070 d3 36 41 3e 9e e6 1f 3d 97 af 94 3b 8b 96 c0 bd
       0.1886857 0.039038293 0.0045375335 -0.09403714
000080 ac 6a d2 3c 1a 99 a3 3d 60 db e5 bd 0a e9 c4 3d
       0.02568563 0.07988186 -0.11223483 0.09614761
000090 e8 41 42 bd 0a 01 8f 3b 00 c1 c2 bb a6 f7 7c bd
       -0.047426134 0.0043641375 -0.0059434175 -0.061759613
0000a0 8c 3c 8b bd d7 31 38 3d d2 c6 24 3e 42 03 c9 3d
       -0.06798658 0.044969406 0.16091469 0.098150745
0000b0 27 bb a1 3d f4 53 90 3d cb 3c c4 3c 84 16 cd b9
       0.078970246 0.07047263 0.02395477 -0.00039117422
0000c0 06 13 c1 3d 47 1e 2f bb 14 41 08 be 58 e5 df bc
       0.094274566 -0.0026720928 -0.13306075 -0.02733104
0000d0 95 67 a6 3c 67 18 76 3d a0 75 a5 3a 24 92 c8 3d
       0.020313064 0.060081866 0.0012623556 0.09793499
0000e0 b7 a3 de bc ce c0 23 bd f0 05 b2 ba 1e bc 2c 3e
       -0.027177675 -0.039978795 -0.0013582092 0.16868636
0000f0 58 40 c1 bd 24 d6 16 3e 18 4b 23 bd 71 b3 e6 3c
       -0.09436101 0.14730126 -0.039866537 0.028161736

weight f4 [10, 64]
000000 86 8f 1e 3e ae 15 0a 3d 6b 34 07 3e f2 ca 11 3e
       0.15484437 0.03371208 0.1320359 0.14237574
000010 91 17 a3 3c 21 37 77 3d 42 80 a6 bd 46 0d 52 be
       0.019908698 0.06035531 -0.08129932 -0.20512876
000020 ac 0d 5f bd 48 28 7b bd 3f 62 59 3c 59 80 09 be
       -0.054456398 -0.061317712 0.013268053 -0.13427867
000030 3d e4 35 3d c6 31 11 bc 62 66 cf bd e7 0e bf 3c
       0.044407118 -0.008861965 -0.1012695 0.023322536
000040 a9 0c 8d 3d 6b 0f 1d be 0e 94 b5 bd bc 84 43 3c
       0.0688718 -0.15337913 -0.0886613 0.011933502
000050 39 ba 47 be a1 3b 33 bd 65 63 a8 3d 8d ae 95 3d
       -0.19504632 -0.04375804 0.08222083 0.073086835
000060 e6 e9 af bd 3f 91 06 3d c3 0f 80 bb 61 9b ef bb
       -0.085895345 0.03285336 -0.003908129 -0.007312224
000070 67 80 d9 bd 44 7b 0d 3e 7f e9 ab bb 52 67 e6 bd
       -0.10620194 0.13816553 -0.0052463408 -0.112501755
000080 14 f7 ef bc eb fd f3 3c 90 a0 c4 bd 62 a4 0e be
       -0.02929262 0.029784163 -0.09600937 -0.13929895
000090 f0 ff 03 be 4b 05 4a 3d 61 9c 15 3d ab 4e 4d 3c
       -0.12890601 0.049321454 0.036526088 0.012530963
0000a0 66 94 23 ba b3 61 25 3e 19 1b 03 3d bd 62 98 bd
       -0.00062400696 0.1615055 0.032008264 -0.07440708
0000b0 4c 2d 7e 3c 19 11 e0 bc 0b 18 9a 3d 78 7f 84 bd
       0.015513729 -0.027351903 0.07524117 -0.06469625
0000c0 7d 7b a6 3c 60 ea 31 3e 4a 90 e6 bd c8 bb 9d 3d
       0.020322556 0.17374563 -0.1125799 0.07701832
0000d0 c8 2c 1f bd dd 57 20 3e e1 79 80 be 06 dd eb bd
       -0.038861066 0.15658517 -0.25092986 -0.11516766
0000e0 f8 73 98 bd d2 cd ea 3d 93 4e 80 bd fe 62 c0 3d
       -0.07443994 0.11465038 -0.06264987 0.09393881
0000f0 ba 92 48 bd e8 c7 ca 3d ab b3 38 3c 4e fa 57 bc
       -0.048968054 0.0990141 0.011273305 -0.013182236
000100 ef ef 18 3e 6a ce 27 3e c6 40 aa 3d 36 56 ee 3c
       0.14935277 0.16387334 0.08313136 0.029093843
000110 16 ce fa b9 7d 93 cc bd 64 66 d4 3d de b7 03 3e
       -0.00047837262 -0.09989069 0.10371092 0.12863109
000120 46 e3 81 3d bc 27 f8 bc 26 2c d7 bd 8c 2c a5 3d
       0.06342177 -0.030292384 -0.105064675 0.08065137
000130 e3 68 42 3d 30 c0 e8 3d bb 38 ca be c2 ba 2d be
       0.04746331 0.11364782 -0.39496407 -0.16965774
000140 97 a4 3c be 0f 9e 63 be 09 41 96 bb b2 65 f7 3d
       -0.18422161 -0.22228263 -0.0045853895 0.12079944
000150 d3 2c 2c bc 4a e6 be bd dd 18 07 3e 4d 76 42 be
       -0.010508734 -0.09321268 0.13193078 -0.1899044
000160 e8 a1 46 be 98 ca 67 be ab 38 22 3e 63 e3 8a 3d
       -0.193977 -0.22635877 0.1584193 0.06781652
000170 45 99 27 be 27 67 25 3d c2 68 a1 3d f1 4d a3 bc
       -0.16367061 0.040381577 0.07881309 -0.019934626
000180 c5 7d 96 bd 89 9a 42 be 61 ca c5 bc 52 42 73 3e
       -0.073482074 -0.19004263 -0.024144353 0.23755768
000190 d6 22 7c 3c 66 d7 ec 3d 74 84 b5 3a 74 97 9b bd
       0.015389165 0.115645215 0.0013848678 -0.07597247
0001a0 7d 8c a9 3d 91 98 0f be a5 a2 a6 be d3 26 c6 bd
       0.08278749 -0.14023043 -0.32545963 -0.09675374
0001b0 f7 32 d2 bc 8b 2d 02 3e 1c 62 6b 3d 82 0e e0 bd
       -0.025659068 0.12712686 0.05746661 -0.10940267
0001c0 1c b3 18 be 94 3e 6a bc 4a 90 64 be a5 d4 c5 bc
       -0.14912075 -0.014297146 -0.22320667 -0.024149248
0001d0 c2 1d dc bd cd 5f 04 be 49 fe 45 be d9 9a fa bd
       -0.10747863 -0.1292717 -0.19335283 -0.12236566
0001e0 42 93 5a bd 6a 7e 16 be 94 bc 52 3e 03 cd 5f be
       -0.053363092 -0.1469666 0.2057975 -0.2185555
0001f0 71 28 aa bd ae 80 94 bd 3e ee 0e bc 6e c1 ea bd
       -0.08308495 -0.07251106 -0.008723794 -0.11462675
000200 9a b8 c5 3d 60 a6 04 be 8a 4a c5 bd 01 09 3a be
       0.096543506 -0.12954092 -0.09633358 -0.18167497
000210 62 6f d4 bb c9 10 3c 3d 77 a8 2f 3d d2 70 a2 3c
       -0.0064830044 0.045914445 0.04288527 0.019829188
000220 c6 fd 20 3d a2 47 b7 3b 7e 70 24 3d 94 c5 c5 3d
       0.039304517 0.005593256 0.040146343 0.09656826
000230 ee 79 3e be 8c fa b9 3c 4a 99 8b be 16 f8 b6 3d
       -0.186012 0.022702478 -0.27265388 0.089340374
000240 8f 84 1b be e5 50 8d 3d 40 ca b8 bd 5f 02 ba 3d
       -0.15187286 0.06900195 -0.09022951 0.090824835
000250 7d 6b 7f bd ca eb c2 3c 61 08 d5 3d 23 eb 1c 3e
       -0.06235837 0.023794074 0.10401989 0.15324073
000260 af 6b 0d be 89 74 af bd fc 69 e8 bd b8 e0 c5 bd
       -0.1381061 -0.08567149 -0.1134834 -0.09662002
000270 e3 f1 c0 bd c9 55 73 bd 4c 95 1c bc 50 47 3a bd
       -0.09421136 -0.059407983 -0.0095570795 -0.045478165
000280 1f 47 d6 3d 0f 91 89 bd 78 85 b5 3d a2 12 35 bd
       0.10462784 -0.06717121 0.08863348 -0.044207223
000290 cc 3c 54 bd 0c 86 bc bd c0 91 bb 3d 24 7e 52 3c
       -0.051815793 -0.09205255 0.09158659 0.012847457
0002a0 bf 56 f7 3d 18 38 9f 3c 6f b2 84 be 7e 40 15 3d
       0.120770924 0.019435927 -0.25917384 0.036438458
0002b0 69 01 fa 3c 75 e1 79 3d 48 c8 0e be 95 ce b9 3d
       0.03051825 0.06100603 -0.13943589 0.090726055
0002c0 b8 21 ef 3b 52 14 31 be ae e3 4a 3d 9a 2e 80 bd
       0.0072977208 -0.17292908 0.04953354 -0.062588885
0002d0 b0 c5 00 3e 32 63 7e 3d 37 35 88 bd 4c 7f 63 be
       0.12575412 0.06210632 -0.06650775 -0.22216529
0002e0 fd 83 33 3c ab e7 90 3d 4d 97 14 bd e5 40 3a 3d
       0.010956761 0.07075437 -0.036277104 0.045472044
0002f0 c7 05 4a bd b2 45 2c bd c9 05 c6 bd e7 fe 12 3d
       -0.049321916 -0.042058654 -0.09669072 0.035887625
000300 be 09 85 bd d5 c3 4d bb df 3f 41 3c 2e da 16 3e
       -0.06495999 -0.0031397243 0.011795013 0.14731666
000310 94 88 50 be 1b 08 16 be 30 9f f1 bd cd 57 e1 bd
       -0.203646 -0.1465153 -0.11797941 -0.11003075
000320 74 27 76 3d 67 74 27 3d a3 8c 63 bd 37 95 1b 3e
       0.06009622 0.040882494 -0.055554044 0.1519364
000330 f8 28 f3 3d 63 91 0e bd 5e 48 b2 bd de c9 5c bc
       0.118730485 -0.03480662 -0.08705209 -0.013475863
000340 8b cb 0a 3e fb cb 33 be 37 b3 be 3d 6e bb be 3d
       0.13554208 -0.17558281 0.09311526 0.09313093
000350 12 d8 26 3c fd e6 44 bd 48 ed f9 bc bc a8 7a 3c
       0.010183351 -0.04807185 -0.030508652 0.0152990185
000360 4a ce b7 bd e6 98 c9 3d bf 10 07 3e 8b 08 9e 3d
       -0.089748934 0.09843616 0.13189982 0.07716473
000370 3f d3 23 be 06 32 a3 bd 18 59 82 3d 2c d9 d3 bd
       -0.15998553 -0.079685256 0.063646495 -0.103441566
000380 49 0e 5b be 42 ee 12 be c1 41 94 3d 1b e8 06 be
       -0.21392168 -0.143487 0.07239104 -0.13174479
000390 f1 24 07 3e f2 c3 3c 3d b5 25 f9 ba 2c 3f 0e 3e
       0.13197686 0.046085306 -0.001900843 0.13891286
0003a0 52 25 55 3d 52 7b 91 3d aa 68 9e be f7 18 93 bd
       0.052037545 0.071035996 -0.30939227 -0.07182496
0003b0 0c 52 a1 bd b7 e8 a6 3d c5 12 00 3e c2 a6 8e 3d
       -0.07876977 0.081498556 0.1250716 0.069654
0003c0 1e a3 06 be 8b 29 1b 3e 5b 02 76 3d c9 5b a0 3d
       -0.13148162 0.15152566 0.06006084 0.07830007
0003d0 a4 17 cd 3d 0b ed f6 3d fe f1 1c be a9 2c 2f be
       0.10014275 0.12056931 -0.15326688 -0.1710688
0003e0 66 86 fd ba 5f 8d 87 3d ed df fc bd bc 65 86 bc
       -0.0019342422 0.06618761 -0.12347398 -0.016405933
0003f0 e5 8b 56 bd d4 0f 28 be 38 27 35 3d 85 ab e2 bd
       -0.052379508 -0.16412288 0.044226855 -0.11067871

bias f4 [10]
000000 1e 59 88 bd e3 a8 84 bb c2 ef 3f bd 1b b3 09 3e
       -0.06657623 -0.004048453 -0.04685951 0.1344723
000010 da 52 1d be ca bc 78 3d 09 9a 09 bd 90 19 9b 3d
       -0.15363637 0.06072692 -0.033594165 0.07573235
000020 d5 87 04 be 92 43 03 be
       -0.12942441 -0.12818745
