2-hypertuning-mlflow/models/20250927-1409model.pt (torch, 244633 bytes, 6 tensors)

weight f4 [64, 784]
0	0x8c94762a	-2.2874128e-31
1	0xbc96ad79	-0.018393265
2	0xbd6d70f0	-0.057969034
3	0xbd944b57	-0.072409324
4	0xbe127bb8	-0.14305007
5	0xbe1f67bc	-0.15566915
6	0xbe1fc3d2	-0.15602043
7	0xbe691e73	-0.22765522
8	0xbe77bdce	-0.24193498
9	0xbe6fc484	-0.23414809
10	0xbe9e3912	-0.30902916
11	0xbe5deec5	-0.21673115
12	0xbdeb4b80	-0.1148901
13	0x3e72f394	0.2372573
14	0x3eb51e9a	0.3537491
15	0x3e231093	0.15924291
16	0xbc9ffe12	-0.01953033
17	0xbe18be28	-0.14916289
18	0xbe11e653	-0.14248018
19	0xbdcefc58	-0.101067245
20	0xbe013c55	-0.12620671
21	0xbdf3dbad	-0.11907134
22	0xbdc291e1	-0.095004804
23	0xbdd7230f	-0.10504734
24	0xbdac57d3	-0.08415189
25	0xbd2f8698	-0.042852968
26	0xbca49d1c	-0.020094447
27	0xbcce1798	-0.025157735
28	0xb7ecf7dd	-2.8248813e-05
29	0xbc64c938	-0.01396399
30	0xbd74b8d9	-0.059746597
31	0xbdabbd88	-0.083857596
32	0xbdececd6	-0.1156861
33	0xbdef6485	-0.116890945
34	0xbe2d00e6	-0.16894874
35	0xbe76b708	-0.24093258
36	0xbe8949c7	-0.268141
37	0xbe6ed980	-0.23325157
38	0xbe38aab6	-0.18033871
39	0xbda06a59	-0.07832784
40	0x3d2d9b23	0.042384278
41	0x3c821be0	0.015882432
42	0xbd257b54	-0.040400818
43	0x3d343045	0.043991346
44	0x3d6ce48b	0.057835143
45	0xbd1ca139	-0.03823969
46	0xbe002422	-0.12513784
47	0xbdd71a53	-0.10503068
48	0xbdcbf003	-0.09957888
49	0xbda9d3a6	-0.08292322
50	0xbcbcf3cc	-0.02306547
51	0xbe12aba2	-0.14323285
52	0xbdc5bb8c	-0.09654912
53	0xbd823bc3	-0.06359055
54	0xbc87ef74	-0.016593672
55	0x3bf833b4	0.007574523
56	0x3a22a55b	0.00062044495
57	0x3cb0e949	0.021595614
58	0xbc2ad9e3	-0.010427925
59	0xbdfadd71	-0.12249268
60	0xbe212879	-0.15738095
61	0xbe3808c4	-0.17972094
62	0xbe1f06f5	-0.15529998
63	0xbe6d6480	-0.23182869
64	0xbe81c9a2	-0.25349146
65	0xbe573fdf	-0.21020459
66	0xbe091dd7	-0.13390289
67	0xbd3a24c0	-0.045445204
68	0x393599a4	0.0001731874
69	0xbdb2c7df	-0.08729529
70	0xbe1fa045	-0.15588482
71	0xbd09173d	-0.033469427
72	0x3bd22505	0.0064131045
73	0xbceeb9af	-0.029141275
74	0xbbbbc4f9	-0.005730268
75	0xbe020389	-0.12696661
76	0xbe031d66	-0.12804183
77	0xbdfd4a06	-0.123676345
78	0xbd8e0500	-0.069345474
79	0xbc550531	-0.013001726
80	0xbcc5e196	-0.02415542
81	0xbda0c916	-0.07850854
82	0xbd67ff61	-0.056640033
83	0xbd393efc	-0.045226082
84	0x3c8758aa	0.01652177
85	0x3c0df54b	0.008664439
86	0xbca699ee	-0.020337071
87	0xbd89d89f	-0.0673077
88	0xbe01938c	-0.12653941
89	0xbe242c88	-0.16032612
90	0xbe30e3ce	-0.172744
91	0xbe277442	-0.16352943
92	0xbe1d417c	-0.15357012
93	0xbe0c23a6	-0.13685474
94	0xbe0fab47	-0.14030181
95	0xbd858639	-0.065197416
96	0xbc3e5beb	-0.011618595
97	0xbe0d5662	-0.13802484
98	0xbe4eb166	-0.2018486
99	0xbcf3ad6d	-0.029745782
100	0xbc410709	-0.0117814625
101	0xbcad3018	-0.021141097
102	0xbd0f989e	-0.035057656
103	0xbd5cd438	-0.053913325
104	0xbdab7881	-0.08372594
105	0xbdc05d8b	-0.09392842
106	0xbd7b9c2c	-0.061428234
107	0xbdae351c	-0.085062236
108	0xbcb05ba6	-0.021528076
109	0xbd516e6b	-0.051130693
110	0xba93a340	-0.0011263862
111	0xbc6cd6e4	-0.014455531
112	0x3cca6cc1	0.024710061
113	0x3cf91a51	0.030408056
114	0x3c48415a	0.012222612
115	0xbd09605a	-0.033539154
116	0xbd91a2ff	-0.07111167
117	0xbdeba2a0	-0.11505628
118	0xbe2b68aa	-0.16739145
119	0xbe0d7cf7	-0.13817202
120	0xbe3d0fd1	-0.18463065
121	0xbe25f0cc	-0.16205138
122	0xbe10a4cb	-0.14125364
123	0xbd9a397a	-0.07530494
124	0xbd0dd7c2	-0.03462959
125	0xbdcc7e14	-0.09984985
126	0xbe43be20	-0.19115496
127	0xbd72031a	-0.05908499
128	0x3d45716c	0.04820387
129	0x3c87ae22	0.016562525
130	0x3cd7f811	0.026363404
131	0xbdaca6af	-0.0843023
132	0xbd6e7926	-0.058221005
133	0xbd15564c	-0.036459252
134	0xbd5c45dd	-0.053777564
135	0xbdb6e12b	-0.08929666
136	0xbd5138c6	-0.051079534
137	0xbce5362e	-0.027979936
138	0xbcdad311	-0.026711972
139	0x3cc9b9fa	0.024624813
140	0x3b9d5eea	0.0048025744
141	0x3d1a3223	0.03764547
142	0x3bda9eea	0.006671776
143	0xb9aa3509	-0.0003246444
144	0xbd8f438f	-0.06995308
145	0xbe067298	-0.13129652
146	0xbe1a7b1b	-0.15086024
147	0xbe3e4219	-0.18579902
148	0xbe2cff23	-0.16894202
149	0xbe3d16aa	-0.18465677
150	0xbdd18706	-0.10230832
151	0xbddd2d17	-0.10799616
152	0xbd9d1b49	-0.0767122
153	0xbdcf3945	-0.10118345
154	0xbe3544a9	-0.17701973
155	0xbdb65023	-0.089020036
156	0xbca7244e	-0.020403054
157	0x3b573432	0.0032837507
158	0xbca49242	-0.020089272
159	0xbd6797df	-0.05654132
160	0xbe0c318e	-0.13690779
161	0xbd6f4fa9	-0.05842558
162	0xbdbff707	-0.093732886
163	0xbdf12d5a	-0.11776228
164	0xbdaf8658	-0.08570546
165	0xbdac82ee	-0.0842341
166	0xbc78be28	-0.0151820555
167	0x3d59ab56	0.053141914
168	0x3d374742	0.04474569
169	0x3d9f82cf	0.07788622
170	0x3c80eda8	0.015738323
171	0x3cb05a50	0.02152744
172	0xbcaadc3c	-0.020856969
173	0xbd281d0e	-0.041043334
174	0xbd9939ed	-0.074817516
175	0xbe06cc28	-0.13163817
176	0xbdf91284	-0.12161735
177	0xbe0f69e4	-0.14005238
178	0xbdc58d34	-0.09646073
179	0xbdb8d109	-0.09024245
180	0xbd4bfe3d	-0.049803007
181	0xbe2242a2	-0.15845731
182	0xbe386a29	-0.18009247
183	0xbdea7ee8	-0.11449987
184	0xbd87f823	-0.06639125
185	0x3d1ac933	0.037789535
186	0x3ddbe1e5	0.10736445
187	0x3cbd4d4a	0.023108143
188	0xbd9f0194	-0.07763973
189	0xbdac3c6d	-0.08409963
190	0xbd8021ad	-0.06256423
191	0xbd82f662	-0.0639465
192	0xbd47cf59	-0.048781727
193	0xbdfa5fd2	-0.122253075
194	0xbdca2493	-0.09870257
195	0xbc3617d5	-0.01111408
196	0x3d8c31cc	0.068454355
197	0xbbc2bacb	-0.0059426776
198	0xbb7034d9	-0.0036652593
199	0xbc3eab7c	-0.011637565
200	0xbce57506	-0.028009903
201	0xbcdcedd4	-0.026968874
202	0xbe08261a	-0.13295785
203	0xbe087435	-0.1332558
204	0xbdde5fc5	-0.1085811
205	0xbe0c6d7b	-0.13713638
206	0xbdcd1edf	-0.10015654
207	0xbe00d6e5	-0.12581976
208	0xbe06214c	-0.13098639
209	0xbe6acee7	-0.2293049
210	0xbe72b780	-0.23702812
211	0xbe084cd9	-0.13310565
212	0xbda1a973	-0.07893648
213	0xbb8d79bc	-0.0043174904
214	0x3defca6c	0.11708531
215	0x3d4a0916	0.04932507
216	0xbb9d0029	-0.004791279
217	0xbdfbbd0c	-0.12291917
218	0xbde75ff6	-0.112976
219	0xbda47691	-0.08030427
220	0xbd7170be	-0.05894541
221	0xbdd48693	-0.103772305
222	0xbde303e3	-0.11084726
223	0xbd82b71c	-0.063825816
224	0x3d6d5c68	0.057949454
225	0x3c5a3054	0.013317186
226	0x3d07c3bc	0.03314565
227	0x3a2f359f	0.00066837104
228	0xbbf7d7fc	-0.007563589
229	0xbd59d0a8	-0.053177506
230	0xbd656b61	-0.056010608
231	0xbde2806e	-0.11059652
232	0xbdc876cc	-0.09788284
233	0xbdf0bb89	-0.117545195
234	0xbda083ba	-0.07837625
235	0xbda5151c	-0.08060667
236	0xbe0a1c56	-0.13487372
237	0xbe29bf5b	-0.16576903
238	0xbe5ded59	-0.21672572
239	0xbe2d24d8	-0.16908586
240	0x3addeb61	0.001693111
241	0x3d0b323c	0.033983454
242	0x3cd48a6c	0.025944911
243	0x3c863e4c	0.016387127
244	0xbcc46742	-0.023975018
245	0xbcffbabe	-0.031216975
246	0xbc94112a	-0.01807459
247	0xbc60d6ea	-0.0137231145
248	0xbbe94245	-0.0071184956
249	0xbd80f255	-0.06296221
250	0xbcf19e39	-0.029494392
251	0x3d838968	0.064226925
252	0x3d994f0d	0.07485781
253	0x3d6e5ee5	0.058195967
254	0x3cb4cd66	0.022070598
255	0x3bf0282b	0.007329007

bias f4 [64]
0	0x3de170b0	0.110078216
1	0x3e38d296	0.18049082
2	0x3df7e39d	0.12103961
3	0xbd0813dc	-0.033222064
4	0xbe1552bc	-0.14582342
5	0x3e26a0c1	0.1627226
6	0xbb8f63e4	-0.0043759216
7	0xbc007d88	-0.007842429
8	0x3dfe7455	0.12424532
9	0xbda0979e	-0.07841419
10	0xbb5219a2	-0.0032058735
11	0x3c5aa6cc	0.013345432
12	0x3d7d2c19	0.061809633
13	0xbcbed928	-0.023296908
14	0xbd6c84b5	-0.057743747
15	0xbcedb3f5	-0.029016474
16	0xbd8ed751	-0.06974662
17	0xbc6d0f37	-0.0144689595
18	0x3ccf1f8e	0.025283601
19	0xbb7b7bcb	-0.0038373347
20	0x3bf97980	0.007613361
21	0xbc866184	-0.016403921
22	0x3e46d048	0.1941539
23	0xbda38a44	-0.079853565
24	0x3e92cc37	0.2867143
25	0x3aded953	0.0017002024
26	0xbd86d880	-0.06584263
27	0x3d935bbd	0.07195232
28	0x3c032429	0.008004227
29	0x3e3032c9	0.17206873
30	0x3dbe861f	0.09302925
31	0xbc9f325a	-0.01943319
32	0xbdef0ea4	-0.11672714
33	0xbe1eefe9	-0.15521206
34	0x3bb1dc98	0.005427908
35	0xbe3b2aff	-0.1827812
36	0x3cbfc6de	0.023410257
37	0x3e87d1d5	0.26527277
38	0xbc80112a	-0.015633184
39	0xbe27588f	-0.16342376
40	0x3e307b00	0.17234421
41	0xbd117c5e	-0.035518996
42	0xbd190280	-0.0373559
43	0x3c5c0484	0.013428811
44	0x3e197c9c	0.14988941
45	0x3eb51811	0.35369924
46	0x3e839b9f	0.25704667
47	0x3e936161	0.28785232
48	0x3ebb9f85	0.3664514
49	0x3e2f3749	0.17110933
50	0x3d0a7c4e	0.033809952
51	0x3d15fdba	0.036618926
52	0xbd1f8b31	-0.038951103
53	0xbe45a3aa	-0.19300714
54	0xbd659392	-0.056048937
55	0x3cf09f1b	0.029372742
56	0x3d07044f	0.032963093
57	0xbd16dbad	-0.036830593
58	0xbe1e0124	-0.15430123
59	0x3df5bdee	0.11999117
60	0x3e574c0b	0.21025102
61	0x3c4714de	0.012150971
62	0x3e4580d2	0.19287422
63	0x3e500216	0.20313296

weight f4 [128, 64]
0	0xbe272fe9	-0.1632687
1	0xbe544961	-0.20731117
2	0x3dfa5a28	0.12224227
3	0x18916c6d	3.7591104e-24
4	0xbe061a1a	-0.13095894
5	0xbdba7cd1	-0.09105838
6	0x3b3035a6	0.0026887446
7	0x3ddaef9a	0.106902316
8	0x3d7b4035	0.06134053
9	0xbd84ce43	-0.06484654
10	0x3d771c9e	0.060330026
11	0x3c7fa47b	0.01560318
12	0xbdb0069e	-0.08595012
13	0xbc817701	-0.015803816
14	0x3e28f20f	0.16498588
15	0x3debdeab	0.1151708
16	0x3de15b89	0.11003787
17	0xb24cec7b	-1.1928132e-08
18	0x3cf130ba	0.02944218
19	0x3d608387	0.054812934
20	0x3c1abeb2	0.009444879
21	0x3dcba7ba	0.09944101
22	0xbae7d354	-0.0017686882
23	0xbd80701e	-0.06271385
24	0x3d85a1cb	0.06525
25	0xba41fe6a	-0.00074002764
26	0xbde4ddf8	-0.1117515
27	0xbd5d7645	-0.05406787
28	0xbbfdc340	-0.007744223
29	0xbe619a12	-0.2203143
30	0x3c9b447e	0.018953558
31	0x3d33a8f8	0.043862313
32	0x3db40997	0.087908916
33	0xbdd40782	-0.103529945
34	0xbe01692a	-0.12637773
35	0x3ce5b3a5	0.028039763
36	0x3d2d72f6	0.042345963
37	0x3deefbab	0.116690956
38	0x3991f5d6	0.00027839717
39	0xbdfd0df7	-0.12356179
40	0x3d548b24	0.051890507
41	0x3d96b557	0.073588066
42	0x3de3b48a	0.111184195
43	0x3bbb3ae0	0.0057138056
44	0x3d98d839	0.07463116
45	0x3d7e9480	0.06215334
46	0xbd974beb	-0.07387527
47	0xbce77292	-0.028252874
48	0xbd4a91eb	-0.049455564
49	0x3daeb48a	0.08530529
50	0x3d183fc7	0.037170198
51	0xbd08ab2c	-0.033366367
52	0x3d6ee298	0.058321565
53	0x3df49651	0.11942733
54	0x3e08eb7f	0.13371085
55	0x3d9a4f30	0.07534635
56	0xbd68b820	-0.05681622
57	0x3de6ca19	0.11269016
58	0x3dcbed0a	0.09957321
59	0x3d279adf	0.04091918
60	0x3dbae0fd	0.09124944
61	0xbe439000	-0.190979
62	0xbe083ae1	-0.1330371
63	0xbded4b22	-0.11586596
64	0x3db549d7	0.088519745
65	0x3d98905e	0.07449411
66	0xbdfb37c6	-0.12266497
67	0xb7fe6336	-3.0325358e-05
68	0x3d5aafb5	0.053390224
69	0x3e0ee188	0.13953221
70	0x3b71d7cf	0.0036902314
71	0x3df2b7b2	0.11851443
72	0xbe02e06c	-0.12780923
73	0xbdebfb0b	-0.11522492
74	0x3d27ad80	0.040936947
75	0xbc96196c	-0.018322669
76	0xbddfcde9	-0.10927946
77	0x0ea3ef52	4.041306e-30
78	0xbd49cce2	-0.049267657
79	0x3e258116	0.16162524
80	0x3d3349ed	0.043771673
81	0x8d456b56	-6.0834513e-31
82	0xb8afea81	-8.38833e-05
83	0x99f0eb2b	-2.4910402e-23
84	0x3d328f30	0.043593585
85	0xbd502e7d	-0.050825585
86	0x3da4279a	0.08015366
87	0xbe501778	-0.20321453
88	0x3d8f200b	0.069885336
89	0x3e0357c6	0.12826452
90	0xbdea4fdb	-0.114410125
91	0xbe1dae4b	-0.15398519
92	0x3ce3923b	0.027779689
93	0x3e6f1297	0.23346935
94	0xbda5a693	-0.08088412
95	0xbd1be46c	-0.038059637
96	0xbd52eb5b	-0.051493984
97	0x3c11fe0c	0.008910667
98	0x3d7f3556	0.062306724
99	0xbc3c48c5	-0.011491959
100	0x3d58d50e	0.05293756
101	0xbdc4a4cd	-0.09601746
102	0x23aa9798	1.849564e-17
103	0x3db3f489	0.08786876
104	0x3e1aefd9	0.15130557
105	0xbc08cbcf	-0.008349373
106	0xbcc927c1	-0.024555089
107	0xbdb628d8	-0.08894509
108	0x3cdc4634	0.026888944
109	0x3de2b689	0.11069972
110	0xbe3e5d74	-0.18590337
111	0x3e0dd67a	0.13851348
112	0x3e078dfc	0.13237756
113	0x3d3edf8d	0.046599913
114	0x3c68464d	0.014176917
115	0xbe4679d5	-0.19382413
116	0x3d819ff5	0.063293375
117	0xbc77bdf4	-0.015120972
118	0xbdad4961	-0.084612615
119	0x3d7f65b5	0.062352855
120	0xbdfb4924	-0.1226981
121	0xbb93744a	-0.0044999467
122	0xbd23b73b	-0.039969664
123	0x3dc8a818	0.09797686
124	0x3d257bc5	0.04040124
125	0x3d5f65c2	0.054540403
126	0xbd06b542	-0.032887705
127	0x3d49d201	0.04927254
128	0xbe32a2bf	-0.17444895
129	0x3df77505	0.120828666
130	0x3e2b6339	0.16737069
131	0x8fd0ab6f	-2.0576417e-29
132	0x3ddd63e2	0.10810067
133	0x3ca1021c	0.019654326
134	0x0d01a3e7	3.9948484e-31
135	0xbcdcf9ef	-0.026974646
136	0x3dfdb38c	0.123877615
137	0xbd664aab	-0.056223553
138	0x966cab04	-1.9117891e-25
139	0x3de0cc1a	0.10976429
140	0x3d5c6d48	0.053815156
141	0x90a6a1fc	-6.572503e-29
142	0x3d90cb22	0.070699945
143	0x3d040266	0.03222885
144	0xbd41ee10	-0.047346175
145	0xb407f54f	-1.2662098e-07
146	0x89a0ec84	-3.8741017e-33
147	0x8cbefa81	-2.9424902e-31
148	0x8cfe42f1	-3.9175185e-31
149	0x3e176cdf	0.14787625
150	0xbe1913aa	-0.14948907
151	0xbd28a1f5	-0.04117008
152	0x3db104f5	0.086435236
153	0xbe0e4267	-0.13892518
154	0xbc86d551	-0.016459139
155	0x3e07f129	0.13275589
156	0x90e6b850	-9.100298e-29
157	0xbe480615	-0.1953357
158	0x3d972843	0.07380726
159	0x8ca609dd	-2.5582286e-31
160	0xbdac8127	-0.08423071
161	0xbd2d9b50	-0.042384446
162	0xbd5e1888	-0.054222614
163	0xbdcc0006	-0.09960942
164	0x0b86caf9	5.192032e-32
165	0x3bf997f0	0.0076169893
166	0x9387820a	-3.420702e-27
167	0xbce3b964	-0.027798362
168	0x3d6f7998	0.05846557
169	0x0c5287ce	1.6218679e-31
170	0x3daa6a72	0.08321084
171	0xbdabde17	-0.0839197
172	0x3dcfe73a	0.10151525
173	0xbd0ab3af	-0.033862766
174	0x3e01492b	0.12625568
175	0xbd232654	-0.039831474
176	0xbc414b4f	-0.01179774
177	0x3d378066	0.044800185
178	0x3d5386c6	0.0516422
179	0xbc5f0802	-0.013612749
180	0x3c58e3ce	0.013237907
181	0x3c1579f3	0.009123313
182	0x3a4122d7	0.0007367557
183	0xbdf65dae	-0.12029587
184	0xbd945ae5	-0.07243899
185	0xbd52aa62	-0.05143202
186	0x3df061f3	0.11737432
187	0x3dc31e93	0.09527316
188	0x3d5a43e1	0.05328739
189	0x3dc682cd	0.09692917
190	0x3b883610	0.0041568354
191	0xbbc62a10	-0.0060474947
192	0x3dae5a30	0.08513296
193	0xbe2e3c28	-0.17015135
194	0xbdf0ae0f	-0.11751949
195	0xb4f4e3d8	-4.561432e-07
196	0xbcaa921f	-0.02082163
197	0x3dcc2ad8	0.09969109
198	0xb92e3b48	-0.00016616017
199	0xbd86d044	-0.06582692
200	0xbd3f6c18	-0.046733946
201	0x3d4ac9f6	0.04950901
202	0xbcf8f234	-0.030388929
203	0xbe08489a	-0.13308945
204	0xbe58b8d4	-0.21164256
205	0xbcdf6552	-0.027269993
206	0xbd6f89ba	-0.058480956
207	0xbd4fd1a9	-0.050737057
208	0xbc66ca70	-0.014086351
209	0xbb1cb26f	-0.0023910066
210	0x3c559a97	0.013037345
211	0x3d21f49a	0.03953991
212	0xbcb622aa	-0.022233326
213	0x3deaed6d	0.114710666
214	0x3e1706ed	0.14748736
215	0x3db6e2a8	0.0892995
216	0x3dd0be72	0.101925746
217	0xbe0341cf	-0.12818073
218	0x3da44184	0.080203086
219	0x3d226091	0.039642874
220	0xbd0b6c57	-0.034038868
221	0xbea7fb21	-0.32808784
222	0xbe6486f6	-0.22317109
223	0x3cf9b54c	0.030481957
224	0xbe2c22f4	-0.16810209
225	0xbd10cc9b	-0.035351377
226	0xbc3d91f2	-0.011570441
227	0xbd0ddc33	-0.034633826
228	0x3a2ab7b7	0.0006512361
229	0x3e0711b5	0.13190348
230	0xbbf8ba86	-0.0075905947
231	0xbd8ff225	-0.07028607
232	0xbce84472	-0.02835295
233	0xbd1820ab	-0.03714053
234	0xbe267242	-0.16254523
235	0x3d1a6930	0.03769797
236	0xbd47b948	-0.048760682
237	0x3d0c74a0	0.03429091
238	0xbde29621	-0.11063791
239	0xbe4734ab	-0.19453685
240	0xbc111ce8	-0.008856989
241	0x3c4c8a03	0.012484076
242	0x3d0282de	0.031863086
243	0x3e0ff4cc	0.14058226
244	0x3a5a35be	0.0008324048
245	0x3ccd3586	0.025049936
246	0x3da0320d	0.078220464
247	0x3db8f8d4	0.09031835
248	0x3d47ac29	0.04874817
249	0x3d981553	0.07425942
250	0xbd6f76c4	-0.058462873
251	0xbd9c9ae6	-0.07646732
252	0xbdc10463	-0.09424665
253	0x3d236504	0.039891258
254	0x3c99c2ba	0.01876961
255	0x3dd759ba	0.10515161

bias f4 [128]
0	0xbd8b2129	-0.06793434
1	0x3c1b48e0	0.009477824
2	0x3d2d0159	0.042237613
3	0x3de0b9ac	0.10972914
4	0xbce4cc9b	-0.027929595
5	0x3d6dece2	0.058087237
6	0x3db2933b	0.08719488
7	0xbd8effe8	-0.06982404
8	0xbce33fe0	-0.027740419
9	0x3d8d0305	0.068853416
10	0xbcb05fae	-0.021529999
11	0x3e54d24d	0.20783348
12	0x3e589326	0.21149883
13	0x3e181312	0.14851025
14	0x3b903b7b	0.004401622
15	0x3df2283e	0.11824082
16	0xbc2e04a5	-0.0106212245
17	0x3e023c88	0.12718403
18	0x3e7ebb84	0.24876219
19	0x3e08b15b	0.13348906
20	0xbc0fea3a	-0.008783871
21	0x3d882ced	0.06649194
22	0x3cb47656	0.022029083
23	0x3e479846	0.19491681
24	0xbd3cfa4c	-0.04613714
25	0xbca05681	-0.019572498
26	0x3b8af894	0.0042410586
27	0x3cb9f999	0.022702025
28	0x3e059b01	0.1304741
29	0x3e5150d2	0.20440987
30	0x3e420f4d	0.1895115
31	0xbd2702d5	-0.040774185
32	0x3e18f2cc	0.1493637
33	0x3e728f30	0.23687434
34	0x3d09001b	0.033447366
35	0x3c08919a	0.008335495
36	0xbd9a4b30	-0.07533872
37	0x3e6d3a9b	0.23166887
38	0x3e1559bf	0.14585017
39	0xbcae37f9	-0.021266924
40	0x3dea992f	0.11454999
41	0x3dfca71f	0.12336563
42	0x3d88f55c	0.066874236
43	0x3e3b5e77	0.18297754
44	0xbc275e62	-0.010215374
45	0x3d9db2dd	0.07700131
46	0xbe36f975	-0.17868598
47	0x3d26e8b9	0.040749285
48	0xbcab6e2b	-0.020926556
49	0xbca67deb	-0.020323714
50	0x3d05787e	0.032585613
51	0x3dddcebd	0.10830448
52	0x3ca773c6	0.020440947
53	0x3e068880	0.13138008
54	0xbd74fbbe	-0.059810393
55	0x3dd21cba	0.102593854
56	0x3e52d4ce	0.20588991
57	0xbd448831	-0.047981445
58	0x3e3725ee	0.17885563
59	0x3d804245	0.0626264
60	0x3e1a749c	0.15083545
61	0xbc5d5fb2	-0.013511585
62	0x3c7dec70	0.015498266
63	0x3ea72aff	0.3264999
64	0xbdffdee1	-0.12493683
65	0x3e617904	0.2201882
66	0xbde79c47	-0.113091044
67	0x3e4c1069	0.19928135
68	0x3c713fca	0.014724681
69	0x3ddf708b	0.10910138
70	0x3e4a8d29	0.19780411
71	0x3e9be1de	0.3044576
72	0x3ea2951e	0.31754392
73	0x3e9c0c00	0.30477905
74	0x3dbeba7c	0.09312913
75	0x3dbe24e4	0.0928438
76	0x3da056e2	0.078290716
77	0xbc0f93ca	-0.008763263
78	0xbc704453	-0.014664727
79	0x3df4270b	0.11921509
80	0x3d855baf	0.06511628
81	0xbd27dd1d	-0.040982354
82	0x3e849c2a	0.25900394
83	0x3e0ba627	0.13637601
84	0x3e920857	0.28521988
85	0xbd26fa24	-0.040765896
86	0xbd357a6e	-0.04430621
87	0x3e295884	0.16537672
88	0x3eb0c0a3	0.3452197
89	0xbc5732bf	-0.013134657
90	0x3d719e81	0.05898905
91	0x3d806459	0.0626914
92	0x3e86bb34	0.263147
93	0x3ca44299	0.020051287
94	0x3dc1278b	0.0943137
95	0x3e4d6562	0.20058206
96	0xbe91a08b	-0.28442797
97	0x3e278d58	0.16362512
98	0x3e8e9f68	0.27855992
99	0x3e1efa8f	0.15525268
100	0x3e8e6e77	0.27818653
101	0xbc96167a	-0.018321265
102	0xbd7147ee	-0.058906488
103	0xaba1f05c	-1.1506451e-12
104	0x3cdc5c76	0.026899558
105	0x3defa47e	0.11701296
106	0xbe1ff03a	-0.15618983
107	0x3b36e6c9	0.0027908555
108	0x3de8302a	0.113373116
109	0xbe001ca7	-0.1251093
110	0xbcebd554	-0.028788246
111	0x3e4f6372	0.20252779
112	0x3d96503a	0.07339521
113	0x3d1e3b9a	0.03863106
114	0x3e77e450	0.24208188
115	0x3d583e9b	0.05279408
116	0xbd9efaa8	-0.07762653
117	0xbc50c7cc	-0.012742948
118	0x3de3e956	0.1112849
119	0xbc75df2c	-0.015006822
120	0x3df8a0f6	0.12140076
121	0x3e71b590	0.23604417
122	0x3da0e69a	0.07856484
123	0xbcde55f2	-0.027140591
124	0x3d506a05	0.050882358
125	0xbdd10394	-0.102057606
126	0xbcf295cb	-0.029612442
127	0x3dc52140	0.096254826

weight f4 [10, 128]
0	0xbd974220	-0.07385659
1	0xbd2f2367	-0.04275837
2	0x3d073068	0.03300515
3	0xbca369ec	-0.019947968
4	0x3d1be8ac	0.03806369
5	0x3d9a80fc	0.07544133
6	0xbd6a6913	-0.057229113
7	0x3d940b9d	0.072287776
8	0x3d447fd3	0.047973465
9	0x3d55cf1d	0.05219947
10	0xbc058055	-0.0081482725
11	0x3def17d8	0.1167447
12	0x3c63bbf0	0.013899788
13	0x3d84a9bf	0.06477689
14	0x3c656e20	0.014003307
15	0x3d1f83bf	0.038944002
16	0xbdabea34	-0.0839428
17	0x3cb23e84	0.021758325
18	0xbe2c0b42	-0.1680117
19	0x3da7a2fc	0.08185384
20	0x3bfb1958	0.0076629333
21	0x3cfbbde2	0.030730192
22	0x3d854677	0.06507581
23	0x3e00538d	0.12531872
24	0x3d863c4e	0.06554471
25	0xbcc94aaf	-0.024571745
26	0x3cb648cb	0.022251507
27	0xbd729973	-0.05922837
28	0x3d94a35e	0.07257722
29	0x3d6843df	0.056705352
30	0xbe088908	-0.13333523
31	0x3d223af2	0.039606996
32	0x3d29da0e	0.04146772
33	0x3d7d88ce	0.061898045
34	0x3cd64b3f	0.026158927
35	0xbdda902f	-0.10672032
36	0x3c8031c7	0.015648736
37	0xbde035cd	-0.10947762
38	0xbcd0ca5b	-0.025487116
39	0xbc7e8564	-0.0155347325
40	0xbe14baee	-0.14524433
41	0x3d1ade9f	0.037809964
42	0xbd926aa8	-0.07149249
43	0x3c436a3d	0.011927185
44	0x3c922d03	0.017843729
45	0xbd5b22d0	-0.053499997
46	0xbdae92f7	-0.08524125
47	0xbcbbf1a6	-0.022942375
48	0x3da215f4	0.079143435
49	0xbc70974a	-0.014684508
50	0xbc2607da	-0.010133708
51	0xbddaa18b	-0.10675343
52	0x3d663400	0.056201935
53	0x3caa65e2	0.020800535
54	0xbd9dab20	-0.07698655
55	0x3d3c0830	0.045906246
56	0xbc3c9ee5	-0.011512493
57	0x3d6f3d27	0.05840793
58	0xbe62b582	-0.22139552
59	0x3d886cb1	0.06661356
60	0x3d852f1a	0.065031245
61	0x3718a1d2	9.097583e-06
62	0x3d7f006f	0.062256273
63	0xbd801181	-0.062533386
64	0x3d4d561f	0.05013096
65	0x3d93a7fe	0.07209776
66	0xbdf60d1b	-0.120142184
67	0xbc925df1	-0.01786706
68	0xbdabadb4	-0.083827406
69	0xbdcef9c1	-0.101062305
70	0x3d09bce6	0.033627413
71	0x3cf3e310	0.029771358
72	0x3d6105f3	0.054937314
73	0xbe10e104	-0.14148337
74	0x3c9ae40f	0.018907575
75	0x3d22ebc9	0.039775643
76	0xbe386166	-0.18005905
77	0xbc4c35ec	-0.012464028
78	0xbd8f39fa	-0.0699348
79	0xbd4fb973	-0.050713968
80	0xbd89da5c	-0.06731102
81	0x3b1be5e5	0.002378815
82	0xbe8d06b2	-0.2754417
83	0xbe4b690f	-0.19864295
84	0xbe2f8823	-0.17141776
85	0x3c0a587b	0.008443947
86	0x3d137656	0.036001526
87	0xbd3f438a	-0.04669527
88	0x3c52cdc3	0.01286644
89	0x3d169f05	0.036772747
90	0xbe01ccf2	-0.12675837
91	0x3d14c37c	0.03631924
92	0xbce6dff9	-0.02818297
93	0xbc6ff702	-0.014646294
94	0xbc48f704	-0.012265924
95	0x3c9d0674	0.019168116
96	0x3d29beac	0.041441604
97	0xbe480bf4	-0.1953581
98	0x3d4e07af	0.050300296
99	0x3b9b8558	0.0047461204
100	0xbddc3251	-0.107517846
101	0x3c4f6df0	0.0126604885
102	0x3db08315	0.08618752
103	0x20892ec3	2.3239647e-19
104	0xbdb59b9c	-0.08867571
105	0xbdbecff3	-0.09317007
106	0xbdb23b9d	-0.087027766
107	0xbe1cea4c	-0.15323752
108	0x3d55c411	0.052188937
109	0xbdea4001	-0.11437989
110	0x3c2d7f94	0.010589499
111	0xbd9d3341	-0.076757915
112	0xbd007998	-0.03136596
113	0xbb224394	-0.0024759518
114	0xbd92f946	-0.071764514
115	0x3d99b569	0.07505304
116	0xbe4a527a	-0.19758025
117	0x3dc0d190	0.09414971
118	0xbe0b3177	-0.13593088
119	0xbe0afcc6	-0.13572988
120	0x3e308872	0.1723955
121	0xbdd1226e	-0.10211645
122	0xbe584251	-0.21119048
123	0xbe166f08	-0.14690793
124	0x3cccd090	0.025001794
125	0xbe28b780	-0.1647625
126	0xbc618350	-0.0137642175
127	0xbd1c280c	-0.03812413
128	0xbad3f481	-0.001617089
129	0x3b8d67dc	0.0043153595
130	0x3cfc2149	0.03077759
131	0xbd9396fb	-0.072065316
132	0x3db97916	0.090562984
133	0x3ced81f6	0.028992634
134	0x3e4686fd	0.19387431
135	0xbe22f3a6	-0.15913257
136	0xbdd3e30a	-0.10346039
137	0xbd091c36	-0.03347417
138	0x3c92ca60	0.017918766
139	0xbe4bed19	-0.19914664
140	0xbd037b9c	-0.032100305
141	0x3dc1f3c3	0.09470322
142	0xbc515d10	-0.0127785355
143	0x3dbfd884	0.09367469
144	0x3e146c98	0.1449455
145	0xbe0c0470	-0.13673568
146	0xbde6e784	-0.11274627
147	0xbdc72649	-0.09724099
148	0xba556a85	-0.0008141178
149	0x3da7b28d	0.08188353
150	0xbe1a1d3e	-0.15050218
151	0x3dc8cd61	0.09804798
152	0x3e02ce47	0.12774001
153	0x3b2659f8	0.0025383215
154	0xbd0513f7	-0.032489743
155	0xbe123212	-0.14276913
156	0xbe3c455e	-0.18385836
157	0x3a91a45f	0.0011111608
158	0x3d9ad27f	0.0755968
159	0x3db6c20e	0.08923732
160	0xbd8d2399	-0.06891555
161	0xbe572466	-0.21009979
162	0xbe00f234	-0.12592393
163	0x3e5983d5	0.21241696
164	0x3e29fd5a	0.16600552
165	0x3c89b9c0	0.016812205
166	0xbe250676	-0.16115746
167	0xbd048f90	-0.032363474
168	0x3defdc79	0.11711974
169	0x3be4ccae	0.0069824075
170	0xbdd4fc16	-0.10399644
171	0x3de58a80	0.112080574
172	0xbd673b99	-0.05645332
173	0xbe09a8d3	-0.13443308
174	0x3db203dc	0.08692142
175	0x3d4025ec	0.046911165
176	0xbcc16fe3	-0.023612922
177	0xbd4dc059	-0.050232265
178	0xbcc441a3	-0.02395708
179	0xbe2f7e27	-0.17137967
180	0xbd4f6193	-0.050630163
181	0xbda95357	-0.08267849
182	0xbdbd985d	-0.092575766
183	0xbe17732c	-0.14790028
184	0xbd3fe513	-0.04684932
185	0x3de4c8b4	0.111710936
186	0x3d9c07d0	0.076186776
187	0x3d5f0d5e	0.054456107
188	0xbdad80f3	-0.08471861
189	0xbbb66fdb	-0.0055675334
190	0x3deeb5c7	0.11655765
191	0xbebe7eb3	-0.3720604
192	0x3e02c5df	0.12770794
193	0xbe44115c	-0.19147247
194	0x3e187af4	0.14890653
195	0x3cf49905	0.029858122
196	0xbd8bf47a	-0.068337396
197	0xbe58de7a	-0.21178618
198	0xbc446961	-0.011988015
199	0xbec37e53	-0.38182315
200	0xbe775968	-0.241552
201	0xbe9f4dd9	-0.3111408
202	0xbd29dd07	-0.041470554
203	0xbdca66f0	-0.09882915
204	0xbe3fb8a2	-0.18722776
205	0xb6832fba	-3.9096603e-06
206	0xbe1c8d7e	-0.1528835
207	0x3c901585	0.017588386
208	0x3e0f5f9b	0.14001314
209	0x3dc51363	0.09622838
210	0xbebb5f9d	-0.36596385
211	0xba72c970	-0.0009261584
212	0xbe345656	-0.1761106
213	0x3dface5a	0.1224639
214	0xbc7a90d3	-0.015293318
215	0xbea1fa85	-0.31636444
216	0xbe8f4ea7	-0.27989694
217	0xbdac8bef	-0.08425128
218	0xbde50921	-0.11183382
219	0x3db6e61b	0.08930608
220	0x3d2059d8	0.03914818
221	0xbb66456a	-0.003513659
222	0x3d9ed4f1	0.07755459
223	0xbdcf4d35	-0.10122148
224	0x3be12aec	0.0068715718
225	0xbe63f7a2	-0.22262433
226	0xbe34ff6f	-0.17675565
227	0x3d5d4b92	0.054027148
228	0xbdba5413	-0.09098067
229	0xbc8cc61c	-0.01718431
230	0xbdd4fb58	-0.103995025
231	0x9d6d8d40	-3.1439713e-21
232	0xbcd97c1e	-0.026548441
233	0xbe2f2de5	-0.17107351
234	0xbdbc6891	-0.09199632
235	0xbe37d720	-0.17953157
236	0xbd2786ec	-0.040900156
237	0x3d095b6a	0.033534445
238	0xbe23e435	-0.16005023
239	0xbc134172	-0.008987771
240	0xbcb1d7b4	-0.0217093
241	0x3c45ca00	0.012072086
242	0xbdf798b4	-0.12089673
243	0xbe166032	-0.14685133
244	0xbdec3f65	-0.11535529
245	0xbe20dbe4	-0.15708882
246	0xbe00e245	-0.12586315
247	0x3e4bda1a	0.19907418
248	0xbd5a0c8b	-0.05323462
249	0xbe2afcae	-0.16697952
250	0x3e10ac99	0.14128341
251	0xbd9e206e	-0.07721029
252	0xbdcab80f	-0.09898388
253	0xbc0e422e	-0.008682771
254	0xbc3443df	-0.01100251
255	0x3dd4c9f7	0.10390084

bias f4 [10]
0	0x3c8776dd	0.01653617
1	0x3c959db1	0.01826367
2	0xbc74ac30	-0.014933631
3	0x3de77f88	0.113036215
4	0xbcbd0467	-0.023073388
5	0x3e4c04c0	0.19923687
6	0x3e215ddc	0.15758461
7	0x3c48d5c5	0.012257998
8	0xbe223c8a	-0.15843406
9	0xbe61d80c	-0.22055072
