2-hypertuning-mlflow/models/20250926-1522model.pt (torch, 244633 bytes, 6 tensors)

weight f4 [64, 784]
00000000: 716f 2a24 5034 16a2 0474 8221 835f 2b27
00000010: cb33 c3a2 d608 36a4 e005 6c38 f7f0 5e3c
00000020: 535d 773c ef68 03bd a990 dcbb ca32 cfbc
00000030: 617c 8dbc 2fe6 bdba 0b19 fabc fdeb a1bc
00000040: 3f50 953c 24aa d9bc 9bb6 a43c 7bf1 8e3b
00000050: 52f3 213c b673 50bb 9ecd d337 43f3 be21
00000060: cd2b 1fa3 543f 8ab4 a439 a7a4 ad8e ea22
00000070: 40c5 af22 d275 eca4 3ec7 6d23 a68f 17a4
00000080: 5e3d 5baf 6f1e a63b 9857 893c 69f6 a2bc
00000090: 8186 c53b 108e adbb d0f2 38bc eaef 3ebb
000000a0: b4a8 d73a 8880 aa3b 853c e1bc e325 d5bc
000000b0: 552b 9e3b 7804 a23c 4fc7 b8bc bf4f 19bb
000000c0: 409c 523c 2f4a 6fbc b5a4 debc 31dd 2db9
000000d0: 99a5 0ea4 a779 d122 d851 7ba4 7516 83a3
000000e0: 0c1e 8ea3 5e35 b224 d72f 90a4 b214 ac3b
000000f0: e4b9 523c 250a 80bb 9ecc 35ba c612 ffbb
00000100: 0b84 5a3c 38b7 1c3c 4f70 933b 1b4b 9ebb
00000110: 8dd1 dbbc 9a3e d5bc 59bc 69bc 733d 1e3c
00000120: c885 863b dfc8 62bc 7984 a0b9 c095 50bb
00000130: 3b69 8e3c 1e06 b03c f618 6dba 11b3 d3bc
00000140: 7771 883c 4d24 633b 1531 41a4 866f fa23
00000150: f563 21a3 b814 0223 0eef 92bc e55d 46bc
00000160: 5a8b 79bb b89a 433b e128 84bb 1450 ff3b
00000170: 22f3 bc3b 2ca4 0cbd d244 fdbc 9bb3 1dba
00000180: 928a 793c 061a d73b fa7f ce39 a746 7dbc
00000190: 0a5d 823c bf07 2ebc 4d75 4a3c ad8a 193c
000001a0: 68cd 1abc 4230 11bd c072 0cbc deeb 98bc
000001b0: 1ac3 bc3a 4a6b bb3c cad3 39bb a3fb 2322
000001c0: 41bc 11a5 6ca5 c622 7d2a 623c 9de9 03bd
000001d0: 0792 d2bc e3fe c13a c91a 00bc 5cb5 e0bc
000001e0: 6088 65bc bd6a d0bc b153 cbbb 8c01 c0bc
000001f0: 8ccd 66bc bf94 bcbc e086 a2bc 6bf2 a0bc
00000200: 6aae 1abc 8b94 62bb 289c 7bbc 5b0c c5bb
00000210: f666 033c 52e4 ec3b 0548 e8a6 e385 093c
00000220: 64ba e6bc 6c69 a63c ed4b f6bc dd64 44a3
00000230: 6876 7923 3c67 851f 5271 33a4 e1f3 50bc
00000240: a54a a8bb 3d6e b8bb de47 e13a a394 e73b
00000250: 37ad c43b 8992 6d3c c961 c73c 2da8 30bc
00000260: 7a91 b3bc 97f3 753b b967 0dbc 3d85 3d3b
00000270: c046 3abc c545 b33c 2a7e 283b b65e 99bb
00000280: c224 6e3b 24ea 753c 85a3 4930 b8c6 ad3c
00000290: 3248 5c3c adc0 833c 1911 3e3a a2c2 0724
000002a0: b226 2aa2 c2f5 9c22 9ba4 4726 44a1 5927
000002b0: 4c08 12bc 588f abbb b990 65bc 743d 84bc
000002c0: 893b b43c 6d9c f6bc a76a 66bc af0d 23b7
000002d0: 808a 673c a887 723a 23f5 2cbc 6e91 ab3c
000002e0: a4ab 5a3c de94 45bc ed5c 62bc 8120 b23a
000002f0: d5eb 9e3b d062 7a3b 09c7 9abc a244 e9bb
00000300: bcb4 f9bc 5456 e93b 043f bd26 ecc5 2524
00000310: 4bb3 83a3 dc02 af23 f354 1426 00bb 8322
00000320: 24a0 9fa5 62f8 893c 3dfb ab3b fc84 36ba
00000330: ce5d 97bc 0d6a 0abd d058 f5bc 511c f9bc
00000340: 5295 16bb 0d11 0d3c bacd c5bc fd05 a03c
00000350: c116 7abb 5344 d1bc 1010 353c c33b 8cbc
00000360: 8dcb 86bc 713b 87bc 5fc2 64bc 7cf3 c83c
00000370: c345 43bb 0647 9823 6d63 dba4 e49b 6123
00000380: 3a64 11a4 2e3e 1923 f246 3424 a6ed 3625
00000390: 8eca 73a3 2662 8428 90ec 99bb f523 cebc
000003a0: 745e 323c 7260 c43c 28b3 8a3c 7f0f 3b3c
000003b0: f930 a9bc 51e5 333c 1ce3 0ebd 98a1 a03c
000003c0: bd78 60bc eae0 403c 3079 04bd 5a1e 40bc
000003d0: 5e8a 2139 6319 a43c 2f79 94bc c4e3 473c
000003e0: b03d 21a2 e0fa 9a26 2bc9 63a4 37ca 11a5
000003f0: 960d 8f24 1579 0624 07fb 5f24 150f 8524
3.695727e-17 -2.0356485e-18 8.839852e-19 2.3782794e-15 -5.2909694e-18 -3.9472443e-17 5.6272256e-05 0.013607255
0.015097934 -0.032082494 -0.006731112 -0.025292773 -0.017271223 -0.0014488156 -0.03052952 -0.019765848
0.01822674 -0.026570387 0.020106604 0.004362283 0.009884672 -0.003180725 2.5248908e-05 1.2939292e-18
-8.6286824e-18 -2.575058e-07 -7.252235e-17 6.357689e-18 4.764269e-18 -1.0254828e-16 1.2889987e-17 -3.286458e-17
-1.9939736e-10 0.005069546 0.0167654 -0.019892888 0.006027997 -0.005296476 -0.01128836 -0.00291347
0.0016453476 0.0052033104 -0.027494678 -0.026019042 0.004826943 0.019777521 -0.022555975 -0.002339348
0.012854636 -0.014605089 -0.027178148 -0.00016580966 -3.093161e-17 5.677837e-18 -5.4496273e-17 -1.421256e-17
-1.5408396e-17 7.72856e-17 -6.253109e-17 0.0052514905 0.012861703 -0.0039074593 -0.00069350924 -0.0077842204
0.013337146 0.009565167 0.004499472 -0.0048307306 -0.02683332 -0.026030827 -0.014266097 0.009658205
0.0041053034 -0.013841837 -0.00030616278 -0.003182754 0.017384162 0.021487292 -0.0009044552 -0.025842221
0.016655667 0.0034659088 -4.1891778e-17 2.7152286e-17 -8.748994e-18 7.0517015e-18 -0.017936256 -0.012107347
-0.0038077445 0.0029846858 -0.0040331935 0.0077915285 0.0057662884 -0.034336254 -0.030916605 -0.0006015838
0.015230792 0.0065643815 0.00039386732 -0.015458739 0.015913505 -0.010621964 0.012357068 0.009371442
-0.009448387 -0.035446413 -0.00857228 -0.018667158 0.0014401407 0.022878308 -0.0028354996 2.2223835e-18
-1.2640528e-16 5.3843155e-18 0.013804075 -0.032205213 -0.025704397 0.0014800694 -0.007818886 -0.027430229
-0.014009565 -0.025441522 -0.006205045 -0.023438238 -0.014087092 -0.023020146 -0.019839704 -0.019646844
-0.009440998 -0.0034573402 -0.015357055 -0.006013436 0.008020153 0.0072293663 -1.6117755e-15 0.0083937375
-0.02816505 0.020313941 -0.030065501 -1.064654e-17 1.35233905e-17 5.649848e-20 -3.8910424e-17 -0.012753458
-0.0051358514 -0.005628376 0.0017187556 0.0070672794 0.006002094 0.014500269 0.02433862 -0.010782284
-0.021919955 0.0037529224 -0.008630686 0.0028918528 -0.011369407 0.021883855 0.0025709965 -0.00468048
0.0036337827 0.015009437 7.335575e-10 0.02121292 0.013444947 0.016083086 0.00072504726 2.943832e-17
-2.3059781e-18 4.254409e-18 6.9265076e-16 3.0202222e-15 -0.008913111 -0.0052355938 -0.014011555 -0.016142584
0.022001045 -0.030103887 -0.014063514 -9.718743e-06 0.014132142 0.0009251782 -0.010556492 0.02094337
0.013346586 -0.0120594185 -0.013816101 0.0013590009 0.0048498907 0.003820587 -0.018893735 -0.0071187774
-0.030481689 0.007120887 1.313159e-15 3.5946318e-17 -1.4278982e-17 1.8974749e-17 5.146294e-16 3.5705615e-18
-2.769062e-16 0.016842071 0.005248456 -0.0006962565 -0.018477347 -0.033792544 -0.029949576 -0.03040901
-0.0022977185 0.008610022 -0.02414595 0.019534105 -0.0038160535 -0.025545275 0.011051193 -0.01711834
-0.016454482 -0.016507836 -0.013962357 0.024530165 -0.002979622 1.6509953e-17 -9.5144544e-17 1.22302856e-17
-3.1526758e-17 8.307314e-18 3.909137e-17 1.5866502e-16 -1.3215949e-17 1.4697509e-14 -0.00469739 -0.02516363
0.010886777 0.02397177 0.016931131 0.011417269 -0.020653235 0.010979966 -0.034884557 0.019608304
-0.013700661 0.011772374 -0.032342136 -0.011725986 0.00015405702 0.020031637 -0.018124191 0.0122003
-2.1852226e-18 1.0753896e-15 -4.9393175e-17 -1.2645258e-16 6.203938e-17 2.915918e-17 4.8568045e-17 5.7705106e-17

bias f4 [64]
00000000: 4e38 5b3b 4a24 293e 4c9f 103d 62f0 3b3d
00000010: acca fa3d 6f61 4c3e f011 9fbd 97ba 143c
00000020: 18cb 383e ad19 403c bdbb 90bd 1e22 c03d
00000030: 0f8c aa3d fdd7 e53d b887 833e ad39 1a3d
00000040: 1a65 b03c 93b3 ddbc 70e7 873c 4c3a 1fbd
00000050: 4986 aa3d 1311 82bc 4fce 543c e6ce 6e3c
00000060: 1cc2 19ba b740 15be 590f 4d3d cea3 e23d
00000070: c74c 853e 3a92 c83b c70c 2f3e bb2c 03bd
00000080: b31a 693e 05b5 aabd 10f1 023e be05 c73c
00000090: 2e11 bb3c 65d3 7abd cba4 a13c ffa9 913c
000000a0: 91d6 e8bc 6ee2 b83c cf9e acbd 9087 dd3d
000000b0: 26d0 703a 2442 44bd 6b3d 82bc 6ea2 663c
000000c0: 929e e13d 2693 3c3d 1b7f d93c 8da8 503d
000000d0: e59f 323c a359 a8bc 5ca3 b3bb e12f bcbc
000000e0: 4a70 713c 325f 2b3e 3cae 0abd 099e 233e
000000f0: 7047 a23b 1363 e0ba 04ee 673e 667a c43d
0.0033450308 0.1651775 0.035308167 0.045883544 0.12245688 0.19959043 -0.07767093 0.00907769
0.18046224 0.011724872 -0.07067058 0.09381507 0.08327495 0.11222837 0.25689483 0.03765266
0.021532584 -0.027063167 0.01658985 -0.038873956 0.08326394 -0.015877282 0.012988641 0.014575696
-0.00058654114 -0.14575468 0.050063465 0.110663995 0.2603514 0.006120947 0.17094718 -0.03202508
0.22764091 -0.08335308 0.1278727 0.02429473 0.02283534 -0.061236758 0.0197319 0.017781256
-0.028422626 0.022568908 -0.08428728 0.10816872 0.000918629 -0.04791464 -0.015898427 0.014076812
0.11016573 0.04603877 0.026549866 0.050941993 0.01090238 -0.020550555 -0.0054821204 -0.02297205
0.014736244 0.16735533 -0.03385757 0.15978254 0.0049523637 -0.001711937 0.2264939 0.09593658

weight f4 [128, 64]
00000000: 1801 10bd 5141 963b b51a d1bd 242d ee3d
00000010: a4e8 89bd 738d acbc 640b f33d 02a2 0e3d
00000020: 2a48 6a3b b8e0 ee3d fec6 a5bd 2c51 96bd
00000030: 8662 033e 7589 ad3d 484d 9bbd 81ec 1bbe
00000040: 1b26 55bd de69 1bbd 78fa 8e3d 054d edbc
00000050: 1085 abbd bdfd 3ea6 698b 8cbd 00cd b3bc
00000060: 7aef 1ebc 8bb8 8ebc afa6 04be 5113 f23c
00000070: 3d71 c5bd 5d70 ebbd aa5e f33c b94f 2abd
00000080: 0a0c cf3a 7500 843d 587e 0e3e b0bc 243c
00000090: 2895 9a37 9020 123e e551 6839 3b91 1a3e
000000a0: deaf 08bd 1436 213e 7450 0f3d 287c 74bd
000000b0: cc1b 603c 0fee 1fbc 1a2a 9dbd ffd2 77bd
000000c0: 71d4 5cbe 2d40 763c 3ea7 88bd c821 1dbd
000000d0: b6a7 8ebd 206d e23d a4dc 2f3e 9d3b 433d
000000e0: 79c7 86bd 221b 45be 7889 bf3d fdc0 a63c
000000f0: c649 be3d 0a14 23bc 7e58 673d 7ffa a23d
00000100: 1aeb 9f35 2b0e b83a 8c69 cebd 7bf3 15bc
00000110: 2643 793d d29d 1bbd 72ae 1cbd 4713 263d
00000120: 751a 663d 0b8d 843d 0c6e 763d 0b8f d9bc
00000130: 869f 79bd 8c62 9fbc 118e 8637 393a 5ebd
00000140: d0b3 8fbc 4d0f ab3b e51a 99bd 46bf 4c3c
00000150: a08d 123d 4a05 2a2a a8de 4dbd 55a9 21bd
00000160: 60b6 663c 2851 183d d4eb b9bc 61a4 b8bd
00000170: 126f 67bc 757e 79bd 4044 debd e1b9 db24
00000180: dda2 d3bc 8bb4 b13b f13f bfbd 8b2c e0bc
00000190: 45bf 873d 1fb1 09bd c822 bbae d7b2 7fbc
000001a0: ebf9 fabc 4d86 1a3d 003a a7bd de8a 2c3d
000001b0: 1911 6e3d 0b48 03be dbe9 5bbd 2ee1 80bd
000001c0: 37de 0d28 df2e 373b 1c24 bbbd 3266 6f3d
000001d0: b13f 28bb b4d7 283d a332 8dbd 6876 ccbc
000001e0: eaaa 09a5 7f7a 313d ab06 09bd d407 90bd
000001f0: 8f2d 623d 75a1 10af e1b3 8028 4af4 d8bd
00000200: 291d 4f3d e731 653d 7a19 013d a093 283d
00000210: 5d65 9b3d 7136 e83c 1095 b23d 5cfb abbd
00000220: c929 d3bd b27b 29bc d312 14bc 691b b9bd
00000230: 53e0 053d d002 c5bd 9e75 ecbd bf87 053e
00000240: de10 89bd 6b60 dbbb 646a 1b3d 83a7 a73d
00000250: 96af 023e 5634 8c2c 5061 a23d 7a00 efbd
00000260: 2d01 b13c 8985 9f3c 6784 e0bc c736 533d
00000270: 48a0 a13d b12e 5f3d 0915 e3bd 26ae dfbc
00000280: 69a4 63be c046 2bbd cdae 44bd ee43 b83d
00000290: 7cd0 0dbc 9720 363e f4c0 f5bc b0cb 8cbd
000002a0: 6974 59bd ff28 fdbd 376f 2abd 23ab 00be
000002b0: c8b4 a1bd 76f0 d43d c31b 5abd c496 a93d
000002c0: 9ebe 28be fd4c 0bbe f0ee eebd df80 cf3d
000002d0: 3dbe c03d 0eeb ff3d bd26 853d fb7f 403d
000002e0: a56b bebd a2d3 bebc 22a5 37bd aad8 aa3d
000002f0: 1e34 c8bd f80b 083d 63b9 52be 243f b8bd
00000300: 4453 423c b6ac b1bd 7f3a 843d 54a1 aabc
00000310: 5236 723d 57d4 143e 40c4 4f3d b309 9fba
00000320: f79f 273c 5e41 8a3c f30d 29bd e03d cb3d
00000330: d766 6abc 55d7 cbbc c5d6 d63b 64a0 123e
00000340: c60d ea3b 649c 643d 36d6 b8bd c939 6e3c
00000350: d40e c73b 1ce8 302d 3c06 d83c 8cd3 41bd
00000360: ab16 e1a1 d031 3ebd 3941 443d d559 aa3d
00000370: 91e9 39bc 61b2 63bd 20fd cd3b 55da 68bc
00000380: a149 38bd e0d6 a53d 903e 213c 2279 173b
00000390: 2610 923a 76be bc3d 2d27 a5ae 5ddf 0bbd
000003a0: b92a 5cbb 06cb 263c ffb0 1c3e ac2c 3e3d
000003b0: a0e7 953c f584 8d3d d83f a3bc 9682 6abd
000003c0: 72c4 5b3b 4bbb 0c3d c088 26bd 2e95 6abd
000003d0: 7e6a 923d 92ae abbb 035f 91bd e386 803d
000003e0: 9a96 bcb7 9354 05bd a846 db3b 1892 46bd
000003f0: ee7b 8a3d a8e6 3eac 7844 643b ee49 5ebd
-0.035157293 0.004585423 -0.10210172 0.11629704 -0.06733826 -0.021063542 0.11867407 0.03482247
0.003574858 0.116639555 -0.080945954 -0.07339701 0.12830552 0.084734835 -0.075830996 -0.15226938
-0.052038293 -0.03794276 0.06981367 -0.02896739 -0.08374989 -6.626337e-16 -0.06862528 -0.021948338
-0.00970065 -0.017421981 -0.1295421 0.029550226 -0.09640739 -0.11496041 0.029708225 -0.041579936
0.0015796435 0.064454 0.13915384 0.010054752 1.8427687e-05 0.14270234 0.00022155752 0.15094464
-0.033370845 0.15743285 0.034988835 -0.059688717 0.013678502 -0.009761347 -0.07674046 -0.060503956
-0.21565415 0.015029949 -0.06672524 -0.038362294 -0.06965582 0.1105597 0.17174011 0.047664274
-0.06581015 -0.19248632 0.09352392 0.020355696 0.09291415 -0.009953508 0.056480877 0.079579346
1.1914847e-06 0.0014042308 -0.10078725 -0.009152289 0.060855053 -0.037992306 -0.0382523 0.040545728
0.056177575 0.06472214 0.060163543 -0.026557466 -0.06094315 -0.01945617 1.60402e-05 -0.054254744
-0.017541796 0.00522033 -0.07475833 0.012496775 0.035779595 1.5100868e-13 -0.05026117 -0.03946813
0.0140815675 0.03718677 -0.02269546 -0.09015728 -0.014125602 -0.060911614 -0.108528614 9.5291e-17
-0.025834495 0.0054231337 -0.09338368 -0.02736499 0.06628279 -0.03361618 -8.509954e-11 -0.015606604
-0.030636748 0.037725735 -0.081653595 0.04212462 0.058121774 -0.12820451 -0.05368982 -0.062929496
7.8752575e-15 0.0027951521 -0.09137747 0.05844707 -0.0025672729 0.041221336 -0.06894424 -0.024958804
-1.1940764e-16 0.043329712 -0.033453625 -0.07032743 0.05521923 -1.3154085e-10 1.4288865e-14 -0.105934694
0.05056492 0.055955794 0.031518437 0.04115641 0.07587693 0.028346272 0.08719838 -0.08397552
-0.10310704 -0.010344433 -0.009037691 -0.09038431 0.032684635 -0.09619677 -0.11545871 0.13040064
-0.0669267 -0.0066948435 0.03794326 0.08186247 0.12762293 3.9848498e-12 0.07928717 -0.11670013
0.021607006 0.019472854 -0.027406884 0.05156591 0.07891899 0.054487888 -0.110879965 -0.02730472
-0.22230686 -0.04181552 -0.048018266 0.089973316 -0.008655664 0.1778587 -0.029999234 -0.06874788
-0.053089533 -0.12361335 -0.04160997 -0.12565283 -0.078958094 0.10397427 -0.053249132 0.082807094
-0.16478965 -0.13603587 -0.116666675 0.10132002 0.09411285 0.12496005 0.06501529 0.04699705
-0.09297875 -0.023294274 -0.044835217 0.08342107 -0.097755656 0.03321454 -0.20578532 -0.08996418
0.011860672 -0.0867552 0.0645647 -0.02082888 0.059133835 0.14534126 0.050724268 -0.0012133628
0.01023101 0.016876873 -0.04127307 0.09923911 -0.0143067455 -0.024882952 0.0065563642 0.14318997
0.007142755 0.05581321 -0.090252325 0.014540144 0.0060747657 1.005598e-11 0.02637016 -0.047320887
-1.5252593e-18 -0.046434224 0.047913764 0.08317915 -0.0113471905 -0.055590037 0.0062862784 -0.014212211
-0.044992093 0.08097625 0.009841576 0.0023112972 0.0011143729 0.09216015 -7.51029e-11 -0.034148563
-0.00335948 0.0101802405 0.15301894 0.04642932 0.018298924 0.06910125 -0.019927904 -0.057253443
0.0033533839 0.034358304 -0.04065776 -0.057271175 0.07149218 -0.0052393163 -0.070982 0.062757276
-2.2481476e-05 -0.03255136 0.0066917725 -0.04847917 0.06761919 -2.7128664e-12 0.003483085 -0.054269724

bias f4 [128]
00000000: fa60 96bd ebc0 4c3d 932a 4e3d 7385 773d
00000010: 77a0 22bb 1810 9a3e d442 893b 7292 1d3c
00000020: 311d e73d 410c 8d3d ebb7 5e3e facc 083d
00000030: 4146 143e 92ae e53d fb74 44bb cebb cf3d
00000040: f8b2 853d ad54 073e fd56 cb3d f743 e2bd
00000050: 1743 1f3e 4d2f e43c c1d9 503d 68c0 093e
00000060: 4bae 683c d979 40bb df80 563d 8da2 8fbc
00000070: 2bf7 08be 46c7 533e ca10 ef3c f0fa 2bbc
00000080: 2aa5 8f3d 3434 f9bc 5124 f33b efee cb3d
00000090: ccab 30bd e17d fc3d c1af 903d e691 9e3d
000000a0: fa98 283e a76d 4d3c 07f9 503d 896e c23d
000000b0: 9b8e 71bd 94a2 79bd bdc2 a23d c6c7 773d
000000c0: 9b20 573d 9b54 9ebc 14bc 333d b952 f83d
000000d0: 1b2b 0d3e a742 e63d 0f4d 4ebc baaf 323d
000000e0: 1c13 e63d 949e 6cbd 3898 fc3c 7c03 a7bd
000000f0: 4853 a93d 887c fabc b1e3 0a3d 8721 283e
00000100: 209f 5fbc eb50 f93d 2966 2abd 7f07 923d
00000110: 0a48 293e 2b62 f33d ca0f ee3d db78 2c3e
00000120: 9ca4 68bc 91a2 d1bd e915 97bc 8cd8 35bc
00000130: 009c f63d 16b9 ac3d 759d 16bd dd06 0f3c
00000140: 8c48 863e 5e87 c93d 8233 14be 479c a9bd
00000150: be84 c4bc f878 08be 1c95 06bd 7c07 31be
00000160: 9c16 edbc b949 8e3d 7e83 633e f6c6 aa3d
00000170: b555 e1bd fb36 6a3c 8272 0c3e 7905 60b8
00000180: d54f 863e c004 1c3e ee79 433e ad8a ba3d
00000190: c594 5c3d f392 a43d 0600 283e 0c53 46bc
000001a0: eb84 95bd b2e7 c63d 5379 143b 38e4 74bd
000001b0: ffe1 d93d 076f 41bd de94 acbd df89 3f3d
000001c0: 2b2b c23d f85a e43d 6490 8ebc 0c08 a43e
000001d0: 221e 47bc 2fca 9a3c 47b8 f3bd e4b8 643e
000001e0: af50 983c 9013 07be e8dc 56bc f345 eabd
000001f0: b8e7 35bd 8371 aa3d 6934 423e 4c91 1a3d
-0.073427156 0.04998867 0.05033357 0.06043 -0.0024814883 0.30090404 0.0041888747 0.009617435
0.11284865 0.06887103 0.21749847 0.033398606 0.14479925 0.11214937 -0.0029976952 0.10143243
0.06528276 0.13215895 0.09928701 -0.110481195 0.15552936 0.027854586 0.050988916 0.13452303
0.014201711 -0.0029369502 0.052368995 -0.017533565 -0.13375537 0.20681486 0.02918281 -0.01049684
0.070139244 -0.0304204 0.0074201007 0.09957682 -0.04313259 0.12328697 0.070647724 0.07742672
0.16464606 0.01253835 0.05101874 0.09493739 -0.05897389 -0.060946062 0.079473 0.060493253
0.05252133 -0.019327452 0.043880537 0.12125153 0.13785975 0.11243182 -0.012591614 0.043624617
0.112341136 -0.05776842 0.030834302 -0.081549615 0.08267838 -0.03057696 0.03390855 0.1641904
-0.013648778 0.12173637 -0.041601334 0.07130336 0.16531387 0.118839584 0.11624105 0.16842978
-0.014199402 -0.10236085 -0.018443065 -0.011098992 0.120414734 0.0843374 -0.036771256 0.008729664
0.26227224 0.09840272 -0.14472774 -0.08281761 -0.023989078 -0.13327396 -0.032857046 -0.17288011
-0.028941445 0.06947655 0.22218129 0.0833873 -0.110026754 0.014295335 0.13715556 -5.341086e-05
0.26232782 0.15236187 0.19089481 0.091084816 0.053852815 0.08035841 0.16406259 -0.012104761
-0.07300743 0.09712161 0.0022655323 -0.05978796 0.106388085 -0.047225025 -0.08426832 0.046762343
0.0948089 0.111501634 -0.017402835 0.3203739 -0.01215318 0.018895237 -0.119003825 0.22336155
0.01859316 -0.13191056 -0.013114192 -0.11439123 -0.044410437 0.08322432 0.18965305 0.037736222

weight f4 [10, 128]
00000000: e4c3 553d 9011 3b3c c879 ccbd b090 f0bd
00000010: 94a5 1f3d e68c 253d 181d 9e3d aa9d 8f3d
00000020: 4818 febd da7d 85bc 0de6 ee3c e8ae 87bd
00000030: 5394 e73c 6dc5 3e3d e0c8 49bd fbec 8f3c
00000040: 0297 d13d 122d 0e3e 12dc 233d c2b2 b73d
00000050: 3611 40ba dc07 503d 9dbf 4b3b 96d6 db3d
00000060: 7b58 08be eea0 b23d 3100 f53b 65c8 babc
00000070: 3e50 ddbd 30b8 013d c2c4 253d 9b90 91bc
00000080: c129 f53d 6ff6 9bbd 758f 61bd 5de6 3bbc
00000090: 6ed2 3b3d 2603 11be aefe a43d c964 4d3c
000000a0: 41e3 c93d f2aa 87bd 6736 d3bd 6f6a 30be
000000b0: 4b5b 1cbd fcbe 923d 351b cfbd 5005 c13c
000000c0: 4ef0 433d e9a8 a7bc f1bf f23b 1217 11be
000000d0: a25a 223d 26f8 93bd d326 89bd 08df 60bd
000000e0: 686d 30bd f352 edbd 2209 ae3b e853 a8bd
000000f0: a296 ed3d 4325 503d ba00 abbd 8be0 d53d
00000100: d7cb 83b9 44bb 80bd aef8 a9bd fbe0 ee3c
00000110: f987 a63c 0af7 08be 79bd ab3d f9e8 103c
00000120: 2143 22be ea0d e33c 0fa3 863d 547f 923d
00000130: 8a21 7c3d 0a10 75bd e1cd bebd e061 5e3a
00000140: 40e6 403c fce6 06be 721e 033c 67f7 e8bd
00000150: 4e9d 29bd a9b2 093d 0f15 32bc a94e f4bc
00000160: 391f 2abe 26f1 d43c da02 be3c cb40 143d
00000170: 0913 4cbd 2a98 13bc 04bd a0bd 5448 023c
00000180: 7b08 f7bc 33bf d53d 55d6 cebd de8e d4bd
00000190: 4ffc 86be 3843 33bd 4c00 4bba 718e 5a3c
000001a0: 3587 dbbd 75a5 adbd 3b6e f5bd 7e75 db3c
000001b0: 2a57 a0bd 6db6 4cbd 3fb0 9ebd 5406 483d
000001c0: 0ba7 19be f666 27bd ae64 3fbc c3d1 b53c
000001d0: 9d44 b7bb 7195 8bbd b78d f0bd a522 703d
000001e0: 4129 ac3b cd7f 09be 65f3 02be b761 29bd
000001f0: 450c c8bc 7d59 debd c36a e53c 231a bb3d
00000200: 6f86 e13d 00e3 8f3c d528 ebbd df65 95ba
00000210: b122 8f3c 2b6c a1bd 501f e5bd 0342 0bbe
00000220: 8fe1 edbd 1b47 9b3d b7da 0bbd 1ae3 97bd
00000230: 382e 92bd eb24 063e a3a2 2dbd f362 febd
00000240: 86ad 9c3d 35d3 fa3d 686f d6bc 34b8 cdbc
00000250: 5f36 a0bd dcc5 b4bd c4ff e4bd cabf 293d
00000260: d7d9 1fbe 85cd 94b9 6472 85bd 423c 123d
00000270: 0be1 843c 991d 7b3d 24e3 ee3d b6dc 083d
00000280: caca 2ebe a917 613c f5cc 923c 59d4 b13d
00000290: a653 983c ad95 dd3d 7899 ebbc fd25 9c3c
000002a0: 4aa7 3bbe 2b63 8abc ed69 62bd 005f 11be
000002b0: 87ce 973d 8fec 7bbd 1133 34be 309c bc3d
000002c0: cc2b 063d f59e a63c bd02 18be bc8a 31be
000002d0: 1ecb 873d 6efe 273e d689 3cbb 01e8 1dbe
000002e0: fddc 0bbe adb8 17be d40f 2abe 1b30 bd3d
000002f0: ff61 79bd b8cc cc3d 888e 793d 95bb 50be
00000300: 674a ee3c 2e51 43bd ab05 e2bd 7a7f e53d
00000310: 9dec 28be c674 0dbe 3400 b33d d53d 06be
00000320: f6c1 8dbc 0895 7fbc 2c91 0abe 3989 a7bc
00000330: b0b4 50be 34cb 943d 9d9f c63d a188 d5bc
00000340: 5136 fdbd 449b c5bd 7956 a3bc 1a5d a5bd
00000350: 3a51 223d e857 3fbe 897f c1bc 356c e9bd
00000360: 601e 40be 34d6 a43d 3dfe db3d e306 00be
00000370: df2f a4bc 9883 06be 6284 d23d 7615 84bc
00000380: d042 01be 9612 1fbe de1f 253e eced 39be
00000390: 25c1 85bc 69f9 5fbe 8bbe 07be 960f 21be
000003a0: d7e4 33be 843b 52be b315 f0bd 5126 1fbd
000003b0: df11 2d3d fe0f 27be 8f43 703d 1b69 293e
000003c0: 0e8e 39be c282 f73d b1b5 0b3e 7327 87bc
000003d0: 6bdf c7bb fe3e ea3d cd9d 5fbe d250 cebd
000003e0: 45b5 22bc 87ac 863d 5b93 e7bd b44b 5d3d
000003f0: 486c df3c abb1 823d 815c 45be d132 0d3d
0.05218877 0.011417761 -0.099841654 -0.11746347 0.038976267 0.040417574 0.07720393 0.07012494
-0.12406975 -0.016295362 0.029162431 -0.066251576 0.028268969 0.046575 -0.049263835 0.017569056
0.102338806 0.1388438 0.040004797 0.08969642 -0.00073267834 0.050788745 0.0031089552 0.107342884
-0.13315003 0.08722101 0.0074768295 -0.022800634 -0.108063206 0.031669796 0.040470846 -0.017769149
0.119708546 -0.07615363 -0.055068452 -0.011468497 0.04585498 -0.14161357 0.08056389 0.012536236
0.09857798 -0.06624402 -0.10313111 -0.17228101 -0.038173 0.07165334 -0.10112611 0.023562104
0.047836594 -0.020466285 0.007408135 -0.14168957 0.039637215 -0.07225065 -0.06696858 -0.0549002
-0.043073088 -0.11588087 0.0053111473 -0.08219129 0.116009966 0.050816786 -0.08349748 0.10443219
-0.0002513814 -0.06285718 -0.08299385 0.029160013 0.020328509 -0.13375488 0.083857484 0.0088446075
-0.1584592 0.027716596 0.0657407 0.07153192 0.061555423 -0.05982975 -0.09316612 0.00084832124
0.011773646 -0.13174051 0.008002864 -0.11375313 -0.041409783 0.03361765 -0.010869279 -0.029822664
-0.16613473 0.025993895 0.02319472 0.036194604 -0.04982284 -0.009008447 -0.07848552 0.007951815
-0.030155411 0.10436859 -0.10099474 -0.10378812 -0.2636437 -0.043765277 -0.00077438797 0.013339625
-0.10719148 -0.08478824 -0.119839154 0.026789423 -0.07829125 -0.049978662 -0.0774846 0.04883416
-0.15005128 -0.040869676 -0.011681719 0.022194749 -0.005592896 -0.06815613 -0.1174578 0.05862679
0.0052539413 -0.13427658 -0.1278816 -0.041352954 -0.024419913 -0.10856912 0.02800501 0.091358446
0.11011969 0.017564297 -0.114823975 -0.0011398158 0.017472597 -0.078819595 -0.11187613 -0.135994
-0.116152875 0.07581922 -0.03414413 -0.07416363 -0.07137722 0.1310002 -0.04239143 -0.12421217
0.076502845 0.12247316 -0.02617617 -0.025112249 -0.078228705 -0.08826801 -0.11181596 0.04144267
-0.15610443 -0.00028381884 -0.06515959 0.035701998 0.01622059 0.061307523 0.116644174 0.03341361
-0.17069545 0.013738551 0.017919997 0.0868308 0.018594574 0.10819564 -0.028759703 0.019061083
-0.18325534 -0.01689299 -0.0552768 -0.14196396 0.07412439 -0.061504897 -0.17597605 0.09209478
0.03275661 0.020339468 -0.14844795 -0.17338079 0.066305384 0.16405651 -0.002876868 -0.15420534
-0.13658519 -0.14816542 -0.166076 0.09237691 -0.060884472 0.099999845 0.060926944 -0.20384057
0.029088212 -0.04768484 -0.11036237 0.11205955 -0.16496511 -0.13814077 0.08740273 -0.13109525
-0.017304402 -0.015599497 -0.13531941 -0.020451175 -0.20381427 0.072653204 0.096984126 -0.026066126
-0.12363876 -0.09648755 -0.019938694 -0.08074398 0.039628245 -0.18685877 -0.023620384 -0.11397592
-0.18761587 0.080486685 0.107418515 -0.12502627 -0.020042358 -0.13136137 0.10279156 -0.016123515
-0.12623143 -0.15534434 0.16125438 -0.18157166 -0.01632745 -0.21872486 -0.1325628 -0.15728602
-0.17567764 -0.20530516 -0.11722889 -0.0388549 0.04225337 -0.16314694 0.05865818 0.16544001
-0.18120596 0.12085487 0.13643529 -0.016498303 -0.0060996315 0.11437796 -0.2183754 -0.10074009
-0.009930913 0.06575876 -0.11307403 0.054027274 0.027273312 0.06381544 -0.19273569 0.03447229

bias f4 [10]
00000000: a9cc 41bd 10c6 52bd 62e1 6dbd a203 93bb
00000010: 1a9d 0bbe 682b b33d 4901 3b3d efbe e33c
00000020: 00b3 11be c9db 59be
-0.04731432 -0.05145842 -0.05807627 -0.004486517 -0.13634148 0.087485135 0.045655522 0.027801005
-0.1422844 -0.21275248
