2-hypertuning-mlflow/models/20250926-1525model.pt (torch, 283033 bytes, 6 tensors)

weight f4 [64, 784]
000000 aa 6f 9e 25 7b 4c 2e bb f9 0d 27 bc f7 83 28 3b
       2.7484297e-16 -0.002659588 -0.010196202 0.0025713423
000010 f2 7e 9b bc 90 51 6b bc 3c e7 c1 3b 9a e3 90 bc
       -0.01898143 -0.014362708 0.005917458 -0.017686654
000020 f7 58 99 bb 3c a4 67 3c 89 ac 10 bc ff 7d 41 bd
       -0.004679795 0.014138278 -0.008830198 -0.0472393
000030 72 75 6f bd d2 14 bf bd d4 e8 11 be 70 07 42 be
       -0.058461614 -0.09330143 -0.14248973 -0.1894815
000040 05 e9 30 be 6a 28 83 bd 08 f1 20 bd 08 9e d6 bc
       -0.1727639 -0.06404193 -0.039292365 -0.026198402
000050 20 08 53 bd 80 cb 45 bd e5 fd 89 bc 45 21 09 3c
       -0.05152142 -0.048289776 -0.0168447 0.0083697485
000060 9d 1c f3 3c bf 84 8f bc 04 a2 0d bc 2b 46 a2 bc
       0.02967673 -0.017519353 -0.008644585 -0.01980885
000070 a3 c5 81 37 42 cd 55 bb 9c b3 76 bc fd e1 7e bc
       1.547003e-05 -0.0032623564 -0.015057471 -0.0155568095
000080 09 43 f4 bc a7 35 2f bc 9d ca d7 bc 8a 23 8a bd
       -0.029817121 -0.010693944 -0.02634173 -0.0674506
000090 26 7f 90 bc 70 81 43 bb bd 6f 91 bd ce 1d fc bc
       -0.017638754 -0.002983179 -0.071013905 -0.03077593
0000a0 02 2a 89 bd e7 fb 2b be 5b ea df bd 50 6c 1b be
       -0.066974655 -0.16795312 -0.10933372 -0.15178037
0000b0 3e 33 0b be ea 89 62 bd 0e 08 43 bd 51 12 20 bd
       -0.13593766 -0.055307306 -0.047615103 -0.039079968
0000c0 03 db f6 3c 48 5a 45 3d 39 6f 48 3d e4 b1 21 3d
       0.03013373 0.048181802 0.048934195 0.03947629
0000d0 c5 fd 9a bc af a4 b6 3c 37 8d 21 bc e9 ae 4c bd
       -0.018919835 0.022295324 -0.009860328 -0.049971495
0000e0 c6 ba 0f 39 f9 9f d9 3b f0 03 c8 bc b3 f5 41 bd
       0.00013707121 0.0066413847 -0.02441594 -0.047353458
0000f0 a8 de bc bc ee c8 ac bb 08 bb 98 bc 35 50 76 bd
       -0.02305539 -0.005272976 -0.018643871 -0.060135085
000100 51 3e 52 bd 5a 1e 75 bd 19 57 19 bd 6e b5 ae bd
       -0.05132896 -0.0598434 -0.03743658 -0.08530699
000110 53 03 a4 bd 85 c0 f9 bd a5 e8 a6 bd 97 7f 5e bd
       -0.080084465 -0.12194923 -0.08149842 -0.054320898
000120 d6 32 98 bd 72 2e 07 bd 67 14 97 3c c7 7e c6 3c
       -0.07431571 -0.033003278 0.018442346 0.024230374
000130 80 c4 45 3d b0 dc 83 3d 06 72 81 3d 5a 76 aa 3d
       0.0482831 0.06438577 0.06320576 0.08323355
000140 ae f6 f5 bb 4c 45 23 bb 76 4c 7c bc c6 1c 17 bd
       -0.007506213 -0.002491313 -0.015399089 -0.036892675
000150 b7 9c 07 ba 7c ec 0d 3c 78 6f a1 3b 34 58 96 bb
       -0.00051731936 0.008662339 0.004926618 -0.0045881514
000160 dd 3b 33 bd 63 24 c7 bc 77 12 ab bc 96 d5 36 bd
       -0.043758262 -0.024309343 -0.020882828 -0.044637285
000170 ca f3 5e bd f4 2d 49 bd 24 b3 b9 bd 61 3f a8 bd
       -0.054431714 -0.04911609 -0.090673715 -0.082152136
000180 c7 d7 6d bd da 64 f0 bc 56 14 0f bd aa a4 11 bc
       -0.05806711 -0.029344965 -0.034931503 -0.008889357
000190 ec d4 4e bd df 31 ce 3c 60 f2 e4 3b 2a df 9b 3c
       -0.050496027 0.025170265 0.006986901 0.019027311
0001a0 a0 5e a5 3c 80 93 ad 3d 39 f4 d9 3d 13 c2 9d 3d
       0.020186722 0.08475399 0.10642285 0.07703032
0001b0 bd 09 24 3d 04 34 3f bd f5 0f fd bb 59 4f 6d 3a
       0.04004835 -0.046680465 -0.0077228495 0.0009052656
0001c0 db 69 2d bb b3 7d 77 3b 3f 4a 18 bd cd 24 20 bd
       -0.00264608 0.0037764132 -0.03718018 -0.039097596
0001d0 07 d1 1c bc 96 e1 af bd 76 b2 88 bd 5c 86 76 bd
       -0.00957132 -0.08587949 -0.06674664 -0.06018673
0001e0 76 54 88 bd 54 d4 3e bd 44 08 64 bd 78 c6 19 bc
       -0.06656735 -0.04658921 -0.055671945 -0.009385698
0001f0 5e 3b 59 bd 10 15 3a bd 23 db a9 bd c5 99 12 bb
       -0.053035133 -0.045430243 -0.0829375 -0.0022369486
000200 14 e3 c4 bb a7 51 82 bd 05 8d 17 3c 1a 97 e0 bc
       -0.006008515 -0.0636323 0.00924993 -0.0274158
000210 77 d9 27 bb 76 aa c4 3d 0d 42 d6 3d 90 dd b7 3d
       -0.0025611797 0.09602825 0.10461817 0.089778066
000220 89 5d 7e 3d ec 82 2f bd 44 21 91 bb 45 5c 27 bd
       0.06210092 -0.042849466 -0.0044290144 -0.04085948
000230 de 9f 72 bc 67 80 bd bc 03 39 c9 bc 19 df 24 bd
       -0.014808623 -0.023132516 -0.024563318 -0.040251825
000240 61 5c aa bd 72 b2 81 bd 8e 2f 61 bd 04 03 68 bd
       -0.08318401 -0.06332864 -0.054976992 -0.0566435
000250 7b 33 d7 bc 04 17 57 bd 11 56 e5 3b 19 6d 00 bd
       -0.026269665 -0.052512184 0.0069987853 -0.031354044
000260 81 bd 62 bd 83 0d d3 bb d4 19 16 bd b2 55 17 3b
       -0.055356506 -0.0064408197 -0.036645725 0.002309185
000270 5f 9e 94 bd 33 70 48 bd 5c 95 d4 bb 1f a4 51 bc
       -0.072567694 -0.048935127 -0.0064875316 -0.012795477
000280 68 66 28 3d cd c8 ba 3d f8 0a bf 3d 52 1c 8f 3d
       0.041113287 0.09120331 0.09328264 0.069878235
000290 8d 74 b2 3d 35 5c b9 3c 6a 97 48 bc ed d7 97 bd
       0.087136365 0.022626976 -0.012243131 -0.074142314
0002a0 72 3f 2b bc f7 bd 53 bd e0 52 69 bd cc 66 36 bd
       -0.010452138 -0.051694836 -0.0569638 -0.04453163
0002b0 8a 9c a3 bd 44 29 01 be 8f a4 b9 bd f6 2f e3 bd
       -0.07988842 -0.12613398 -0.0906459 -0.11093132
0002c0 36 33 9b bd 63 b3 2a bd b6 5d 13 bb 3a 45 01 bd
       -0.07578127 -0.041674983 -0.0022486276 -0.03156016
0002d0 08 55 0a bd 0a c3 87 bb 05 a0 ba bc f3 84 31 ba
       -0.0337725 -0.0041431235 -0.022781381 -0.0006771825
0002e0 a1 f5 4c bd d8 bb 0b bd 18 29 5c ba 8e c7 cf 3c
       -0.050038937 -0.03411469 -0.00083984574 0.02536371
0002f0 cc b4 9f 3c 39 1e df 3d 2c f8 e5 3d 3e ff f4 3d
       0.01949539 0.108944364 0.11228976 0.11962746
000300 6c 7b e1 3d 5c 80 d9 3c b7 b1 21 3c 6f 7b 24 bd
       0.11009869 0.026550464 0.009869031 -0.040156778
000310 80 6e 15 bd 88 af 41 bd 83 a9 a9 bd 0c a9 77 bd
       -0.036482334 -0.04728654 -0.08284285 -0.06046395
000320 2b a9 08 be aa bb da bd ee 4f 11 be 7f c4 0e be
       -0.13345782 -0.10680325 -0.14190647 -0.13942145
000330 6c 62 f1 bd da 1a ec bd 47 24 4b bd f1 68 49 bd
       -0.117863506 -0.11528559 -0.049595144 -0.049172346
000340 2f 81 9e 3c b0 50 3c 3d 24 ed 8f 3d f0 2b 7b 3d
       0.019348709 0.045975387 0.07027653 0.0613212
000350 66 5e 25 bd ea 26 8e bd 23 81 a7 bd 6d 02 07 3b
       -0.04037323 -0.06941016 -0.08178928 0.002060081
000360 f5 70 80 3d e7 c4 98 3d 48 94 69 3d ec 43 6b 3d
       0.06271545 0.07459431 0.057026178 0.057437822
000370 10 e7 86 3d 5e 41 1c bb e0 39 28 bc 11 28 af 3d
       0.065870404 -0.0023842673 -0.010267705 0.08552564
000380 00 66 6a bd 9e 33 87 bd 4c 14 3d bd ec da d3 bd
       -0.05722618 -0.06601642 -0.046161935 -0.103444904
000390 7e 01 14 be 78 6d e2 bd 79 db 20 be 78 ba 13 be
       -0.14453694 -0.11056036 -0.15708722 -0.14426601
0003a0 3d e5 f8 bd a9 b0 d7 bd c1 a3 84 bd 0d 9a 44 3c
       -0.12153099 -0.10531742 -0.06476546 0.011999619
0003b0 f0 fa 87 3d d1 e5 9b 3d 3b d9 be 3d 97 61 a3 3c
       0.066396594 0.076121934 0.09318777 0.019943995
0003c0 7d 82 69 bd 72 45 96 bd 38 f5 41 bd e4 3f 0b bd
       -0.05700921 -0.073374644 -0.047353 -0.033996478
0003d0 0c 0f 96 bc a2 79 4f 3d d0 ec 1b 3c a2 33 1d 3d
       -0.018317722 0.050653107 0.00951691 0.03837932
0003e0 1f 12 8c 3c b6 6e a2 bb 6c c0 13 3d c8 ee 79 3d
       0.017098485 -0.0049570454 0.03607218 0.061018735
0003f0 89 d6 96 bd 2c 38 c9 bd 18 f4 d1 bd 4e 32 a3 bd
       -0.07365138 -0.09825167 -0.10251635 -0.07968579

bias f4 [64]
000000 66 be 6d 3e d2 25 c2 3c 76 63 08 bd 98 0d 3b 3e
       0.23217162 0.023699675 -0.03329798 0.18266904
000010 88 74 c2 bc fc 57 94 3d 6d c9 8e bb 79 9f 62 3d
       -0.023737207 0.07243344 -0.004357508 0.055327866
000020 1f a5 b1 bd 26 07 72 3b 88 ff f0 bc 18 46 8c bd
       -0.086740725 0.003693053 -0.029418722 -0.06849307
000030 34 f6 84 3d 2b 72 fb bc 98 16 e1 3c d9 74 04 3d
       0.06492272 -0.030694088 0.027476594 0.032337997
000040 06 72 22 bd 6e 77 15 bd a4 d9 1d bd 3a a6 f7 bc
       -0.039659522 -0.03649085 -0.038537636 -0.03023063
000050 92 38 c4 3d 51 b7 b1 bc 9c 0c 85 3d d8 25 1b bd
       0.095811024 -0.021693857 0.06496546 -0.037877887
000060 61 54 09 3d a8 41 11 3e 12 0b a8 bc fb 95 4a bd
       0.033527736 0.14185202 -0.020513091 -0.04945944
000070 4b 5a 61 3b fc 24 89 bd ab 22 ba bc 72 91 42 39
       0.0034386094 -0.06696507 -0.02272161 0.00018555464
000080 cb c8 33 3e fa c4 24 3c bc 9a 34 3d c6 29 fe 3c
       0.17557065 0.0100567285 0.04409288 0.031025779
000090 3a 47 6b 3a d4 27 e5 b8 8f b4 c8 bc 33 7f 9f 3d
       0.0008975152 -0.000109269895 -0.02450016 0.07787933
0000a0 f2 98 0d bc b9 03 ac bc 95 d9 64 3b 44 3f cf 3d
       -0.008642422 -0.020997869 0.0034919728 0.10119489
0000b0 d3 6d f4 3d f0 69 18 3e 9d be 1e bd 50 a6 06 3e
       0.1193501 0.14884162 -0.038756 0.1314938
0000c0 d3 37 09 3c 97 fc 07 bd 5d c6 d2 3d 7b 5d 95 3c
       0.008375126 -0.033199873 0.10291741 0.018233052
0000d0 d5 8b 63 3d 9b 96 93 bd 87 cd 56 3e e4 9b 22 3d
       0.055553276 -0.0720646 0.2097684 0.03969945
0000e0 f0 fb 35 bc 1e 5a db 3d d1 35 dc 3d 42 d7 46 bd
       -0.01110743 0.10710548 0.10752452 -0.04854513
0000f0 49 41 fd 3d 32 34 36 3d 7b 3d b3 3d be d5 d2 3d
       0.12365968 0.04448337 0.08751961 0.10294674

weight f4 [256, 64]
000000 12 51 a5 bd ba 74 05 be b8 7e 4c bd ec f6 a9 bc
       -0.080721036 -0.13032809 -0.049925536 -0.020747624
000010 0b 65 1c be 18 5d 40 bd 70 c5 04 3e bf 14 82 3d
       -0.1527292 -0.04696378 0.12965941 0.06351613
000020 83 61 da 3b ba c2 ab 3d 2b 0f a0 3d 8e 2c 2a 3c
       0.0066644563 0.083867505 0.07815393 0.010386599
000030 90 c9 0e bd 5f df b5 bd 7f c9 7d 3d 79 e2 cc bd
       -0.034860194 -0.08880495 0.06195974 -0.10004134
000040 4a 94 c2 3d 02 19 23 bd de 37 77 3c a2 3f 0c bb
       0.0950094 -0.03981877 0.015089003 -0.0021400233
000050 00 60 f2 bc 2d d9 0c be 7e af 2f bb d6 15 bf 3d
       -0.029586792 -0.13754721 -0.0026807482 0.09330337
000060 74 07 32 3d 99 b5 d8 3d 1c 29 56 3d b2 d8 30 bc
       0.04346414 0.10581512 0.0522853 -0.010793852
000070 b9 51 10 3e 9a d8 4d bd 27 e4 d4 bc 72 03 31 bd
       0.14093675 -0.050255395 -0.025987698 -0.043216176
000080 66 6e 96 bd 94 5b cd 3c 91 c3 9d 3d 4e df 3a bd
       -0.073452756 0.025068082 0.07703317 -0.045623116
000090 57 58 7d ba 66 51 17 3e 06 a7 a8 3d 0b a7 02 bd
       -0.0009664348 0.14777145 0.08234982 -0.031897586
0000a0 70 a8 49 bd 5c a0 84 bc ab 04 ea bd 30 71 42 bd
       -0.0492329 -0.016189747 -0.114266716 -0.047471225
0000b0 92 80 4f 3e 67 3e a1 bd 26 ca 72 3c e6 95 c4 bd
       0.2026389 -0.078732304 0.014818704 -0.09598903
0000c0 19 d1 d7 3d d3 f3 a1 3d c9 ea 12 bc 5b fc 85 bc
       0.10537929 0.07907834 -0.00896711 -0.016355684
0000d0 2a ae 00 bc 62 81 90 bd b5 5f 65 be 76 e0 8a bd
       -0.007854024 -0.07055928 -0.2239979 -0.06781094
0000e0 f9 13 65 3d 6f 06 96 3c 28 a0 4c bc 72 e4 7f 3d
       0.05592725 0.018313615 -0.012489356 0.06247372
0000f0 bd 34 d5 bc 3b 18 2b 3d dc 6a 10 3e 1e c4 da bd
       -0.026026124 0.041771155 0.14103264 -0.10681938
000100 26 b5 ff bd c6 30 86 bd 7b 94 b5 bd 75 19 41 be
       -0.12485723 -0.065522715 -0.08866211 -0.18857367
000110 41 9c 02 be f0 9d 4d 3c 06 50 1b 3c a4 81 d8 bd
       -0.12754919 0.012549862 0.009479528 -0.10571602
000120 3f 4a 49 3d cd 24 a3 bd ee e0 75 bd 53 c1 ba 3d
       0.049143072 -0.079660036 -0.060028963 0.09118905
000130 1a af 3a 3d 43 ae 5e 3d f1 ee c9 bc eb c7 c3 3d
       0.045577146 0.054365408 -0.024650069 0.09559616
000140 be e4 e2 3d ab b4 d7 bc 23 1a bc 3d 4a d9 9f 3d
       0.11078785 -0.026331266 0.09184673 0.078051165
000150 3c 76 fd bd 68 30 99 3d 54 c2 f4 3d f7 5a 2d bd
       -0.12376067 0.07479936 0.11951128 -0.04232308
000160 b9 71 9c 3b b2 cb 1b bc 9a 52 8e 3c a9 3f 21 3d
       0.004774299 -0.009509014 0.017373372 0.03936735
000170 fb ab ad 3d f5 86 05 3e cb 3f 0a be b6 8d 69 bc
       0.08480068 0.13039763 -0.13500898 -0.014254978
000180 54 ea a6 bc 46 98 f5 3b fa 8d 2d bc 1c 79 c4 3d
       -0.020375408 0.007494959 -0.010592932 0.09593412
000190 1c 62 9d bc 50 ff ab 3d a2 47 89 3d 59 80 e1 bc
       -0.019211821 0.08398306 0.06703116 -0.027527021
0001a0 32 38 e4 3c 5c 99 c9 3d f7 cd 70 3d 1c be d3 3d
       0.027858827 0.09843704 0.058790173 0.10338995
0001b0 8f 9b ad 3d 3f 99 8f 3d bd 06 48 3d 87 14 72 bd
       0.08476936 0.07011651 0.04883455 -0.059101608
0001c0 27 3a 89 3d e3 4a f1 3c c9 64 3b 3b 2f 6b fa 3c
       0.06700545 0.029454654 0.0028594008 0.030568687
0001d0 5e 35 c9 3d aa 0e b0 bc d2 75 d8 bd b5 04 48 3d
       0.09824632 -0.021491367 -0.105693474 0.048832614
0001e0 7f ef b9 bd 1e 20 00 bd 6e cc c4 bd b8 4b a4 3d
       -0.090788834 -0.03128063 -0.09609304 0.08022255
0001f0 31 6e 05 be 56 2d ff 3d 04 4c 15 3d 0e d6 a4 bd
       -0.13030316 0.12459819 0.036449447 -0.0804864
000200 3a 03 7d 3d 8f c5 cf 3d 76 37 b8 3c d9 64 a8 3d
       0.061770655 0.10145103 0.022487383 0.0822236
000210 71 bf 98 bd 5f 54 3a bc be 88 c4 bd e2 a2 c3 3d
       -0.074583896 -0.011372655 -0.09596394 0.09552552
000220 7a 34 c2 bc da bd ca bc a8 b3 61 3d 5c b8 b2 bd
       -0.023706663 -0.024748731 0.055102974 -0.0872657
000230 50 db 8f 3d c9 9a c8 bd 0a 23 db 3d e3 4c 6d bd
       0.070242524 -0.09795148 0.107000425 -0.057934653
000240 47 01 f1 3d 93 2c 57 3c b7 1b c3 bd ff e0 d9 3d
       0.11767822 0.013133186 -0.095267706 0.10638618
000250 8c 6a d8 bd 84 6f a9 3b 66 52 27 bc 37 5a a5 bd
       -0.10567197 0.0051707644 -0.010212516 -0.08073848
000260 cc fe 62 3d b7 fd fd 3d 99 97 5e 3d 49 2f 66 3c
       0.055418774 0.12401908 0.054343794 0.01404936
000270 c6 6e cc bd 04 78 49 3d 19 97 ca 3d 1a 9f ff 3d
       -0.09982066 0.04918672 0.09892101 0.12481518
000280 52 52 e6 bc 47 68 bc bc 2a ad 79 bc 09 76 05 3d
       -0.028115425 -0.022998942 -0.015239039 0.03258327
000290 86 e3 f6 bb 0c 7b a6 3d 6c 03 05 bc 44 25 95 bd
       -0.007534447 0.08128938 -0.008118492 -0.072824985
0002a0 48 e4 23 be df f4 de bc 28 13 1e 3d 3a 8b af 3d
       -0.16005051 -0.027216373 0.038592488 0.08571477
0002b0 f9 6b 4e 3e 27 e0 9a bc c3 c0 00 bd 7b a1 10 3e
       0.20158376 -0.018905712 -0.031433832 0.141241
0002c0 91 96 b9 3c b2 05 d7 3c c1 3e 9d 3d e0 da c2 bc
       0.022654803 0.026247833 0.07677985 -0.023786008
0002d0 6c c7 99 3b b1 84 bb bd a8 62 e7 3c 0a 3e 13 be
       0.0046929624 -0.09156168 0.028245285 -0.14379135
0002e0 c7 ae c1 bd 47 c6 e3 3d ef 05 c8 bd dd 8c a5 3c
       -0.09457164 0.11121803 -0.09766757 0.02020877
0002f0 f4 fa eb 3d b7 3d 09 3b 9b b1 bc bc 09 80 54 3d
       0.11522475 0.0020941326 -0.023033908 0.051879916
000300 5f 57 91 3d cb b3 c9 bd f5 6b 97 bd a1 b9 2d 3e
       0.07096743 -0.09848746 -0.07393638 0.16965343
000310 0b 24 b8 3d 6f 4f 91 3d d3 69 db bd 05 2e 82 3d
       0.0899125 0.07095229 -0.10713544 0.06356434
000320 d3 65 34 3d cd 0a 7d 3d 77 6f 4f bc 5e ca b9 3d
       0.04404242 0.06177788 -0.012660853 0.090718016
000330 19 ee 51 3d 5c a8 9a 3b 65 4e 0c 3e 19 92 c2 3d
       0.05125246 0.004719777 0.1370178 0.09500522
000340 df 19 51 3d 04 b6 aa 3a bb 12 8e bc 16 db 52 3c
       0.051050063 0.0013024216 -0.017342916 0.012869617
000350 d2 97 73 3c 9c f2 c7 bc f8 a3 98 3d 63 85 ce 3c
       0.01486774 -0.024407677 0.074531496 0.025210088
000360 ad 08 fb 3b a6 b4 93 3d 6e 4e a0 35 3d 9c d4 3d
       0.0076609463 0.0721219 1.1943755e-06 0.103813626
000370 63 3e d4 bd 03 6b 3c bd ff 1b 0c 3d 87 5c ca bd
       -0.10363462 -0.04600049 0.034206387 -0.098809294
000380 ce 8a 95 3d 31 e5 9a bc af 06 b2 bc 7b c5 70 3d
       0.073018655 -0.018908115 -0.021731703 0.058782082
000390 b6 63 a7 3b 9c c8 fb 3d 59 d4 13 3e 0c 91 4e bc
       0.005108322 0.122941226 0.14436473 -0.012607824
0003a0 f5 54 07 bd 66 7d cb bd 8c 7e 22 bd a3 a8 00 3e
       -0.033040006 -0.09936027 -0.039671466 0.1256433
0003b0 32 35 b6 bd 21 b7 73 3d 7c 81 b9 bd 18 62 e7 3d
       -0.08896865 0.059500817 -0.090579 0.11298007
0003c0 73 1f 0a be 54 c5 d7 bd f6 a6 eb bb 92 81 59 bd
       -0.1348856 -0.10535684 -0.007191534 -0.053102084
0003d0 96 68 c9 bd 72 b8 ec bd d9 09 80 3e 25 13 83 bd
       -0.09834401 -0.11558618 0.25007513 -0.06400136
0003e0 ab 07 45 3c 3e cb 4a bd 91 26 f2 3d e6 be f1 3d
       0.012025754 -0.049510233 0.11823762 0.11803989
0003f0 52 0b 2a 3d dc 89 4d 3d 36 b9 88 3d 0c a7 4d bd
       0.041514702 0.0501803 0.06675951 -0.050208136

bias f4 [256]
000000 5d b7 c1 3d 6c 5a 29 be 56 a5 3a 3e 1f a0 94 3d
       0.09458802 -0.165384 0.18227133 0.07257103
000010 76 e9 8d bd 8d 03 1e 3e aa eb 79 3b 6e dd 89 3d
       -0.06929295 0.15431042 0.0038134851 0.067316875
000020 66 16 65 3d f2 32 6a ba 77 02 8f 3d 3a 24 19 3d
       0.055929564 -0.0008933983 0.06982892 0.037388064
000030 4c 88 42 3e 12 d1 17 3e c5 11 9f bd 82 31 14 3d
       0.18997306 0.14825848 -0.07767061 0.036180027
000040 d6 41 92 3d e0 78 41 bc 04 71 d6 3d b4 28 9f bd
       0.071414635 -0.011808604 0.10470775 -0.077714354
000050 9a 6f f9 3c dd ed 21 3d 15 bf 0e bd a1 f0 f6 bb
       0.030448724 0.039533485 -0.0348502 -0.0075360094
000060 50 ac f9 3d ff 8c ce 3d ed e4 6d bd 57 9d da 3c
       0.12191069 0.100854866 -0.05807965 0.026686354
000070 0b 11 c3 bd e5 70 41 be 46 52 6b bd 76 53 74 bc
       -0.09524735 -0.18890722 -0.05745151 -0.014912477
000080 4c b5 92 bc 0f 46 2e 3d 05 98 18 bc 90 f5 17 bd
       -0.017908715 0.04254728 -0.009313588 -0.03709942
000090 9b f9 2f bc 19 3a d4 bd 5a 35 be 3c af a9 9e 3d
       -0.010740663 -0.10362644 0.0232188 0.07747208
0000a0 0b 14 28 3e bb af f9 3d 03 d0 28 be 59 cb a9 3a
       0.16413896 0.12191721 -0.164856 0.0012954279
0000b0 0f ce 9e bd 6a b1 91 3c 55 6f 94 3c a7 54 07 be
       -0.07754146 0.017784793 0.018119493 -0.13215886
0000c0 85 01 df 3c 78 40 ba bd f2 1b c2 3d fd 49 a3 bd
       0.027222404 -0.09094328 0.094779864 -0.079730965
0000d0 9a 9c d8 bd 65 2d 24 bd d2 c6 29 3e 56 a3 88 3e
       -0.105767444 -0.040082354 0.1657975 0.26687115
0000e0 ff 2d de 3c b0 ba 9e 3d 43 42 df bd c4 27 d8 3d
       0.027121542 0.077504516 -0.1090131 0.1055446
0000f0 f0 a9 82 3e 00 12 a8 3d 86 80 0a be 1d e9 35 3e
       0.25520277 0.08206558 -0.1352559 0.17764707
000100 62 72 af bd 71 6e 2f bd a1 da 12 3e ba 62 bf 3d
       -0.08566739 -0.042829935 0.14341213 0.093450025
000110 c7 16 2b be fd d7 89 bd 75 e0 15 bc eb 8f af 3b
       -0.16707908 -0.067306496 -0.009147753 0.0053577325
000120 fa a0 73 bd da 17 0a 3e 4e 69 a8 bd b6 bb 10 be
       -0.05947969 0.13485661 -0.0822321 -0.14134106
000130 a4 ee d1 3d cf 24 8f bd 20 cb 98 bd 94 90 88 bd
       0.10250595 -0.069894426 -0.07460618 -0.06668201
000140 89 14 f9 bd e7 78 08 be 50 cc 19 3d d3 ad fa bc
       -0.1216212 -0.1332737 0.037548363 -0.030600464
000150 a7 2c ac 3d 74 b2 09 bd db 7e 0b be 68 29 2d 3d
       0.08406954 -0.03361745 -0.1362261 0.042275816
000160 56 e1 12 3e 4a 4c 03 3c 89 88 40 3d 53 3a 62 3d
       0.14343771 0.008013794 0.04700521 0.055231404
000170 37 49 31 3e 63 7f 4d 3e 81 e5 dc 3c e6 be 08 bd
       0.17313085 0.20068125 0.026964905 -0.03338518
000180 d5 b2 05 be b1 c1 f1 bd 1a a4 24 3e 3c c4 62 3e
       -0.130565 -0.11804522 0.16078225 0.2214517
000190 b8 67 32 bc 55 eb f9 3d e5 1b 81 3d 1e a2 1e bd
       -0.010888986 0.12203089 0.063041486 -0.038728826
0001a0 5e bc d9 3d 6c f0 7d 3c 74 ec b3 3d 7a b2 08 be
       0.10631631 0.015499216 0.08785334 -0.13349333
0001b0 4f 52 9d 3b 4b a8 dd ba 8a b4 ae 3d e2 37 cf bc
       0.0048010717 -0.0016911117 0.08530529 -0.025295202
0001c0 b3 17 e4 3c 98 2a a4 bd c7 cd a3 bc 14 c2 c0 3d
       0.027843332 -0.080159366 -0.019995583 0.094120175
0001d0 2e 62 f2 bc 3c 5e 17 3e 62 69 8e bc 10 26 48 bc
       -0.029587831 0.14782041 -0.017384235 -0.012216106
0001e0 d2 5a 87 3d 5c 49 9f 3d f5 12 33 3e 4d 8f 25 bc
       0.066091195 0.07777664 0.174877 -0.010104966
0001f0 e8 ee e3 3d 14 1a 33 bd 60 0d 16 3d 0f 71 43 bd
       0.11129552 -0.043726042 0.03663385 -0.047715243
000200 41 23 e6 bc f0 12 26 3d c8 30 33 bc a4 c6 38 3e
       -0.028092982 0.040545404 -0.010936923 0.18044525
000210 5f 69 10 3e e9 f4 55 3d 78 1c 12 3c 80 f6 06 3c
       0.14102696 0.052235518 0.00891792 0.008237481
000220 5d e6 34 3e 60 9f 36 bb e3 51 1b be d0 0c b3 3d
       0.17666002 -0.002786599 -0.15167956 0.08742678
000230 c6 40 57 3e a0 a4 e0 3d eb af d0 3d 2c 84 08 3e
       0.21020803 0.109689 0.10189804 0.1333167
000240 c8 c8 58 3e b3 1c f8 3d ba a5 58 3d ed 38 1d 3e
       0.21170342 0.12114849 0.052892424 0.15353747
000250 c3 cd c3 bd 27 55 97 bd 05 67 38 3e f0 59 10 3e
       -0.0956073 -0.073892884 0.18008049 0.14096808
000260 90 75 75 3e 17 43 c2 3c c9 0c 0d 3e cf db 44 3e
       0.23970628 0.023713632 0.13774408 0.19224475
000270 e9 92 e9 bd 05 dd 41 be 07 89 36 3e 6b 1e fd 3d
       -0.11404974 -0.18931969 0.1782571 0.123593174
000280 6b ab a5 3d 6b 2e be 3d a1 03 a0 3d 4f 9c 90 bc
       0.08089336 0.09286197 0.07813192 -0.017652659
000290 81 3e 1d bd 61 43 05 3e 5a 6a 57 bd ad 17 79 3d
       -0.038389686 0.13013984 -0.05259166 0.060813595
0002a0 3e 51 17 bd 53 c7 ab 3d 10 58 a6 3d 44 60 d2 bd
       -0.036942713 0.083876275 0.08122265 -0.102722675
0002b0 8c fe 68 3e ba 8c 1c 3d dd f0 2a bd c6 86 44 bc
       0.22753352 0.038220145 -0.04173361 -0.011995023
0002c0 b7 e4 a5 3d af ae a3 bd 6d 48 e6 3d 1a 13 ca bc
       0.081002645 -0.079923026 0.11244283 -0.024667311
0002d0 16 47 04 be 54 e9 06 3d ac b0 90 bd b1 92 d8 bd
       -0.12917742 0.032937363 -0.070649475 -0.10574854
0002e0 46 3f 23 bd 51 5e 37 be e2 22 80 bb 93 04 c1 bd
       -0.039855264 -0.17907073 -0.0039104084 -0.094247006
0002f0 83 42 f1 bc 6f e6 11 3d ab 11 ca 3d b0 3c ca bd
       -0.02945066 0.03562015 0.09866651 -0.098748565
000300 45 29 d8 bd d0 c0 07 3d b3 c0 0a bc aa 31 8a 3d
       -0.105547465 0.033142865 -0.008468795 0.06747754
000310 b4 73 39 3d ac 08 05 ba 32 3e 8b bc 1e 6b c2 3d
       0.04527636 -0.00050748396 -0.01699743 0.09493087
000320 eb 9e 4a bd ca 27 b0 3d a5 66 09 3e 6d d2 92 3d
       -0.049467962 0.08601339 0.13418062 0.07169042
000330 71 bd ef 3d 3e fa 4e 3c ab e6 51 bc 28 7b dd 3c
       0.11706055 0.012632905 -0.012811343 0.027036265
000340 a4 a0 3b 3e 6d 7c 43 3c fc 20 c8 3d b7 64 36 be
       0.18322998 0.011931521 0.09771916 -0.17811857
000350 c7 7a 2a bd 05 b0 d4 3d ed 0c 4c bd 4c cb b1 3c
       -0.041620996 0.103851356 -0.049817014 0.021703385
000360 ab cc 5d 3e 75 e9 75 bd 73 96 45 3e c0 c6 a8 bd
       0.21660106 -0.060037095 0.19295673 -0.082410336
000370 e6 5f a9 bc 8c 25 e7 3d 4f 38 90 bd 7d 83 c4 bd
       -0.02067561 0.112864584 -0.0704199 -0.09595392
000380 c4 c7 bf 3c 03 e8 bd bd bb 90 b9 3d 59 08 dd 3d
       0.023410685 -0.09272768 0.09060808 0.10792608
000390 b2 e0 2b 3d 0f 39 a7 bd a5 72 c3 3d a5 7b c0 bc
       0.041962333 -0.0816518 0.09543351 -0.023496458
0003a0 dd 84 8c bb 32 48 1a be 0c 2e 01 3d 27 c3 85 3d
       -0.0042882995 -0.15066603 0.031538054 0.06531363
0003b0 0d 48 24 be 02 25 0a be a6 ae 91 3d bc 71 fb 3d
       -0.1604311 -0.1349068 0.0711339 0.122775525
0003c0 68 45 92 3a ac a2 ac bd 00 ea 9c bd 24 b2 e4 3c
       0.0011159601 -0.08429465 -0.076618195 0.027916975
0003d0 28 93 0d 3e 17 48 ae 3c 8d 3d cd 3d 70 d8 57 3e
       0.13825667 0.02127461 0.100215055 0.21078658
0003e0 b8 fb 92 bd 2d ef 35 3d 8b 86 bc bd 22 e7 0f bd
       -0.07176918 0.04441755 -0.092053495 -0.035132535
0003f0 ec d1 d2 bc f2 1f 37 bd c7 8e ef 3d 25 7e f3 3d
       -0.025734864 -0.0447082 0.116971545 0.118892945

weight f4 [10, 256]
000000 a2 6c bd bc 56 c3 b4 3b c1 7b b7 bc b4 10 ff 3c
       -0.02312309 0.00551645 -0.022397878 0.031135894
000010 36 62 9a 3c 21 54 e6 bd db 06 8b 3d f9 b6 3b 3d
       0.018845659 -0.11246515 0.06788417 0.045828793
000020 fe fc 6e 3b e4 ee ba 3c 46 90 0c 3d 46 9b 69 bd
       0.0036466713 0.02281899 0.034317277 -0.057032846
000030 11 d9 1c 3d 8c 3e 2b 3c ed ce 12 3c 93 54 c6 bd
       0.03829295 0.010451924 0.008960468 -0.096841
000040 62 f8 70 3c d3 3a 15 3c 6d 43 8d 3d c0 0a 7c bd
       0.014707657 0.009108263 0.06897626 -0.06153369
000050 fa b4 0e bd 4e af 4f 3d 64 9c 32 3d f2 ba 84 bd
       -0.03484056 0.050704293 0.043606177 -0.064809695
000060 de 8e f8 bd fc 8f 93 bd 8f ae 4d bd d7 f8 59 3d
       -0.12136625 -0.07205197 -0.0502153 0.053215828
000070 f5 27 f2 3c 08 35 ea bc cc 30 b7 3b 70 47 bf bd
       0.029560069 -0.02858974 0.005590534 -0.093397975
000080 0d ff f9 bc 72 1d 4f bd a5 73 9b bd c3 a1 88 3d
       -0.030517126 -0.05056519 -0.07590417 0.066714786
000090 cc e3 70 bc 56 63 5f bd 7d 80 38 bd 5f fc 88 bd
       -0.0147027485 -0.054538094 -0.04504441 -0.06688761
0000a0 59 fd d9 bd e6 83 b5 3d d1 18 92 bd 70 ed 89 bd
       -0.10644025 0.08863048 -0.071336396 -0.06734741
0000b0 86 8b 80 bd 5b b6 fd bd 59 8b 99 bc 23 87 00 bc
       -0.06276612 -0.12388297 -0.018743204 -0.007844719
0000c0 27 30 4d bd c7 05 22 bd d4 56 83 3d a9 48 86 3d
       -0.05009475 -0.03955629 0.064130455 0.065568276
0000d0 35 8b 94 bd 05 06 cb 3c 7a 44 ca bb 87 87 56 bc
       -0.07253114 0.024783144 -0.006172714 -0.013093836
0000e0 c7 69 24 bc 30 32 88 bd ba f9 ca bc 15 47 54 3d
       -0.010034985 -0.066501975 -0.024777282 0.0518256
0000f0 7f d9 37 bc 47 de 8c bd 8b f4 99 bc f0 5d fe bd
       -0.011221289 -0.068783335 -0.018793365 -0.12420261
000100 39 f0 05 bd 79 85 f8 3c 63 47 81 bd 28 f5 28 3d
       -0.032699797 0.030337082 -0.06312444 0.041249424
000110 ed 22 85 bd 1a dc 56 bd 8f 6a f9 bc 10 17 40 3d
       -0.06500802 -0.052456 -0.030446319 0.046896994
000120 2c d7 ad bd e1 41 d6 3d 88 e9 81 bd 33 23 94 bd
       -0.084883064 0.10461784 -0.06343371 -0.07233276
000130 f5 24 94 3d 29 3a 9a bd c3 d5 43 3c e3 66 71 bd
       0.072336115 -0.075306244 0.01195282 -0.05893601
000140 7a 43 b2 bc 6d 0d 85 bd aa 48 b0 bd 8e f0 b4 bc
       -0.021760691 -0.064967014 -0.086076096 -0.022087362
000150 5d 2b 8c 3d c7 d0 35 3d 15 0d 82 bc 52 d4 b6 bd
       0.068442084 0.04438856 -0.015875379 -0.08927216
000160 7f 2a 51 3d f9 c9 ba bc 1e cd 01 be 92 62 7e bb
       0.051065918 -0.022801386 -0.12675902 -0.0038816077
000170 d3 f3 93 bd 22 cf 09 3d ff 80 b2 3c 14 e6 60 3c
       -0.0722424 0.033644803 0.021790026 0.01372673
000180 65 b6 02 3c 00 0c fb 3c 89 df 60 3c bc c6 92 3d
       0.007978057 0.03064537 0.01372517 0.07166812
000190 70 8b 95 30 db cc 68 3d 20 49 20 3d ce 6d bf 33
       1.0880807e-09 0.05683599 0.039132237 8.914104e-08
0001a0 93 e1 75 3d a5 cb 6f bd 47 14 eb bd 24 4c 85 bc
       0.060029577 -0.05854382 -0.11478477 -0.016271658
0001b0 f0 c3 2d 3d 83 6e 8b bc 5c 8a b4 bd ad 03 e7 bd
       0.04242319 -0.01702047 -0.088154525 -0.11279998
0001c0 b2 4c 47 3d 44 6b 93 bd 60 3a 9a 3c c9 3b ab bd
       0.048657127 -0.07198194 0.018826663 -0.083610125
0001d0 0c 01 a3 bc e7 3b 57 bd 18 a4 1d bd 30 ff b4 bd
       -0.01989796 -0.05254736 -0.03848657 -0.08837736
0001e0 4a 94 30 bd c3 ea 1c bd 5c a4 34 3d 22 3f 88 3d
       -0.04311017 -0.038309824 0.044102058 0.06652667
0001f0 0f db e2 bd 8b 64 18 bd 82 2b 3a 3b e4 47 5c bd
       -0.11076938 -0.03720526 0.002840728 -0.053779498
000200 10 4e 3f bd 51 d0 ff bc 44 37 8b bb 30 ee 9c bd
       -0.046705306 -0.031227263 -0.0042485315 -0.07662618
000210 20 69 61 3d 32 aa 2f 3b ba 56 5b bc ff 7d bc 3d
       0.055031896 0.0026804325 -0.013387376 0.09203719
000220 cf 3f f3 bd 72 07 07 bd f2 75 8b bd 32 b2 d6 3c
       -0.11877405 -0.032966085 -0.06809606 0.026208017
000230 c6 35 24 3c 0d 7f 29 3d 38 47 00 3d 3d 26 88 bd
       0.010022586 0.04138093 0.03131792 -0.066479184
000240 b0 a0 a8 bd 10 58 8c 3d e1 0d c4 3c 5b e9 aa bd
       -0.08233774 0.06852734 0.0239324 -0.0834529
000250 f8 ac 5f bd 7b d4 b0 bd f6 1d 0f be 37 a1 1a 3d
       -0.054608315 -0.086342774 -0.13976273 0.037751403
000260 42 fb 85 3b 3b d8 8c bd 28 07 8a 3d a9 13 ac bd
       0.00408879 -0.0687718 0.06739646 -0.084021874
000270 01 eb a0 3b e9 c1 39 3d 26 66 1e 3d d4 88 29 bd
       0.004910827 0.045350943 0.038671635 -0.041390255
000280 0a 93 39 3d d7 a0 01 bd c5 45 ad bb 71 7d dd bb
       0.045306243 -0.03164753 -0.005287858 -0.0067593385
000290 8e 04 a4 bc 22 1e a3 3d 24 bb e7 bc b6 d3 b8 bd
       -0.020021703 0.07964732 -0.028287478 -0.09024756
0002a0 f1 c0 4e bd b1 58 06 bd 15 27 6a bd 8f 44 9b bc
       -0.050476972 -0.032799426 -0.057166178 -0.01895359
0002b0 ba 6c 08 be 3d 0e 4a bc ec ed b0 3b 40 2f 38 3d
       -0.13322726 -0.012332496 0.0053994562 0.044966936
0002c0 93 aa 0e bb c1 db 09 bd f1 39 2a 3d 15 f3 53 3d
       -0.002176915 -0.03365684 0.041559163 0.051745493
0002d0 8f 5f ea 3c 9d ed 46 bc 19 bb e7 bc d9 7b 98 3c
       0.028610019 -0.012141612 -0.028287457 0.018613743
0002e0 25 59 8c bd 20 21 ec bb 6e 13 d4 2b 3a b1 9a bb
       -0.068529405 -0.0072060972 1.5068899e-12 -0.004720834
0002f0 5c 3f 8d bd 5d 0e 8a be b6 52 91 bd e2 27 81 bc
       -0.068968505 -0.26964083 -0.07095854 -0.015766088
000300 d3 f0 cc 3b a8 bb ee bc ed 31 29 bd 1e 73 60 bd
       0.0062542944 -0.029142216 -0.04130738 -0.054797284
000310 31 ad 65 3c a7 70 38 bd e9 fc a1 3c 14 99 45 3c
       0.014018343 -0.04502931 0.019773917 0.012060422
000320 97 d1 94 bd 06 21 4d bc 72 93 6b bc aa 71 26 3c
       -0.072665386 -0.01252008 -0.014378415 0.010158936
000330 43 c7 3e bd 08 75 d2 bd 54 dd 1d 3d 65 a5 e5 bc
       -0.04657675 -0.10276228 0.038541153 -0.028032968
000340 55 cf d1 bc fe 46 de 3c 36 e1 f9 3c 72 da f0 bc
       -0.025611559 0.027133461 0.030502897 -0.029401038
000350 a2 7c 9a 3c 4d f2 06 3d 58 d2 8c bc c9 82 b0 bd
       0.018858258 0.03294592 -0.017190143 -0.08618695
000360 18 d6 47 3d cc 39 3c bd d4 81 95 3d 78 e7 4e 3d
       0.04878816 -0.045953557 0.073001534 0.050513715
000370 d2 44 84 3c 83 a2 77 3c 70 d8 10 b8 ea 0e 4f 3d
       0.016146097 0.015114429 -3.453385e-05 0.050551333
000380 ca f5 a9 bd a9 7c 28 bd 3f ae 31 3d d0 77 f4 3b
       -0.08298834 -0.04113451 0.043379065 0.007460572
000390 cf aa 8b 3d bb 4d 48 bd 17 1d 52 bd 2a 37 3d 3d
       0.068196885 -0.048902255 -0.051297273 0.046195187
0003a0 bc a5 6b 3d e3 11 9c bd e4 e3 4b 3d 34 4e a9 bd
       0.057531103 -0.07620599 0.04977788 -0.08266869
0003b0 af ea 97 bd 38 67 9e bc f2 f6 2d bc a7 89 c2 bd
       -0.07417809 -0.019336328 -0.010617958 -0.09498911
0003c0 6a 75 0b 3c c2 d6 00 3d 63 08 0e 3c 03 a7 96 bd
       0.00851188 0.03145481 0.008668992 -0.07356074
0003d0 6d d5 4b bc 02 4f 0e bd 72 93 03 bd ab 71 fa bb
       -0.012441021 -0.034743316 -0.032123037 -0.007642945
0003e0 a6 82 c6 bd ef f6 1c 3d ec f3 19 bd 96 ee b5 3c
       -0.09692888 0.03832143 -0.037586138 0.022208493
0003f0 57 f5 04 be b1 fc a0 bd 0e 60 a5 bc b0 db ab 3d
       -0.12984215 -0.07860697 -0.020187404 0.083915114

bias f4 [10]
000000 7a 09 c6 bc 09 ba be bd 21 32 af 3d 64 01 05 3c
       -0.02417444 -0.09312827 0.08554483 0.008118007
000010 e8 02 95 bc 78 8e f8 3d 1d f6 c8 3d 50 7f 2f 3d
       -0.018189862 0.12136549 0.098125674 0.042846024
000020 64 7b 8c bd 6f 7e 2a be
       -0.068594724 -0.16649793
