2-hypertuning-mlflow/models/20250927-1357model.pt (torch, 442777 bytes, 6 tensors)

weight f4 [128, 784]
00000000: 6433 cd3a d2f0 67bb 6a7d 573b e453 0a3c
00000010: b07c 20bd 14ce 05bd 5897 1fbc 5388 8a3b
00000020: 3692 de3c 8a61 bf3d 4a05 b93d b285 153e
00000030: 9550 bc3c b35f 94bd 6957 b9bc 425c cbbc
00000040: fdf4 f63d b0fb 0b3e f7c3 7d3d 13b9 2e3d
00000050: 9446 163c 8f36 f5bc 2c6c fbbc 2fb5 ddbc
00000060: 06f8 4dbd 5d28 6abd b5b6 cabc b1d2 e7bc
00000070: 5a08 4c3a bcb6 84ba 90cc 4ebd e0af 56bd
00000080: 5118 9bbd 5a77 4ebd cdc0 1fbd 52c9 1dbd
00000090: 0f42 6d3d c3d0 013e dcba 093e 454d 753d
000000a0: 7763 273d 5eca fa3c ad89 953d e8fb 12bc
000000b0: 0786 a03d 6eee a23d cbf5 a23d 4674 943d
000000c0: 29e4 0d3d de60 2fbd e6d2 01bd 9018 a0bd
000000d0: dbbf d8bb f429 66bd c307 4fbd 28f5 2cbc
000000e0: ac2b 15bb eff5 c93c e504 4bbd 1e0f f6bc
000000f0: f05b 7abd 5c98 a6bb 499c b93c 2e85 543d
00000100: 1dcc 173d 40e4 1e3d 29e2 763c 0b25 febc
00000110: 9695 0e3d b0ee f53c 0b7b 393d a686 4bbb
00000120: e591 bb3c d286 9cbc f8f8 dcbc b8d6 87bc
00000130: 9dfb 443d f8e2 523c a576 be3b d086 c5bc
00000140: 418c 47bd b32e 71bd cd03 06bd 28e7 db3b
00000150: 6181 623c d105 56bc a056 203c 3a1f 9ebc
00000160: 5c9e 45bc a069 be3d 5d50 953c 3256 aabc
00000170: c9ca 28bd ce77 73bc 92fd 88bc 3b20 143d
00000180: 18f9 07bd 4ff2 b3bc 5890 d9bc 894a f1bc
00000190: b16f c53c f89a 153d 2cd5 f0bc a76f 9dbd
000001a0: 98b9 9abc b302 4ebd 6a28 e33c a157 07bd
000001b0: 0434 54bd cb21 c8bc 1953 69bd 8af6 81bd
000001c0: 6588 da39 f889 bbbc 9c64 e7bc 0355 e73c
000001d0: 6540 d93c 47cf 633d 3f15 0b3d c099 3bbc
000001e0: 3422 d3bc be74 d53c 5c7e 303d 087c cf3c
000001f0: 55a3 80bc 9fd9 24bd ecec 04bd 2f91 f1bc
00000200: 5446 e43c 7ad1 1cbc 3ba9 19bc fc26 3ebd
00000210: 141d 34bd 5087 43bd a307 6cbd c35f 19bd
00000220: 1a57 0dbc befe 40bd d046 90bc 40e3 aabc
00000230: 7c43 efbc 3d89 45bb 1884 2e3c 3a96 633d
00000240: 1cfa 6b3d 7659 193d 2beb 0f3d 268b 3fbc
00000250: 4867 eabc bb0b 353d 0482 e83c 2586 a13b
00000260: 752f 093d fce4 63bb 5bd6 23bd 35dc ddbb
00000270: 0b4a dbbc bc55 623b b195 2bbc b0b0 59bb
00000280: 5f82 73bb 521c 05bd 5247 c1bc 7f8c debc
00000290: 24ae 8cbc 54b2 21bd 86d4 333c 7f53 143d
000002a0: 5589 3e3c d7d3 703c 66cb 183d 10ed 3e3d
000002b0: edae 533d 82a1 073d 0e7e 453c 2427 d03c
000002c0: d08a b9bc ab9f 203d a6c3 c3bb fb53 093d
000002d0: 81d0 77bc d825 c43b 7a45 56bd a860 b0bc
000002e0: 7910 e83c 108a 3e3d 656e 6a3d 0922 c4bc
000002f0: 9380 8d3c 7e5e 86bc 6645 20bd aba2 cc3b
00000300: 5814 09bd 6b30 86bd d038 303c 8aa2 2f3d
00000310: 981f 7c3b 2b5e ad3c c041 f93c fe6c 523d
00000320: 7640 973d 6e8f a63d fd50 9e3d 7ce8 213d
00000330: 6548 df3c 5493 023d cf9f b23c 68c2 0c3c
00000340: 4e85 43b9 2654 3bbc 51f0 b13a df93 ffbc
00000350: 847c ea3c a0fa 2c3d 7ecf 4c3d 4949 513d
00000360: eef4 2a3c 1633 fabc 40db 5bbc 95ae 14bd
00000370: edf0 afbb ecad 0fbd 79d1 f33b a23a 57bd
00000380: 51ec 743c 6ec7 9d3d 9dda 5b3d 44c8 a33c
00000390: 3300 5f3d 1a9f c83d d67e 9a3d 46a7 803d
000003a0: 36fc 5c3c ba78 193d a198 903d 8403 803b
000003b0: ebca 8abc 8ff2 4bbc 90d8 2fbc 1668 0cbc
000003c0: 9281 0e3d bcc4 e53c 42a2 953b 8b8f bbbc
000003d0: 0acf b93c e7c9 363d 02f1 fb3c 7c5d e9bc
000003e0: df17 8ebc 8286 c4bc f7aa b13b cfad bfbc
000003f0: d89f 613d 8e43 5d3d 22cc c63d 0f56 613d
0.0015655574 -0.0035391343 0.003288115 0.008442853 -0.03918141 -0.032667235 -0.009740673 0.004227677
0.027169328 0.09344776 0.09034212 0.14601782 0.022987643 -0.07244816 -0.022624688 -0.024824265
0.120584466 0.1367023 0.061954465 0.04265697 0.009172101 -0.029933242 -0.030691229 -0.027063934
-0.05028536 -0.0571674 -0.024745325 -0.028298708 0.0007783227 -0.001012526 -0.050488055 -0.05241382
-0.07572997 -0.05040679 -0.03900223 -0.038522072 0.057924327 0.12677293 0.13450187 0.059888143
0.04086634 0.030614074 0.0730165 -0.008971192 0.07838064 0.07955633 0.079570375 0.0724874
0.03464142 -0.04281699 -0.03169527 -0.07817185 -0.006614668 -0.056192353 -0.05054451 -0.010556497
-0.0022761626 0.024653403 -0.049565215 -0.030036505 -0.061122835 -0.0050840806 0.02265753 0.051884823
0.037059892 0.038791895 0.015068569 -0.031023523 0.034810625 0.030021042 0.04528336 -0.0031055599
0.022896716 -0.019107256 -0.026974186 -0.016581878 0.04809152 0.012871496 0.0058124834 -0.024112135
-0.04871774 -0.058882426 -0.03271847 0.0067109056 0.013824792 -0.01306291 0.009786278 -0.019302
-0.012061682 0.0929749 0.018226797 -0.020793054 -0.041209016 -0.014860107 -0.016722474 0.03616355
-0.03319654 -0.021966128 -0.026558086 -0.029454486 0.02410111 0.036524743 -0.029398523 -0.076873116
-0.018887326 -0.050295543 0.027729232 -0.033042554 -0.05180742 -0.024430176 -0.056964014 -0.06345852
0.00041681822 -0.022892937 -0.028246216 0.028238779 0.026519964 0.055617597 0.03395581 -0.011450231
-0.025773145 0.026056644 0.043089256 0.025327697 -0.015702883 -0.040246602 -0.03245251 -0.029488174
0.027865566 -0.0095714275 -0.009378727 -0.046423897 -0.043973044 -0.047736466 -0.05762447 -0.03744484
-0.008626724 -0.04711794 -0.017611891 -0.020860314 -0.029206984 -0.0030141615 0.010651611 0.05556319
0.05761157 0.037438832 0.035136383 -0.01169089 -0.028613701 0.04420064 0.028382309 0.0049293214
0.033492524 -0.0034773936 -0.039999347 -0.0067706355 -0.026768705 0.0034535965 -0.010472701 -0.0033216886
-0.0037156565 -0.03249771 -0.023593578 -0.027166603 -0.01717288 -0.039476708 0.0109759625 0.03621244
0.011629422 0.014698944 0.03730335 0.0466128 0.051680494 0.03311301 0.01205398 0.025409289
-0.022649199 0.03921477 -0.005974251 0.033527356 -0.015125395 0.0059859566 -0.05231235 -0.021530464
0.028328167 0.046518385 0.057234187 -0.02394201 0.017273223 -0.01640248 -0.039128684 0.0062449775
-0.033466667 -0.06552204 0.010755733 0.04287962 0.003847098 0.021163067 0.03042686 0.051373474
0.07385342 0.08132826 0.07730291 0.039528355 0.0272562 0.031878784 0.021804718 0.008591272
-0.00018646309 -0.011433637 0.0013575648 -0.03119844 0.028623827 0.042231202 0.050002567 0.05109528
0.010434372 -0.030541938 -0.0134189725 -0.036299307 -0.0053692968 -0.035077974 0.0074407426 -0.05254615
0.01494892 0.07704054 0.053675283 0.019992955 0.05444355 0.09795971 0.07543723 0.06281905
0.013487866 0.03746865 0.07060362 0.003906669 -0.016942462 -0.012447967 -0.010732785 -0.008569738
0.034791537 0.028047912 0.004566462 -0.022895595 0.022681732 0.044626143 0.03075457 -0.02848696
-0.017345367 -0.02398992 0.005421992 -0.023398308 0.05508408 0.054019503 0.09706904 0.055013712

bias f4 [128]
00000000: af5a 35bc 753f 45bd 675b 51bc eb3e b13c
00000010: 13a2 d4bc 7791 033d c345 6cbd 678d 723d
00000020: 321c 773d f660 4a3e 8807 92bb 3a6b b8bd
00000030: aa47 0ebe 7f62 80bd b468 24bd dc0e 093d
00000040: b930 d33d 9954 b4b9 f37e ef3d 4b06 2e3d
00000050: d58d 5c3c 5b9b 553d 368d 043e 56a6 cf3d
00000060: 63fc ec3d 5524 73bd e9d8 fe3d f405 07bd
00000070: 4d81 4c3c 99e8 d23d 9de2 583e e501 b73d
00000080: 2e21 ff3d 724a 083a 40a0 92bd f1df d9bc
00000090: 3b7e 3d3e a2c6 413d 208a 5fbc 9903 95bc
000000a0: ef37 5b3e 4216 403e c153 93bd b907 7bbc
000000b0: 4f1c 6a3c 9e0d d63b 1e5d 2b3d 413c 343d
000000c0: 3b0a 853d d8c4 debc 5de2 813d 7a14 063d
000000d0: bc71 7d3d f892 fbbc 32a2 16bd edf7 b53d
000000e0: f124 adbc 6ace 543c 519a e23d 8047 e73d
000000f0: 680c 193e ef5c 753c dae9 c93d 330a 1bbc
00000100: fdd2 253e 7c2c 2c3e 8e69 6fbd dfa1 063e
00000110: 09d3 b83c 92e5 f4bd 8493 c8bd a88d 1e3c
00000120: 2031 f3bc 70d7 6bbc d28e c53d 52b6 f1bc
00000130: 02d3 1cbc bd96 993e 1f9a ec3d aa69 633e
00000140: 705e 6e3d 73ad ffbd 2e65 043e b41a c53c
00000150: 61ef 26bd 38d6 1ebd 039f 5abd f9a8 e9bd
00000160: 2a79 393d 0837 ec3d 067a 47bd ae45 16bd
00000170: cd78 53bc b0d6 823e 4298 55bd 4306 bfbd
00000180: 1565 5b3d 759f 743e 723f 853d 3289 21bd
00000190: 17ec 233e 7380 b4bd 9a87 0f3e f5b6 c4bc
000001a0: bab6 023e e984 063e 7072 abbc a9b0 b63d
000001b0: 6074 9e3d 1a7d 7c3d 1382 e13c 5866 853e
000001c0: 3c78 3c3c fa52 3e3d 5050 0d3e a603 62bd
000001d0: 1e90 643e 0bf3 223d effa 3ebc 62c4 733d
000001e0: 5d85 43bc 785a 3f3d 7fad 35bd 2a3e ebbc
000001f0: 19df 81bc dcfd 17be 744d 843c eee7 153d
-0.011068984 -0.04815622 -0.01277814 0.021636447 -0.02595619 0.032121148 -0.057683717 0.059216883
0.060329624 0.1976355 -0.004456464 -0.09004827 -0.13894525 -0.06268787 -0.040138915 0.033461437
0.103120275 -0.00034395306 0.116941355 0.04248647 0.01346155 0.05215011 0.12944493 0.10139148
0.115715764 -0.05936082 0.12443716 -0.03296466 0.012482 0.10298271 0.21180196 0.08935908
0.124575004 0.00051990815 -0.071594715 -0.026596041 0.18505184 0.04730857 -0.013643771 -0.018190192
0.21408056 0.1875849 -0.07193709 -0.015321665 0.014288976 0.006532385 0.04183685 0.044002775
0.06496092 -0.027193472 0.063420035 0.03273437 0.061876044 -0.030709729 -0.036775775 0.08885179
-0.02113578 0.012988666 0.1106459 0.112929344 0.14946139 0.01497577 0.09859057 -0.009462881
0.16193767 0.16813844 -0.058450274 0.13147686 0.022561567 -0.119578496 -0.097937614 0.009677328
-0.02968651 -0.014394626 0.096463814 -0.029505882 -0.009571793 0.29997817 0.11552834 0.22208276
0.05819553 -0.12484255 0.12929222 0.024060585 -0.040755633 -0.038778514 -0.0533743 -0.11409182
0.045281567 0.11533934 -0.048700355 -0.036687545 -0.012907219 0.2555442 -0.052147157 -0.09327366
0.053563196 0.23888953 0.06506242 -0.03943748 0.1600803 -0.08813562 0.14016572 -0.024013022
0.12765017 0.13136639 -0.020928591 0.08920414 0.077370405 0.061642744 0.027527845 0.26054645
0.0115032755 0.04646585 0.13800168 -0.05517926 0.22320601 0.039782565 -0.011656507 0.059513457
-0.011933652 0.046717137 -0.044354912 -0.028716166 -0.015853452 -0.14842933 0.016150214 0.03659814

weight f4 [64, 128]
00000000: 943c af3d c0b1 ff3d 778d dcbc 3bf4 3e3b
00000010: 5fe5 66a4 6bd6 8c3c f83f 71bd 419b 9dbc
00000020: f187 f73c b377 50bd b2a9 1db5 d0ae 2cbd
00000030: bc58 0a3c 395a 303d 9f04 f8bd 73ce 71bc
00000040: 4307 ad3d 0ef0 593d 72f2 353d 732b c7bc
00000050: 0131 94bd fef8 abbd 0b50 2ebc 0f12 e03c
00000060: a5e5 843d e1df 1abd b498 513c 8853 283b
00000070: ebfc a43b b25d e63b b78d 4e3d be90 8b3c
00000080: feb8 2e3d 44c6 9bbd 54d0 b93d d05d a6b8
00000090: bdb6 6fbd 4818 b53d 0633 543c 0fd0 8c3c
000000a0: 4d7a 95bd 8d12 8abd 24e2 703c 8ba1 03bb
000000b0: 7559 f0ba 704b ca3d 606f b0bb b2c6 52bc
000000c0: 0467 35bd b5f5 c43c 7228 243d 8631 86bd
000000d0: 41e6 863d 90c7 323c 54cb bcbd 74f2 863d
000000e0: 4330 8cbb 6095 7f3d 3cf7 b93d 3f0e 60bc
000000f0: 6435 d53d 2378 febc eeea 683c 954b eebb
00000100: f53c f73c 3b6b c13c 6195 02be 40cf dabc
00000110: 1f13 553d 7b99 85bd 0544 33bc d98a 0c3d
00000120: 5fe7 cbbc 85d0 cdbd 49eb f9bc c4c6 0a3d
00000130: 9061 fda6 2dec b33c 7ea6 c63d dc83 1ebc
00000140: 7c8c 803d f300 14bd 8db9 dfbc fee6 14bd
00000150: b22f 433c d826 e23c 018c 6d3d 8fb7 65bd
00000160: 7d60 e5bb 2cf1 cd3d 82b2 c83d 2910 90bb
00000170: f534 18be 16d5 bbbd 87b1 d5ba 5cfc 89bd
00000180: 7b2b e23d ee5d b33d 5f46 d2bd 00bd adbd
00000190: 7582 f33d 269f 9dbc 9cec 42bd 9bb1 12bb
000001a0: 97c1 af3c be79 22bd b806 e3bc bb85 873d
000001b0: 172e 1c3d 017a 23bb f79b 21bd 0d80 583d
000001c0: bc1c d5bc f652 cebc 7633 583d 24b6 0bbd
000001d0: 42af a03d 3d4f 23bd c2ce a93d 6755 8dbd
000001e0: 3280 f6bb 0cef 9c3d 118e 14be f517 bdbd
000001f0: 0dc7 a33b 443b cabd 2fb6 ba3d fb39 013d
00000200: 50ca 23bb 4646 afbb ee02 563c b2a6 24a7
00000210: eb4b 76a6 b329 2c3d 307f 05bd 1a7d d43b
00000220: 4f27 abbc 519f 02bd e4f9 a522 658f 593d
00000230: c14c 0fbd 9888 93ba c6cf b1bd a932 efbb
00000240: 580d e638 ec0b 63a1 47f2 31bc e2e1 d6bc
00000250: 4e49 723c 0b1c 65bc b52d b2bd c97f 993c
00000260: 5642 b2bc 12e8 753d 3130 c93c b611 55a7
00000270: fc80 42bd e773 c93d 8767 b83d bdf1 953b
00000280: 5ce3 ea3b a3b9 223b d8cc 14bd b870 7e26
00000290: d06a 6e3c 3151 d83d b573 18bc bd6a 8abb
000002a0: 8600 31bd f261 343d d226 a6bc 2e92 babd
000002b0: a987 5ead 3aee b5bd a630 a2bc 53ff 173d
000002c0: 47f1 3f3d cbbf 81bc f5b0 efbc 2038 5d3c
000002d0: 17c1 f93d 99c2 b3bd 3348 373d 9721 843d
000002e0: 486b d323 72ec f5bc 7888 9cbc 535f ba3d
000002f0: 8ec4 853d 90f3 1e3d 5ee8 40bc 71fb a2bc
00000300: 398f 7a3d fea1 ea3c 3ed0 19bd d318 3bbb
00000310: 5ca5 ab3d e6d4 1c3b f6f7 5ebd 286a d33c
00000320: 8935 0ba6 bd1d 0ebd f292 523d d79e 0b3d
00000330: c988 38a5 084d 1c3e 6741 463d b1fc 403e
00000340: 7152 803d 1bd8 e6bc 2aab 213c a1e7 243e
00000350: cc85 ad26 f6f2 c028 e6f8 743d 504e 4cbd
00000360: 34fb 473c c168 f63b 5ee4 103d 505b 68bb
00000370: 3e8c 8b3d a0ae bb3d bba3 43bc 6761 f6bc
00000380: e162 41bd 1cfa 9e3d 648a 95bc cc95 c8a4
00000390: bfbe b6bc 02fb 603d 43b9 2dbd 670b c9a8
000003a0: 7fd3 6a3d c6b8 393e 1a88 423d 218f 2f3d
000003b0: 0dcf 843d 2ba1 963c 1c8f 483d 156b c43d
000003c0: d90d 3ebc 6b9a 493b b1f9 f13c 0ecb ddbc
000003d0: 55da 553e 2634 e93b 12f5 87bc b068 703d
000003e0: 6c00 b72e 035f b03d 4199 58bd da8e 823d
000003f0: ad1c 0028 2d5f 1cbd d49f 32bd a43e 973d
0.08556476 0.12485075 -0.026922924 0.0029137272 -5.0067585e-17 0.017192086 -0.058898896 -0.01923907
0.03021619 -0.050895404 -5.8733997e-07 -0.0421589 0.0084440075 0.043054793 -0.121102564 -0.014758694
0.08448651 0.05320745 0.044420667 -0.02431271 -0.07235909 -0.08397101 -0.010639201 0.027352361
0.06489114 -0.037811164 0.012792755 0.0025684554 0.005035033 0.0070302123 0.05042812 0.017036792
0.04265689 -0.076061755 0.090729386 -7.932971e-05 -0.058523882 0.08842522 0.012951618 0.017189054
-0.07298718 -0.067418195 0.014702354 -0.00200853 -0.0018337207 0.0987767 -0.0053843707 -0.0128647555
-0.044287696 0.024042943 0.040077634 -0.065524146 0.06586886 0.010911837 -0.09218469 0.06589213
-0.004278214 0.062398314 0.09080359 -0.0136752715 0.10410574 -0.031063145 0.014216168 -0.0072721937
0.030180434 0.023610702 -0.12752296 -0.026710153 0.05202019 -0.06523415 -0.01094151 0.034312103
-0.0248906 -0.100495376 -0.0305077 0.033880964 -1.7581846e-15 0.021963203 0.096997246 -0.009674992
0.06276795 -0.036133718 -0.027310157 -0.036353104 0.011913227 0.027606413 0.057994846 -0.05608326
-0.0070000277 0.100557655 0.09799673 -0.0043964577 -0.14863952 -0.09171502 -0.0016303518 -0.06737587
0.110434495 0.0875815 -0.102673285 -0.084833145 0.11890117 -0.019240927 -0.04758893 -0.0022383693
0.021454616 -0.039666884 -0.027713165 0.06617304 0.038129892 -0.0024944546 -0.03945538 0.052856494
-0.026014678 -0.025186043 0.052783452 -0.03410925 0.07845928 -0.03987049 0.08291389 -0.06901055
-0.0075226063 0.07662782 -0.14507319 -0.09233085 0.004998094 -0.09874585 0.0911678 0.031549435
-0.0024992414 -0.0053489534 0.013062222 -2.2849938e-15 -8.5451283e-16 0.042031955 -0.032592 0.00648464
-0.020892767 -0.031890217 4.498792e-18 0.053115267 -0.034985308 -0.0011255918 -0.08682208 -0.0072997403
0.0001096974 -7.692637e-19 -0.010860986 -0.026230756 0.014787985 -0.013983737 -0.08700124 0.01873769
-0.021760147 0.060035773 0.024559112 -2.956929e-15 -0.04748629 0.0983656 0.09004121 0.0045759366
0.0071682166 0.0024829886 -0.036328167 8.8276715e-16 0.014551833 0.10562361 -0.00930493 -0.00422415
-0.04321339 0.04403872 -0.020282183 -0.09109913 -1.2649362e-11 -0.08883329 -0.019798588 0.03710873
0.04686096 -0.015838524 -0.029259184 0.013502151 0.12195032 -0.08777351 0.04474659 0.06451719
2.2922101e-17 -0.030019972 -0.019108042 0.09100213 0.065316305 0.038806498 -0.011774151 -0.019895287
0.061171744 0.028641697 -0.03755211 -0.0028548732 0.08381149 0.0023930608 -0.054435693 0.025807455
-4.8297866e-16 -0.03469633 0.05140967 0.03408703 -1.60058e-16 0.1526376 0.048402216 0.18846394
0.062657245 -0.028179219 0.009867469 0.16103984 1.2040552e-15 2.142165e-14 0.05980768 -0.049879372
0.012205888 0.007519812 0.035374038 -0.0035454817 0.068138584 0.091641665 -0.011940892 -0.030075742
-0.04721344 0.07762548 -0.018254466 -8.698994e-17 -0.022307752 0.05492688 -0.042413007 -2.2320428e-14
0.057330605 0.18136892 0.047493078 0.042861108 0.06484804 0.018387398 0.048964605 0.09590737
-0.011599981 0.0030762206 0.029538007 -0.027074363 0.20884068 0.0071168123 -0.01659635 0.058693588
8.3219515e-11 0.08611872 -0.05288053 0.06374903 7.1116454e-15 -0.038176704 -0.043609455 0.073849946

bias f4 [64]
00000000: f885 323e 23a4 da3d 4b74 c63d 97e6 9dbc
00000010: 0f5d 033e 8ae2 4e3d 46ca eeba 226e 003e
00000020: 607a cebb 71b9 32bd 25f6 f33d 9552 c72c
00000030: bf3a c33d 2fb6 843c 260d 56bb 1a2e af3c
00000040: bd1b 44bd 05f8 86b8 b47e 493e dc53 383d
00000050: d4b0 48bb c0fe 073e f0b7 1e3e 37af 80bc
00000060: 04a9 823c bebb 0b3d f10d 0d3d 98a9 00be
00000070: b225 88bd d044 a33c 7b6c 753d c032 1ebe
00000080: 10b1 6f3c aa13 e83d 69dd d03a 5d01 493e
00000090: 03ae 5c3e 036f c23d 3228 94bc 0f40 513d
000000a0: c1b2 f1bc 1f85 9c3d 5070 17be 14af 8a3d
000000b0: 7cb8 8e3c 3aa7 163d f88f a83d dfef b03d
000000c0: 2a24 b2bc df43 eb3d ed2b 99bb 34e5 e83d
000000d0: 6a71 203e e41b afbd 9456 413d d80f a53d
000000e0: a4b6 d73d 8f97 50bd 61eb aabd 855d aebb
000000f0: e1ef 253e 8647 33bd 6f29 8d3e 25ea f03d
0.17433918 0.10675838 0.0969015 -0.019274993 0.12828468 0.050509013 -0.0018218241 0.12542012
-0.0063012093 -0.043633882 0.11912183 5.6650886e-12 0.09532689 0.016200153 -0.0032661646 0.021384288
-0.047878016 -6.435815e-05 0.1967724 0.04500185 -0.0030622976 0.13280773 0.15499854 -0.015708549
0.015949734 0.03411459 0.034437124 -0.12564695 -0.06647815 0.019930273 0.05991791 -0.15449047
0.014629617 0.113318756 0.0015935126 0.19629426 0.21550755 0.0949383 -0.018085573 0.05108648
-0.029504182 0.07642578 -0.14788938 0.06771675 0.017421953 0.036780573 0.08230585 0.08639502
-0.02174576 0.11487555 -0.004674426 0.11371842 0.15668264 -0.085502416 0.047201708 0.080596626
0.10532883 -0.050925788 -0.08345676 -0.005321207 0.16204788 -0.043769382 0.27570674 0.117634095

weight f4 [10, 64]
00000000: a4b0 303d 2529 663d c409 0d3e 5b78 aabd
00000010: ca6f 1a3d ab98 f43d a39e b43d 0683 d4bc
00000020: f583 56be e4a0 bcbc bc06 b13d 85b9 e7aa
00000030: aa70 38be 2a11 fb3d 9ed8 8b3c 1ca3 b8bd
00000040: 0695 113d 93ad 2bbb b16d 81be 4fad c93d
00000050: 0ec7 313b d327 fbbd 9724 83bd cb78 6fbb
00000060: 0d7d b6bd ca2b 9e3c 3689 1fbe 10ac fcbd
00000070: 3cf4 a6bb 11fb ca3d c78c 7e3d 5bf9 47be
00000080: 57c2 efbd 4816 9d3d b1dc 293d a137 0c3d
00000090: 52ca 183e 0fbb 0d3e cd93 00bd 316a 103d
000000a0: fdca 37bc 47ed da3c cb57 5c3d a41c 90bb
000000b0: b24f ebbb 9949 3f3d 7dce 9ebb ca46 e4bd
000000c0: f7f7 b03c 4e12 0e3d 5fd6 db3c ea87 d03d
000000d0: cd11 37be d965 bb3d 4cd6 a13d dd54 aabd
000000e0: f0ee 7fbc 302d 30be 05ab 48be bb63 243c
000000f0: e2f7 16be d037 aa3d 0b56 e3bd 1d11 15be
00000100: 7d1a d33c b224 13be d4e3 253e d261 423e
00000110: a750 0c3e 9402 133e 4553 01be f6e3 093e
00000120: ad23 113e e20d fd3b 53d1 20be 4c3c dfac
00000130: 0915 2fbe 559a 123d 1f87 c7bd 97f1 a43d
00000140: 5e9b eabd b0e8 3d3a 74c4 87be 8735 013d
00000150: 844d a3b5 b1dc 96bd f535 d4bd 9aa7 433d
00000160: 930e 5bbe cc8a a8bd 1fa3 70be c689 3fbd
00000170: 89ae 0fbd fefa 62be a7a1 143a f171 b1bd
00000180: 9ee4 b4bb e71a 4fbd 0846 363d ed3a 01be
00000190: 64e5 e73a 45c0 16be bbdf 57be bd12 0f3d
000001a0: dd89 9f3c a2be 803d 6789 1b3e 32da 5cbe
000001b0: 4efd 76bd f9ef 5dbe 2e16 d23d bb16 7c3d
000001c0: 6567 85bd daf8 233e f438 7b3e fac8 143e
000001d0: 9196 07be 51df a8bd a3b9 e7bc 856d 72bd
000001e0: 62d4 55be b1e2 1f3e ddd1 153e 422f 09be
000001f0: 0e75 01be 17d8 ba3d e022 1fbe 8a25 5f3d
00000200: 937f 4ebb dc6e 81bd 15eb 30be 40cc 78be
00000210: e6c6 6dbe 2793 f6bc 8a48 6abd e882 2d3e
00000220: a2dc 06be e81a ba3c f217 993d 2bfc bfa8
00000230: 3201 e3bd 3705 63be 89b3 28be 3cd5 0d3d
00000240: 2017 a73d ab55 e23b 6286 21be 911c 52bc
00000250: 52f3 bc2b 9649 243d 6fcf d23d 7d02 e23d
00000260: 3e18 e4bd 8b36 e73c dc89 d4bd 9e96 683d
00000270: 0451 e13d ff38 e8bd 3904 923d 951a a53c
00000280: f0b2 73bd 2ab3 3d3d 67be 72bd 89e8 b9bd
00000290: d841 aa3d d847 0a3e a9ed cdbc afec c9bd
000002a0: e1f8 6e3b efb9 56be 0eb5 0a3e d3f4 cabc
000002b0: 5771 6b3d 1f7a 7d3d 0a67 903d 6348 39be
000002c0: 8020 703d 842b 883c 1185 b0bc e3f0 ad3d
000002d0: c687 adbd 252e c13c f56f de3d 044e 8e3d
000002e0: 296d e93b 0b46 8e3d 7aa4 bf3d 57f5 dd3d
000002f0: 2d62 31be de12 04be 0ff0 41be 4864 b63b
00000300: 8823 ef3d cc3c 19be 1d9e 9f3d a599 59bd
00000310: 562c 023e f0a7 03be 7f33 56be ca1c 263e
00000320: fe22 f1bb 56a9 ea3c 3e83 14bd d55f c1af
00000330: 64f3 303d 643b 8cbd 60a6 3abe ead7 3c3d
00000340: 77c9 953d 18b5 84ba 5046 76be 3700 063e
00000350: e62c 9b39 5035 08be 735c 09be fe37 a23c
00000360: 7e6c 2bbe 5fab 17bc 834a 90bd abb4 27be
00000370: afcd 9dbd 5703 f23d 2ee3 e53d 77cb 45be
00000380: b969 0b3d 685f 89b9 1268 2bbc 87ea 1e3c
00000390: 646c be3d b7c0 30be 118c 2d3c 90f3 53bd
000003a0: 95ce e4bc 60ce b73d bd9f 0ebe 5265 8abd
000003b0: 41a0 b33d 4b15 453d b721 1bbe 3c3e 0a3e
000003c0: 521e 83bd 803f 7e3d a88e 50bd 863d ab3a
000003d0: 24f7 b33c a820 733d bad8 e33d c404 973d
000003e0: b2ba d43d 45a0 ca3d c85e 50be 76d4 a8bc
000003f0: c383 e1bd e08c d73d f366 99be 3ecd 13bd
0.043137208 0.056191582 0.13773257 -0.08323737 0.037704267 0.119431816 0.0881932 -0.025941383
-0.20948775 -0.023025937 0.086438626 -4.1162573e-13 -0.18011728 0.12259133 0.017071065 -0.09015486
0.03554251 -0.0026195988 -0.25279 0.09847509 0.0027126702 -0.12263455 -0.06403463 -0.0036540504
-0.0891057 0.01930799 -0.15579686 -0.12337506 -0.005095033 0.09911168 0.062145974 -0.19528715
-0.11706989 0.076702654 0.041470233 0.03423274 0.14920929 0.13840888 -0.031390954 0.035257522
-0.01121783 0.02672447 0.053794663 -0.0043979455 -0.0071811313 0.046701048 -0.0048463927 -0.111463144
0.021602614 0.034685425 0.026835619 0.101821736 -0.17877884 0.09150285 0.07902202 -0.08316968
-0.015620932 -0.17204738 -0.19596489 0.010033543 -0.14742997 0.08311427 -0.11100396 -0.1455731
0.025769467 -0.14369467 0.16200191 0.18982628 0.13702641 0.14356452 -0.12629421 0.13465866
0.14173765 0.007722602 -0.15704851 -6.3447355e-12 -0.17097868 0.035791714 -0.09742569 0.08053892
-0.11455415 0.0007244451 -0.2651707 0.03154519 -1.2167006e-06 -0.07366312 -0.10361854 0.04776726
-0.21392278 -0.082295984 -0.23499726 -0.04676225 -0.03507856 -0.22166058 0.000566984 -0.08664311
-0.0055204174 -0.050562765 0.04450038 -0.12620135 0.0017692265 -0.14721783 -0.2108144 0.03492998
0.019474918 0.0628636 0.15189134 -0.2156761 -0.060300164 -0.21673574 0.10258137 0.061545115
-0.065138616 0.16012898 0.24533445 0.14529791 -0.1324103 -0.08245719 -0.02828676 -0.059186477
-0.20881799 0.1561382 0.14630838 -0.13396934 -0.12642309 0.09123247 -0.15540648 0.05447916
-0.0031509146 -0.06319973 -0.17277177 -0.24296665 -0.23220405 -0.030099465 -0.057198085 0.16944468
-0.13170102 0.022717908 0.0747527 -2.131462e-14 -0.11084212 -0.22169958 -0.16474737 0.034627184
0.081587076 0.006907185 -0.15773919 -0.012824194 1.3425738e-12 0.04010924 0.10293471 0.11035631
-0.11137436 0.02822425 -0.10377857 0.056784265 0.11001781 -0.11338996 0.07129712 0.020154277
-0.05949682 0.046313442 -0.059263613 -0.09077556 0.0831334 0.13503969 -0.02513774 -0.09859597
0.0036464261 -0.20969366 0.1354563 -0.024774944 0.057481136 0.061884042 0.07050903 -0.1809402
0.058624744 0.016622312 -0.021547826 0.08493211 -0.08473162 0.023581574 0.10861198 0.06948474
0.0071236086 0.069469534 0.09357543 0.108378105 -0.17322607 -0.12897822 -0.18939231 0.0055661537
0.11676699 -0.14964598 0.077938296 -0.053125042 0.12712225 -0.12857032 -0.20918082 0.1622192
-0.0073589077 0.028645199 -0.036257975 -3.5174588e-10 0.043200865 -0.06847265 -0.1822753 0.04610435
0.07313817 -0.0010124771 -0.2405026 0.1308602 0.00029597356 -0.13301587 -0.13414173 0.01980209
-0.16740605 -0.009257167 -0.07045462 -0.16377513 -0.07705247 0.11817043 0.11224972 -0.19315897
0.03403637 -0.0002620176 -0.010461824 0.00969947 0.092980176 -0.17261015 0.010592476 -0.05174595
-0.027930537 0.0897491 -0.13928123 -0.067576066 0.087708004 0.04811601 -0.1514958 0.13500303
-0.064022675 0.062072277 -0.050917298 0.00130646 0.021968432 0.059357315 0.11125322 0.07373956
0.10387172 0.0989385 -0.20348656 -0.020609122 -0.1101146 0.10524917 -0.29961357 -0.036084406

bias f4 [10]
00000000: c964 70bd 3893 86bd 5931 a5bd 1cab 47bd
00000010: 4363 c7bc de68 e73d 4817 1a3e 4635 4bbc
00000020: 0dcf a6bd e645 09be
-0.058689866 -0.065710485 -0.08066053 -0.048747167 -0.024339324 0.11299299 0.15047944 -0.012402838
-0.081449606 -0.1340557
