2-hypertuning-mlflow/models/20250926-1521model.pt (torch, 283033 bytes, 6 tensors)

weight f4 [64, 784]
0	0x3b719f9b	0.0036868814
1	0x3cb08063	0.021545595
2	0xbabbe129	-0.0014334071
3	0xbc02225f	-0.007942765
4	0xbdb6a169	-0.08917505
5	0xbd2a48b3	-0.041573238
6	0x3cf383c4	0.029725917
7	0x3db8cdba	0.09023614
8	0x3df0feff	0.11767387
9	0x3db45fe9	0.08807356
10	0x3da74fde	0.0816953
11	0x3da81812	0.08207716
12	0x3ce51c04	0.02796746
13	0x3d12b779	0.035819504
14	0x3d30c76a	0.043158926
15	0x3b7e62b6	0.003881616
16	0x3dd75016	0.10513322
17	0x3d877d70	0.06615722
18	0x3df59dcc	0.11992988
19	0x3e397e19	0.18114509
20	0x3e207a1f	0.15671586
21	0x3cfe5b6d	0.031049455
22	0x3c9cadb1	0.019125791
23	0xbc8cbe43	-0.017180568
24	0xbd163100	-0.036667824
25	0xbd007518	-0.03136167
26	0xbb3c2288	-0.0028707106
27	0x3a9dc011	0.001203539
28	0xbb608d7b	-0.0034264016
29	0xbbfaea5c	-0.0076573323
30	0xbd056e07	-0.032575633
31	0xbc07687f	-0.00826466
32	0xbd723875	-0.059135873
33	0xbc72ab4c	-0.014811348
34	0xbd82f8a2	-0.06395079
35	0xbd1873b9	-0.037219737
36	0x3c077797	0.008268259
37	0xbc6261f0	-0.013817295
38	0x3c8c2df6	0.01711176
39	0x3dbd4694	0.09241977
40	0x3d580e13	0.052747797
41	0x3c58d474	0.0132342465
42	0x3d65c270	0.056093633
43	0x3ca793dc	0.020456247
44	0x3d2020be	0.039093725
45	0x3d902554	0.0703837
46	0x3d2da275	0.04239126
47	0x3d399722	0.045310147
48	0x3dd8dc64	0.10588911
49	0x3cff2af8	0.031148419
50	0xbcebac3c	-0.028768651
51	0x3d4f6946	0.050637506
52	0xbd37f47f	-0.044910904
53	0xbcdeb8a7	-0.027187658
54	0xbce687a6	-0.028140854
55	0x3bf69ef9	0.0075262752
56	0x3c697e84	0.014251355
57	0x3cbc5e97	0.022994323
58	0xbc7cdfc0	-0.0154342055
59	0x3c5f093b	0.013613041
60	0xbd11f2ee	-0.035632066
61	0xbd7af19d	-0.061265577
62	0xbbdf0a0c	-0.0068066176
63	0x3ca902d4	0.020631231
64	0xbb2620d0	-0.0025349148
65	0x3c95f142	0.018303517
66	0x3d21056d	0.039311815
67	0xbc53ce01	-0.012927533
68	0xbb9a83ff	-0.004715442
69	0x3d795424	0.06087126
70	0x3d571ef6	0.05251976
71	0x3cd3a1be	0.02583396
72	0x3d304c21	0.043041352
73	0xb9ef525e	-0.00045647
74	0x3d0aceab	0.0338885
75	0x3d6039fe	0.054742806
76	0x3c9b86aa	0.018985111
77	0x3d92564d	0.07145367
78	0x3c0f6e04	0.008754257
79	0x3cc50f51	0.024055155
80	0x3d2674a5	0.040638585
81	0x3d3f9597	0.04677352
82	0x3c20b7a5	0.009809409
83	0x3cf0e780	0.029407263
84	0x3aa8b2f2	0.0012870713
85	0xb9e5df42	-0.00043844624
86	0x3c089545	0.00833637
87	0xbcc8940f	-0.024484662
88	0xbabb7091	-0.0014300515
89	0xbc80cc9e	-0.01572257
90	0x3d3ef5a6	0.046620987
91	0xbc519eed	-0.0127942385
92	0xbda7eb3d	-0.08199165
93	0xbcf24afb	-0.02957677
94	0x3ce0f54f	0.027460722
95	0x3c520b30	0.01282005
96	0x3c0aeb55	0.008478959
97	0xbc6851ba	-0.014179641
98	0x3c9f582e	0.019451227
99	0x3ce71779	0.028209435
100	0x3c78aa32	0.0151772965
101	0x3d36423f	0.04449677
102	0xbc7715ef	-0.015080913
103	0xbc8311c0	-0.015999675
104	0xbc8fa879	-0.017536389
105	0x3cc4b59a	0.024012376
106	0x3ca14cc1	0.01968992
107	0x3da4cb25	0.08046559
108	0x3dce0801	0.100601204
109	0x3cb27426	0.0217839
110	0xbbe59d11	-0.007007249
111	0x3c8672a0	0.01641208
112	0xbc86e3df	-0.01646608
113	0xbca373e5	-0.019952724
114	0xbd29d2fe	-0.041460983
115	0xbc432334	-0.011910249
116	0x3cd09b2a	0.025464613
117	0x3c51bcd6	0.01280137
118	0xbca3dd64	-0.020003028
119	0xbcd2c09e	-0.025726613
120	0xbd2018a4	-0.039086
121	0x3c02c888	0.007982381
122	0x3d1c67c0	0.03818488
123	0xbb31c37b	-0.0027124572
124	0x3c8c1111	0.017097982
125	0x3d562145	0.052277822
126	0xbc5716c8	-0.01312799
127	0xbc411fe7	-0.011787391
128	0x3ce53c2f	0.0279828
129	0xbc9e9cc1	-0.019361855
130	0x3d38cf38	0.045119494
131	0x3cd3ce89	0.02585532
132	0xbc1fa3ca	-0.00974364
133	0x39d45ce9	0.00040505014
134	0x3d84bde8	0.06481534
135	0x3d15f9ad	0.036615063
136	0x3d957a58	0.07298726
137	0x3c2c054d	0.010499311
138	0xbc8c4260	-0.017121494
139	0xbc9eebf4	-0.01939962
140	0x3cddc641	0.027072074
141	0x3cceebc0	0.025258899
142	0x3ccbb7a2	0.024867836
143	0xbb52cce9	-0.0032165593
144	0x3ca869fb	0.020558348
145	0x3d87d9d8	0.06633347
146	0xbcf19168	-0.02948828
147	0xbdbba57d	-0.09162424
148	0xbda28431	-0.0793537
149	0x3cde172b	0.027110657
150	0xba5e69ae	-0.00084843754
151	0x3cd23222	0.02565867
152	0xbaef7af4	-0.0018270896
153	0x3c3b15ba	0.011418754
154	0x3c84b09e	0.016197499
155	0x3d3e9a71	0.046534006
156	0xbbbe54af	-0.005808435
157	0x3d2fe94d	0.042947102
158	0x3d19e96c	0.037576124
159	0x3d0d23c0	0.034457922
160	0xbd5f50c7	-0.054520395
161	0xbd3af997	-0.045648184
162	0x3cf87542	0.03032935
163	0x3db0fbf8	0.08641809
164	0x3ddb9aea	0.10722907
165	0x3cbf5a26	0.023358416
166	0xbd279c2f	-0.040920433
167	0xbd26514a	-0.040604867
168	0x3d35d6d0	0.044394314
169	0x3cfca8ad	0.03084215
170	0x3c8db4d0	0.017298132
171	0x3d7703d0	0.06030637
172	0x3d2a5fd3	0.04159529
173	0x3d862190	0.0654937
174	0x3d1cd637	0.03829023
175	0xbd735a2d	-0.05941217
176	0xbcace5b1	-0.02110562
177	0x3cbf28e0	0.02333492
178	0xbc061051	-0.008182601
179	0x3c423758	0.011854015
180	0xbc5d9980	-0.013525367
181	0x3c3deb98	0.011591814
182	0x3c4e0f5b	0.012576903
183	0x3d3a6013	0.04550178
184	0x3d3eb7d4	0.04656203
185	0x3d096ee7	0.03355303
186	0x3cad8f27	0.021186424
187	0x3c903712	0.017604385
188	0xbd329f3d	-0.043608893
189	0xbcd5b781	-0.026088478
190	0x3d135617	0.035970774
191	0x3d1a477d	0.037665833
192	0x3de58312	0.1120664
193	0x3ddb81b1	0.10718096
194	0x3d00f16e	0.031480245
195	0x3c089ae6	0.008337712
196	0x3d4d50e4	0.05012597
197	0x3d92e6d3	0.071729325
198	0x3cfe0cac	0.031011902
199	0x3d963e99	0.07336158
200	0x3d9465bc	0.07245967
201	0x3d9e38b1	0.07725657
202	0x3d1e6ecd	0.038679887
203	0x3b79e83f	0.0038132814
204	0x3c8e8a8e	0.017400052
205	0x3d3b1453	0.04567368
206	0x3d26109a	0.040543176
207	0xbb9de5fd	-0.0048186765
208	0x3cc98666	0.024600219
209	0x3cbb6a40	0.022877812
210	0x3b3d6b74	0.0028903158
211	0x3c305a11	0.010763661
212	0x3cb06cbc	0.021536224
213	0x3c961d1c	0.018324427
214	0x3c319c41	0.0108404765
215	0x3cc2ef0f	0.023795633
216	0xbd420a85	-0.047373313
217	0xbd2b7776	-0.041861974
218	0x3d94a1d9	0.072574325
219	0x3da38761	0.07984806
220	0x3d9ab6d6	0.075544044
221	0x3d767fe4	0.06018056
222	0x3b814924	0.0039454866
223	0xbd4a13fa	-0.049335457
224	0x3ca890f6	0.020576935
225	0x3d60f009	0.054916415
226	0x3d403606	0.04692652
227	0x3d914918	0.0709402
228	0x3d74ffce	0.059814267
229	0x3d6d35ce	0.05791264
230	0x3d528838	0.05139944
231	0x3b938b1e	0.004502668
232	0x3bfc03c6	0.0076908795
233	0x3d4edb04	0.05050184
234	0x3d376da0	0.04478228
235	0x3d042703	0.032263767
236	0x3cf1c419	0.029512452
237	0x3d58ad26	0.052899502
238	0x3d07e8cc	0.033180997
239	0x3d3e12b6	0.046404563
240	0xbbc0f2db	-0.0058883256
241	0x3c359377	0.011082522
242	0x3da78cf6	0.08181183
243	0x3c78a42e	0.015175862
244	0xbd069c3a	-0.032863833
245	0xbc98338d	-0.018579269
246	0x3cbee7a9	0.023303824
247	0x3d857c62	0.06517865
248	0x3da9b36a	0.08286174
249	0x3d895f6b	0.06707653
250	0x3d2cbf26	0.04217448
251	0x3d29616d	0.041352678
252	0x3c3f8c60	0.011691183
253	0x3cc4f56b	0.024042806
254	0x3d12f830	0.03588122
255	0x3d95e2d6	0.07318656

bias f4 [64]
0	0x3aaad1ac	0.0013032458
1	0x3e0ddd41	0.13853933
2	0xbb948565	-0.0045325034
3	0x3d8ea611	0.069652684
4	0x3e22694b	0.15860479
5	0xbd638713	-0.05554874
6	0x3aef5167	0.0018258513
7	0xbd85630c	-0.06513032
8	0x3c8b223e	0.016984101
9	0x3e0f38d9	0.1398653
10	0x3d0f5366	0.034991644
11	0x3d0e09bd	0.034677256
12	0xbca0729c	-0.0195859
13	0x3db6d99a	0.08928223
14	0x3c2058c5	0.009786789
15	0x3df85aee	0.121267185
16	0xbd902453	-0.07038178
17	0x3d21080c	0.039314315
18	0xbdc1f99e	-0.09471439
19	0xbc8e5eda	-0.017379213
20	0x3d4a8d19	0.049450967
21	0x3cfadfc7	0.030624283
22	0xbddf53c1	-0.10904647
23	0x3d8640df	0.06555342
24	0xbd70c6c2	-0.0587833
25	0x3d80f976	0.06297581
26	0x3d879139	0.06619496
27	0x3b37526c	0.0027972711
28	0x3e211042	0.15728858
29	0x3e0066cc	0.12539214
30	0x3c3843eb	0.011246662
31	0x3db6baaf	0.08922326
32	0x3e26125a	0.16217938
33	0xbd9f49f5	-0.07777778
34	0x3e3245f7	0.17409502
35	0xbd8f3bd3	-0.069938324
36	0xbda0b12a	-0.07846291
37	0x3e317532	0.17329863
38	0x3e1b8d97	0.15190731
39	0xbdd0b102	-0.101900116
40	0x3cc28229	0.023743706
41	0xbbe7b4da	-0.0070711197
42	0x3d720a34	0.05909176
43	0xbd461c02	-0.048366554
44	0xbcabb877	-0.020961983
45	0x3cbb1cd8	0.022840902
46	0x3d93c86c	0.07215962
47	0x3dab6ecb	0.083707415
48	0x3d872bed	0.06600175
49	0xbbb5d94a	-0.0055495845
50	0x3e5d9836	0.21640095
51	0xbc808f63	-0.015693372
52	0x3e380ab8	0.17972839
53	0xbc309217	-0.010777018
54	0x3e32d6ea	0.17464796
55	0x3dfc2e57	0.12313526
56	0xbb92a810	-0.004475601
57	0x3d890464	0.066902906
58	0x3da6892e	0.08131634
59	0xbd049ba4	-0.032374993
60	0xbd175e13	-0.03695495
61	0x3e002752	0.12515
62	0x3de91362	0.1138065
63	0x3d5c101a	0.053726293

weight f4 [256, 64]
0	0x3bb12bd8	0.005406838
1	0x3c3f57c7	0.011678643
2	0x3d30ac2a	0.04313294
3	0xbd1a22c3	-0.037630808
4	0xa4ebdc16	-1.02287844e-16
5	0xbcca2d89	-0.024679916
6	0xa82f6014	-9.735285e-15
7	0xbb35a716	-0.0027718
8	0xa48c852e	-6.094094e-17
9	0xbd5a9b35	-0.053370673
10	0xbd958bab	-0.0730203
11	0xbc862114	-0.016373195
12	0xbd3cff71	-0.046142045
13	0xbd85083e	-0.06495713
14	0xba78d0b7	-0.000949155
15	0xbc226085	-0.009910707
16	0xbc0841c9	-0.008316466
17	0xbd6cb478	-0.057789296
18	0xbd9fed81	-0.07808972
19	0xbda284d8	-0.07935494
20	0xbc887bd7	-0.016660614
21	0x3d7a9b47	0.06118324
22	0x3d4d212a	0.050080456
23	0xbdbc3844	-0.09190419
24	0xbc9b95b3	-0.01899228
25	0x3c4af291	0.012386934
26	0xbdc871c7	-0.09787326
27	0xa774d4f3	-3.3977242e-15
28	0x3da79446	0.08182578
29	0xbc43c7b5	-0.011949469
30	0xbcec5e4f	-0.028853564
31	0xbc93e6b5	-0.018054346
32	0x3c402a09	0.011728772
33	0xbdbd3d79	-0.092402406
34	0xbc558d80	-0.0130342245
35	0xbd23256b	-0.039830606
36	0x3d2adfa5	0.04171719
37	0xbd5a1d4c	-0.053250596
38	0x39273745	0.0001594695
39	0x3ceab191	0.028649123
40	0xbd8fdab6	-0.07024138
41	0xbc9d58a3	-0.019207304
42	0x3c0cf3c4	0.00860304
43	0x256d5773	2.0586102e-16
44	0x281ddf65	8.763692e-15
45	0xbc6116e6	-0.01373837
46	0xbd34190f	-0.04396921
47	0xa8198fc9	-8.5243846e-15
48	0xbd26f794	-0.040763453
49	0xa5ee7acc	-4.136963e-16
50	0xbc86e8c2	-0.01646841
51	0xa58bc145	-2.424362e-16
52	0xbc15a6a8	-0.009133972
53	0xbca5e556	-0.020250957
54	0xbd426c58	-0.047466606
55	0x3cd09c34	0.025465108
56	0x2cca3f6e	5.7482274e-12
57	0x3d026b67	0.031840708
58	0xbcb90646	-0.022586
59	0xbc7f6e8d	-0.015590322
60	0xbd01e4ad	-0.031712223
61	0x3d1d58ae	0.03841465
62	0xbcaba5aa	-0.020953018
63	0xbcf72dec	-0.030173264
64	0xbd5ab1f0	-0.05339235
65	0x3c76bfc0	0.015060365
66	0x3ce6067a	0.02807926
67	0x3e087166	0.13324508
68	0xbd57e3ce	-0.052707486
69	0x3d0cee1f	0.034406777
70	0xb7b7e6d6	-2.1922791e-05
71	0x3d30a555	0.043126423
72	0x3d79e3ce	0.061008267
73	0x3c5d705b	0.013515557
74	0xbdd7932c	-0.10526118
75	0x3c92e8af	0.017933218
76	0xbdfcb9f8	-0.12340158
77	0xbd5a9697	-0.05336627
78	0xbdd9b640	-0.106304646
79	0x3c48083f	0.012208997
80	0x3e23d499	0.15999068
81	0xbe18f84f	-0.14938472
82	0x3d8ba57a	0.068186715
83	0x3c8e0243	0.017335063
84	0xbc9967cd	-0.018726254
85	0xbd193f97	-0.03741416
86	0xbd7ad49a	-0.06123791
87	0x3e07ed8e	0.13274214
88	0xbdad9f27	-0.084776215
89	0x3e26eadf	0.16300534
90	0x3b3e8ddc	0.0029076254
91	0x3d6c38df	0.057671424
92	0x3cd4689f	0.025928793
93	0x3dd1adfa	0.102382615
94	0x3cb68393	0.022279536
95	0xbcde62b7	-0.02714668
96	0x3da74cb0	0.08168924
97	0xbdcb0782	-0.099135414
98	0xbd75e65d	-0.060034145
99	0x3c90b99a	0.017666627
100	0xbd7bea68	-0.061502844
101	0xbdcb1799	-0.0991661
102	0xbd1ffe12	-0.03906066
103	0xbd98818f	-0.07446586
104	0x3d519618	0.05116853
105	0xbceb4a8e	-0.028722074
106	0x3d7777f8	0.060417145
107	0xbcbbb8c3	-0.02291525
108	0xa80b8f1c	-7.747082e-15
109	0x3e3778cf	0.17917179
110	0xbd48b98f	-0.049005087
111	0x3d8738c2	0.066026226
112	0x3e14a87d	0.14517398
113	0xa3470b9f	-1.07902725e-17
114	0x3ba15630	0.0049236044
115	0xad467539	-1.1281026e-11
116	0x3d0ce70a	0.034400024
117	0x3c3a7822	0.011381181
118	0x3d480851	0.048836056
119	0x3db1eeff	0.08688163
120	0x39f31ed0	0.0004637153
121	0xbd0e527e	-0.03474664
122	0xbbfa50ca	-0.0076390253
123	0xbe0c7306	-0.13715753
124	0x3dcc8829	0.09986908
125	0xbe395dbb	-0.18102162
126	0xbd9557a6	-0.07292108
127	0xbdfcc4ba	-0.1234221
128	0x3d9f2417	0.077705555
129	0xbd01cb0b	-0.031687777
130	0xbd3e73ed	-0.046497274
131	0xbcc2556f	-0.023722379
132	0xa76d52c0	-3.2935216e-15
133	0xbd0fd229	-0.035112534
134	0xa6654985	-7.9549973e-16
135	0x3c944f52	0.01810423
136	0x3d81deb8	0.06341308
137	0xbdd5de95	-0.10442845
138	0xbada67d0	-0.0016663019
139	0xbd535bdb	-0.051601272
140	0xbd886d8e	-0.06661521
141	0xbcd19317	-0.025582833
142	0xaba3b694	-1.1632522e-12
143	0xbc080a53	-0.008303243
144	0xbd34b77c	-0.044120297
145	0xbcb3156f	-0.021860806
146	0xbd06c8ab	-0.032906216
147	0xbc3b625e	-0.011437027
148	0xbcbae7be	-0.022815581
149	0x3c977e73	0.018492913
150	0x3cb05a53	0.021527445
151	0x3c71e251	0.014763431
152	0x3c2ec44f	0.010666921
153	0xbc600f50	-0.013675526
154	0xbd3b68d9	-0.045754287
155	0xbc173a0d	-0.009230149
156	0xbddeb860	-0.108750105
157	0x3d42f16c	0.04759352
158	0xbc2a4985	-0.010393505
159	0xbcc28cba	-0.023748744
160	0xbcb41c93	-0.021986281
161	0xbd055f68	-0.03256169
162	0x2e834582	5.9695374e-11
163	0xbd7cfc75	-0.0617642
164	0x399f7203	0.0003041179
165	0x3cc72ee0	0.024314344
166	0x3d85d611	0.065349706
167	0xbd436d26	-0.047711514
168	0x3b706505	0.0036681306
169	0x3bc632c3	0.0060485317
170	0xbd764d8c	-0.06013255
171	0x2778e1d1	3.453933e-15
172	0xa7252861	-2.292024e-15
173	0xbc3a2b56	-0.011362871
174	0xbd4d8adb	-0.05018125
175	0xbbc9254b	-0.006138479
176	0x3da87b06	0.0822659
177	0x2a9f82a9	2.8334737e-13
178	0x3cb2686b	0.021778306
179	0xa364e7cf	-1.2408992e-17
180	0xbd382884	-0.044960514
181	0xbda7485b	-0.081680976
182	0xb6712656	-3.5934113e-06
183	0x3cb5ad76	0.02217744
184	0xb8f8cb8b	-0.00011863474
185	0x3d870c0a	0.06594093
186	0x2bc22915	1.3795932e-12
187	0x3da9994d	0.08281193
188	0xbd083858	-0.03325686
189	0x3b0acd88	0.0021179635
190	0xbd41503e	-0.047195666
191	0x3dac32cf	0.084081285
192	0x3e3a7c8a	0.1821157
193	0x3d0b68d6	0.034035526
194	0xbd4687fb	-0.048469525
195	0x3d976678	0.07392591
196	0x3db2a555	0.08722941
197	0x3d5d4cc4	0.054028288
198	0xb6afe57b	-5.2421215e-06
199	0x3ddcc10d	0.10779009
200	0xbd056a77	-0.032572236
201	0x3dcb374f	0.09922659
202	0xbd21dcea	-0.03951732
203	0x3d51c482	0.051212795
204	0xbd1a6849	-0.03769711
205	0x3cadf23f	0.021233676
206	0xbe42bb94	-0.19016868
207	0xbe0390ee	-0.12848255
208	0x3d79dcd7	0.061001625
209	0x3db6bbd8	0.08922547
210	0xbd90a5be	-0.07062863
211	0xbd4a7b41	-0.04943395
212	0x3df1c46e	0.11805044
213	0x3dc47aa0	0.09593701
214	0x3d5c2d82	0.053754337
215	0x3da04a51	0.07826675
216	0x3d02b4b3	0.03191061
217	0x3b0785a4	0.0020679021
218	0x3e12c800	0.14334106
219	0x3c649993	0.013952631
220	0xba14b45a	-0.00056726264
221	0x3e13d575	0.14436896
222	0xbdbc1794	-0.09184185
223	0xbda643c4	-0.08118394
224	0xbc4f5489	-0.012654432
225	0x3daefdd1	0.085445054
226	0xbda39bef	-0.07988726
227	0xbbdc3564	-0.006720232
228	0xbd0dc737	-0.034613814
229	0x3d9226ab	0.071362816
230	0xbc88b0be	-0.01668584
231	0x3e1aa8d7	0.1510347
232	0xbd04dea5	-0.032438893
233	0x3d771fcd	0.060333062
234	0x3dfe7055	0.124237694
235	0xbcd91b15	-0.026502172
236	0xbb1ad2f5	-0.0023624275
237	0xbb2412bb	-0.0025035578
238	0xbb93c4f3	-0.004509562
239	0x3d7e2ae2	0.062052615
240	0x3d5c4ed1	0.053786103
241	0x2f0b74e7	1.2683508e-10
242	0x3bfda98e	0.0077411598
243	0xa791b3da	-4.044058e-15
244	0x3de35f7c	0.111021966
245	0x3da176f9	0.0788402
246	0xbd31b58e	-0.043386035
247	0x3dac406c	0.08410725
248	0xbc5c6be6	-0.013453459
249	0x3e09878b	0.13430612
250	0xbae8594c	-0.0017726808
251	0xbd17908e	-0.037003092
252	0xbdf33bd4	-0.11876646
253	0xbdcaf49b	-0.09909936
254	0x3d8b6ade	0.06807493
255	0x3d8dc76b	0.069228016

bias f4 [256]
0	0xbd5d42d2	-0.054018803
1	0x3d67b864	0.056572333
2	0xbc174c1f	-0.009234457
3	0x3e1233c1	0.14277555
4	0xbe0e1864	-0.13876492
5	0x3d54b686	0.05193188
6	0x3e2c0549	0.16798891
7	0x3d51d395	0.05122717
8	0xbd7ef587	-0.062245872
9	0x3d5015b4	0.050801948
10	0xbd35bfc5	-0.04437234
11	0xbdbf790f	-0.09349262
12	0x3d0846b3	0.03327055
13	0xbde6c964	-0.11268881
14	0x3e54cc58	0.20781076
15	0x3de14ce5	0.110009946
16	0x3dfd76b5	0.12376157
17	0xbd050af8	-0.032481164
18	0xbbd3e13c	-0.006466059
19	0x3e595455	0.21223576
20	0xbdbf70d3	-0.093476914
21	0xbce13c70	-0.02749464
22	0x3dd60f2f	0.10452115
23	0x3c02aaf7	0.0079753315
24	0x3dd80d50	0.10549414
25	0x3dc3df2b	0.0956405
26	0xbd3e917b	-0.04652546
27	0x3d85d1e3	0.06534173
28	0x3de9545e	0.11393045
29	0x3dcb1a2c	0.09917101
30	0xbd0adbd5	-0.033901054
31	0xbc7d7535	-0.015469839
32	0xbdf6250e	-0.12018786
33	0xbc6f9860	-0.014623731
34	0x3d896933	0.06709518
35	0xbb8607ec	-0.0040903
36	0x3d227475	0.039661843
37	0x3c5371b2	0.012905525
38	0xbe067669	-0.13131107
39	0x3d84c73a	0.06483312
40	0x3e4b78dc	0.19870323
41	0x3e23006d	0.15918131
42	0xbd37ad1a	-0.044842817
43	0x3dcac405	0.09900669
44	0xbe08815f	-0.13330601
45	0x3de44f67	0.11147957
46	0x3e1477a1	0.1449876
47	0x3e3e396c	0.18576592
48	0xbc25b0d3	-0.010112959
49	0xbdd6770a	-0.10471924
50	0xbd85da15	-0.065357365
51	0xbdda35b8	-0.10654777
52	0xbdb29400	-0.08719635
53	0x3e337094	0.17523414
54	0xbd395ce8	-0.045254618
55	0x3e3afc39	0.18260278
56	0xbdc47871	-0.09593285
57	0x3dbf57bd	0.093429066
58	0x3d4e8a8a	0.05042509
59	0x3e7b57b2	0.24545172
60	0xbd11ab7b	-0.035563927
61	0xbd5f9b57	-0.054591503
62	0xbc952c31	-0.018209549
63	0x3e24af38	0.16082466
64	0x3d22c18e	0.03973537
65	0xbdbb73aa	-0.091529205
66	0xbd9c6fe2	-0.076385275
67	0x3d51a1e8	0.051179796
68	0x3d738048	0.05944851
69	0x3dec3199	0.115328975
70	0xbd961df3	-0.07329931
71	0x3bdbba22	0.0067055384
72	0x3d2ead24	0.04264559
73	0x3d60257d	0.05472325
74	0x3d05ee36	0.03269788
75	0x3ea5e9db	0.3240498
76	0x3e0365f5	0.12831862
77	0x3d8bcef8	0.068265855
78	0xbbe69fcf	-0.0070380936
79	0xbdb61a78	-0.08891767
80	0x3e1cb411	0.15303065
81	0xbd8c9661	-0.0686462
82	0x3e542d44	0.20720392
83	0xbd8a86c4	-0.06763986
84	0xbe0cb079	-0.13739194
85	0xbbe8260b	-0.007084613
86	0xbcf77810	-0.030208617
87	0x3c180f03	0.009280923
88	0x3dc3fcef	0.09569728
89	0xbdb45126	-0.0880454
90	0x3db8ace8	0.09017354
91	0x3d4ed000	0.050491333
92	0xbda2c570	-0.079478145
93	0xbc62e5b5	-0.013848712
94	0x3e46bc2b	0.19407718
95	0x3d1db200	0.038499832
96	0x3d6c7e8a	0.057737865
97	0x3e1eca23	0.15506797
98	0x3e4084f1	0.18800713
99	0xbcaf0dba	-0.02136885
100	0x3d9f8392	0.07788767
101	0xbd263a19	-0.04058275
102	0xbe285c75	-0.1644152
103	0xbb8c2948	-0.004277382
104	0xbe1be69d	-0.1522469
105	0x3cc9fc5f	0.024656473
106	0xbcc14f68	-0.023597434
107	0x3cca5e8e	0.02470329
108	0x3e4fa438	0.20277488
109	0x3dda9a3e	0.106739506
110	0x3d410fb4	0.047134116
111	0x3dc7dfeb	0.09759506
112	0x3cad3e39	0.021147834
113	0x3dd377ad	0.10325561
114	0x3e22582a	0.15853944
115	0xbd8726ab	-0.06599172
116	0xbcf1fb52	-0.029538784
117	0x3e4262d4	0.18983012
118	0xbd13acb9	-0.036053393
119	0x3dd9e212	0.106388226
120	0xbd3206f5	-0.043463666
121	0x3e3f725e	0.18695971
122	0xbdec6dc3	-0.11544373
123	0xbd9acf96	-0.07559125
124	0x3d36bafc	0.044611916
125	0x3d36fde8	0.044675738
126	0x3d10dfdb	0.035369735
127	0xbdde63bc	-0.108588666
128	0xbdd8d19b	-0.10586854
129	0xbd200c58	-0.039074272
130	0x3d1b4982	0.0379119
131	0x3d80be4e	0.06286298
132	0x3de3df7e	0.11126612
133	0xbd669fff	-0.056304928
134	0x3dabcb0d	0.08388338
135	0x3dc4f5be	0.09617184
136	0x3c2f842a	0.010712663
137	0x3dec2138	0.115297735
138	0xbe14d336	-0.14533696
139	0xbc2dae96	-0.010600707
140	0x3b7cdfaa	0.0038585463
141	0xbd49a150	-0.049226105
142	0x3e053045	0.13006695
143	0xbdb731c0	-0.08945036
144	0x3bb0e813	0.005398759
145	0x3d959516	0.073038265
146	0x3db47c57	0.088127784
147	0xbd97c23e	-0.07410096
148	0xbc5533e5	-0.013012861
149	0x3e13d87e	0.14438054
150	0x3df3c730	0.119032264
151	0xbe020a6c	-0.12699288
152	0x3db40bd1	0.08791316
153	0x3e7fe608	0.24990094
154	0x3e803e28	0.2504742
155	0xbc959f89	-0.018264549
156	0x3d989d98	0.074519336
157	0x3e00e260	0.12586355
158	0x3d17e8b0	0.037087142
159	0x3e16d902	0.1473122
160	0x3dbac051	0.09118713
161	0xbd50fe1a	-0.05102358
162	0x3e1b8967	0.15189134
163	0x3dc5bf67	0.09655648
164	0xbd6121fb	-0.054964047
165	0x3e38447f	0.17994879
166	0x3de4ae11	0.11166013
167	0xbd62537b	-0.055255394
168	0x3cbeb502	0.02327967
169	0xbe4867eb	-0.19570892
170	0x3e06e2e0	0.13172483
171	0xbdb1124e	-0.086460695
172	0x3df97955	0.121813454
173	0x3e4c4bdd	0.19950815
174	0xbc8be38d	-0.017076278
175	0x3d7e6869	0.062111292
176	0xbb7904ea	-0.0037997314
177	0x3c74d86d	0.014944178
178	0xbdacdfac	-0.084410995
179	0x3dc65ffe	0.09686278
180	0x3de6583e	0.112472996
181	0x3e35a4b4	0.1773861
182	0x3c6800ea	0.014160374
183	0x3e344fce	0.17608568
184	0xbc72f359	-0.014828526
185	0xbe164812	-0.1467593
186	0x3dfbaf74	0.122893244
187	0x3d1ae382	0.037814625
188	0x3e295aa7	0.16538487
189	0x3d2894d4	0.04115756
190	0xbe143523	-0.14473395
191	0x3e51eefe	0.20501325
192	0x3de51c5f	0.11187052
193	0xbd7abb1f	-0.06121361
194	0x3d2082e7	0.03918734
195	0x3e03cee1	0.12871887
196	0x3d52fbe1	0.05150974
197	0x3e1d5156	0.15363058
198	0x3b86663f	0.004101544
199	0xbd04e6bb	-0.032446604
200	0x3e19dad9	0.1502489
201	0xbd9463f1	-0.07245625
202	0x3bf7fd9f	0.007568076
203	0x3c1ba728	0.009500302
204	0xbcfc7c36	-0.030820947
205	0xbd70cd2d	-0.05878942
206	0x3d094021	0.033508424
207	0xbca9e46a	-0.0207388
208	0x3d3914e5	0.045185942
209	0xbc94aefd	-0.018149847
210	0x3d140a22	0.036142476
211	0x3ccd39e5	0.02505202
212	0x3e22f026	0.15911922
213	0x3dfa236b	0.12213787
214	0x3d2fca54	0.042917565
215	0x3e4f8cf4	0.20268613
216	0x3e75908a	0.23980919
217	0x3e09fc0d	0.13475056
218	0xbcc80312	-0.024415527
219	0x3dca0451	0.098641045
220	0x3de6e2b1	0.11273707
221	0xbdbf574a	-0.09342821
222	0xbcf39915	-0.029736081
223	0x3e34edd2	0.17668846
224	0x3e229867	0.1587845
225	0x3dcfcd8e	0.10146628
226	0x3d418572	0.047246404
227	0x3c2412a6	0.010014212
228	0x3d82ae43	0.06380894
229	0x3ddedf33	0.108824156
230	0x3e1dd4fc	0.15413278
231	0x3deaf450	0.1147238
232	0xbdd898c1	-0.105760105
233	0x3d2bf023	0.04197706
234	0xbc72a36b	-0.01480947
235	0x3e2d7fa3	0.16943221
236	0xbb5b8dac	-0.003350119
237	0xbcc85feb	-0.0244598
238	0xbd8bf587	-0.0683394
239	0x3d3b3b53	0.045710873
240	0x3db5351e	0.08848022
241	0x3de4fd97	0.11181181
242	0x3e5fe87f	0.21866034
243	0x3d67d568	0.056600004
244	0xbce29713	-0.027659928
245	0x3e339329	0.17536606
246	0x3d1dcaec	0.0385236
247	0xbdbce35d	-0.092230536
248	0xbe2a0c1f	-0.16606186
249	0xbe2888f0	-0.16458488
250	0xbda3d9a6	-0.080004975
251	0x3e008a59	0.12552775
252	0xbd11ae5b	-0.03556667
253	0x3e1b0ad2	0.15140846
254	0xbc89ee4b	-0.01683726
255	0x3d831f38	0.06402439

weight f4 [10, 256]
0	0xbc4b7af4	-0.012419451
1	0x3c95038f	0.018190173
2	0xbb7ae4f6	-0.0038283444
3	0x3d1a1f48	0.03762749
4	0xbd100a0b	-0.035165828
5	0xbe18bd96	-0.14916071
6	0xbca376ba	-0.019954074
7	0x3d4f3bb3	0.050594043
8	0x3d5aaebc	0.053389296
9	0x3d6aaba4	0.057292596
10	0xbc434663	-0.011918637
11	0x3d7ac897	0.061226454
12	0xbd3f8ae6	-0.046763323
13	0xbd749597	-0.059712972
14	0xbe44d622	-0.1922231
15	0x3d6e7f68	0.058226973
16	0x3d6d2f78	0.057906598
17	0xbcd8242a	-0.026384432
18	0x3d344f0d	0.0440207
19	0xbd8cf9b0	-0.068835616
20	0xbddf01fc	-0.1088905
21	0xba7839fe	-0.0009469091
22	0x3d54f73d	0.051993597
23	0x3d3e2a7e	0.046427242
24	0x3d80dabe	0.06291722
25	0xbd6f29d9	-0.05838952
26	0x3d998ea3	0.07497909
27	0xbb311b64	-0.0027024383
28	0xbdafdad0	-0.08586657
29	0xbe65f963	-0.22458415
30	0xbc7c64e3	-0.015404913
31	0xbc431371	-0.011906491
32	0xbb399ee5	-0.0028323468
33	0x3bd951d8	0.006632071
34	0xbdc7c473	-0.097542666
35	0x3d4adf63	0.049529444
36	0x3d180ce1	0.037121657
37	0x3bbff706	0.005858305
38	0x3cf3d9cf	0.029766945
39	0xbcbe5f8b	-0.023238918
40	0x3d526e6b	0.051374834
41	0xbde77f9a	-0.11303635
42	0x3d95f08a	0.0732127
43	0xbd4b5c2c	-0.04964845
44	0xbcdaa457	-0.026689691
45	0x3c96d31d	0.018411214
46	0x3d5b0419	0.053470705
47	0x3bfbfe48	0.007690225
48	0xbd22ca63	-0.039743792
49	0xbbed7ee4	-0.0072477926
50	0xbd2a6230	-0.041597545
51	0x3c083673	0.008313763
52	0x3d80c2de	0.06287168
53	0x3b0b66d9	0.0021271019
54	0x3d1d4bc6	0.03840234
55	0x3c7117d0	0.01471515
56	0xbd690e3b	-0.056898337
57	0xbcb4fc4b	-0.022092959
58	0x3db2ee62	0.08736874
59	0xbcd43ebe	-0.025908824
60	0xbd537f24	-0.051634923
61	0xbd91a86e	-0.071122035
62	0xbd1128ec	-0.035439417
63	0x3d718448	0.058964044
64	0x3d2fbe27	0.042905953
65	0x3d88133f	0.06644296
66	0x3d4bbcae	0.049740486
67	0xbdaa36e0	-0.08311248
68	0xbd590db0	-0.05299157
69	0xbdf83b2b	-0.121206604
70	0x3d80f9a6	0.06297617
71	0x3d0dc4db	0.034611564
72	0xba67775c	-0.00088297366
73	0xbddad2cd	-0.10684738
74	0x3cbefb0a	0.023313064
75	0xbe5afb29	-0.21384872
76	0xbddbdf9d	-0.1073601
77	0xbd9e3c11	-0.077263005
78	0xbdbc408c	-0.09191999
79	0xbc777f9f	-0.015106111
80	0x3d8e45d6	0.06946914
81	0xbd623be4	-0.055232897
82	0xbd248d5a	-0.040173866
83	0xbd76f748	-0.06029442
84	0x3c577a29	0.013151684
85	0xbde7a7eb	-0.11311325
86	0xbd0114db	-0.03151403
87	0x3c317f17	0.010833523
88	0x3d63681f	0.05551922
89	0xbd3ffc0e	-0.046871237
90	0x3c89694b	0.01677384
91	0xbd2b4c16	-0.041820608
92	0xbcd04896	-0.025425237
93	0xbd85070c	-0.06495485
94	0x3cf00b18	0.029302165
95	0x3c017e0c	0.007903587
96	0xbd8d9931	-0.069139846
97	0x3e0057ea	0.12533537
98	0xbd11c039	-0.03558371
99	0xbda9840b	-0.08277138
100	0x3da51944	0.0806146
101	0xbdd286bc	-0.10279605
102	0x3c6cd18d	0.014454258
103	0x3bb669d3	0.0055668144
104	0x3c01655a	0.007897699
105	0xbda96a1c	-0.08272192
106	0xbd074a59	-0.033029888
107	0xbd8dc916	-0.0692312
108	0x3d321970	0.04348129
109	0xbd9bb0b9	-0.076020665
110	0x3d0e8a2f	0.03479975
111	0x3d02fe54	0.031980827
112	0x3cfa73a7	0.030572725
113	0x3d45cca6	0.04829087
114	0x3a825479	0.0009943388
115	0xbb6a356a	-0.0035737404
116	0xbd9ddafa	-0.07707782
117	0x3b975fe7	0.0046195867
118	0x3d9b246e	0.07575308
119	0x3d0b99e7	0.03408232
120	0xbcd157a9	-0.025554495
121	0x3d6f3feb	0.058410566
122	0xbd18906c	-0.037247106
123	0xbd6e41b0	-0.058168113
124	0xbd0fe87c	-0.035133824
125	0xbd9efc6d	-0.0776299
126	0xbd830da0	-0.06399083
127	0x3c6eb24f	0.014568879
128	0xbdf9b9d9	-0.12193651
129	0xbbcfaca8	-0.006337721
130	0xbd6779f4	-0.056512788
131	0x3d066ce3	0.032818686
132	0xbc67a54d	-0.014138532
133	0xbca3fae1	-0.02001709
134	0x3db34ca6	0.08754854
135	0x3df26503	0.11835673
136	0x3da11223	0.078647874
137	0xbd3604f7	-0.04443833
138	0xbc224901	-0.009905101
139	0x3d3349f9	0.043771718
140	0x3d5371ed	0.05162232
141	0xbd8e04a0	-0.06934476
142	0x3cd42819	0.025898026
143	0x3b4caed8	0.0031232145
144	0x3d97203d	0.07379196
145	0x3ce6999b	0.028149417
146	0xb78af2ac	-1.6563885e-05
147	0xbdd44983	-0.10365584
148	0x3d86c01d	0.065796115
149	0xbda60d99	-0.08108062
150	0x3d97bbdf	0.074088804
151	0xbda0a0db	-0.07843181
152	0xbae5db4e	-0.0017536671
153	0x3c967a84	0.018368967
154	0x3cbeb590	0.023279935
155	0xbc20b7f6	-0.009809485
156	0x3d0e7857	0.034782734
157	0xbda0c9f6	-0.07851021
158	0xbd9d0fb0	-0.07669008
159	0xbda29ef4	-0.07940474
160	0x3d9c24dc	0.07624218
161	0xbcd5876e	-0.026065554
162	0xbd898fa7	-0.06716853
163	0x3d5668a1	0.052345876
164	0x3b0d8c39	0.0021598472
165	0x3dad34d5	0.084573425
166	0xbc350b0d	-0.011049998
167	0xbd2a3d77	-0.041562524
168	0xbcb359b0	-0.021893352
169	0xbd981104	-0.074251205
170	0x3d2ec917	0.042672243
171	0xbd9d6309	-0.07684905
172	0xbda21cb5	-0.07915632
173	0x3d4320f7	0.04763886
174	0xbba80bf2	-0.005128377
175	0x3a23bc8d	0.0006246053
176	0x3c42cdf9	0.011889928
177	0xbd176218	-0.036958784
178	0xbdb1f79c	-0.08689806
179	0xbd4f060d	-0.05054288
180	0xbddba84e	-0.10725461
181	0x3d95d7ae	0.07316528
182	0x3cbfb1d6	0.023400228
183	0x3d8911d0	0.066928506
184	0x3d4bc935	0.049752433
185	0x3d1caed3	0.038252663
186	0xbd8a4012	-0.06750502
187	0xbdcc86ea	-0.0998667
188	0xbe72888b	-0.236849
189	0xbd92a5ed	-0.07160554
190	0x3d00891b	0.031380754
191	0xbe0d8e88	-0.13823903
192	0xbdbde45b	-0.09272071
193	0xbdb5b76e	-0.08872877
194	0xbd7c0c63	-0.06153525
195	0xbdf55408	-0.11978918
196	0x3d69dc74	0.057095006
197	0x3db22bf2	0.08699788
198	0xbe276c60	-0.16349936
199	0x3d7ea7d1	0.06217176
200	0xbd870d9e	-0.06594394
201	0x3d2b21e0	0.041780353
202	0xbda7fbd2	-0.08202328
203	0xbd277985	-0.040887374
204	0xbd54c4c0	-0.051945448
205	0xbda606f2	-0.081067935
206	0x3d1dfcd8	0.03857121
207	0x3ba6b824	0.0050878692
208	0xbda19e96	-0.07891576
209	0xbbcf59e0	-0.0063278526
210	0x3d0a876f	0.033820566
211	0xbd85ad1f	-0.06527161
212	0x3cec0e73	0.028815484
213	0xbca41398	-0.020028874
214	0x3c089eac	0.008338612
215	0x3cd2ec83	0.025747543
216	0x3d3e7169	0.046494875
217	0xbd8c6983	-0.06856062
218	0x3d8b0749	0.06788499
219	0xbdab622d	-0.08368335
220	0xbd07369d	-0.033011068
221	0xbc8df5ef	-0.017329184
222	0xbce1691a	-0.027515937
223	0xbd9123f4	-0.07086936
224	0xbd680ad2	-0.056650944
225	0xbd2a4e49	-0.041578565
226	0xbc94fcd8	-0.018186972
227	0x3c3f20d8	0.011665545
228	0xbc2f279e	-0.010690598
229	0x3bbeb73e	0.005820184
230	0xbe07fb7f	-0.13279532
231	0x3cb58822	0.02215964
232	0xbc1ab22a	-0.009441892
233	0x3d4a586b	0.04940073
234	0x3ca2711b	0.019829324
235	0xbdb2a868	-0.08723527
236	0xb9eb8ecb	-0.00044929082
237	0xbcb2db14	-0.02183298
238	0xbd94e575	-0.07270328
239	0xbb2a56ac	-0.0025991602
240	0xbcd12a52	-0.025532875
241	0x3cbbb233	0.02291212
242	0xbbbc4e61	-0.005746648
243	0xbd3e618d	-0.04647975
244	0xbda4dc15	-0.0804979
245	0xbd6cabcc	-0.057781026
246	0xbdfe9892	-0.12431444
247	0xbd120cec	-0.035656855
248	0xbdc93f1d	-0.09826491
249	0xbd809fea	-0.06280501
250	0xbba80b06	-0.005128267
251	0xbe076bac	-0.13224667
252	0x3c048ddb	0.008090462
253	0xbda8b579	-0.08237738
254	0x3c2af5b8	0.0104345605
255	0x3d849016	0.06472795

bias f4 [10]
0	0x3c26be9a	0.010177279
1	0xbd2190b7	-0.03944465
2	0xbcf64772	-0.030063365
3	0xbc6ab6b2	-0.0143257845
4	0xbd234917	-0.039864626
5	0x3df862f4	0.12128249
6	0x3dae9b60	0.08525729
7	0x3d1283d8	0.035770267
8	0xbd418a57	-0.04725107
9	0xbe07483d	-0.1321115
